result_train/seqmodel_ep5.pth (torch, 390340 bytes, 44 tensors)

lstm.weight_ih_l0 f4 [128, 7]
0.13825953 0.074604005 0.100403346 -0.14856914 -0.16126266 0.10948263 -0.13686436 0.15810958
-0.014128539 -0.036317933 -0.032005712 0.11539589 0.1374916 0.07103598 0.16204552 -0.075836286
0.08717687 0.08176365 0.030855523 -0.029382756 0.045969684 0.07679131 -0.06474815 -0.06144328
-0.074142605 -0.001534717 -0.0827159 -0.04494741 -0.006031168 0.031656273 0.17233278 0.14832145
-0.092933 -0.12600969 0.1111672 0.17080703 -0.14588818 0.02245458 -0.050750677 -0.04047844
0.02436265 0.033770956 -0.07218741 -0.08153932 0.11413894 0.19490552 0.08236208 -0.037403896
-0.15863127 0.17041276 0.114200994 0.054586045 -0.063818015 0.05210195 -0.053262167 -0.03581226
-0.067989595 0.050863754 -0.13316333 0.12924422 0.0034138598 -0.07181541 -0.050363395 0.03123696
0.054409716 -0.02030753 -0.064876 0.032186 0.033519827 -0.10511169 0.15255147 -0.13328105
-0.015851937 0.014067399 0.0041792714 0.04363097 0.096682556 -0.15400709 0.04254729 0.095818155
0.20032527 -0.037843477 0.00806916 -0.16432382 0.025768112 -0.16843691 -0.18149391 0.05819182
-0.041074198 0.07894036 -0.0058800373 -0.088152364 0.13348475 0.072316155 0.12329426 -0.16762999
-0.11208801 -0.028368337 0.023576958 -0.18936697 0.1685354 -0.006121799 -0.08551382 -0.1700625
-0.045818716 0.037600443 -0.09623459 -0.07028912 -0.028331317 0.1351638 0.14615805 -0.17541775
0.0242862 0.05389909 -0.0317545 0.04133529 -0.13704123 0.00044463074 0.047075998 0.15394014
0.011894684 -0.048205692 -0.068707034 0.1287766 0.18622431 -0.15431163 -0.082515754 0.11660531
0.10885464 -0.0052917115 0.16494568 -0.0635581 0.09221692 0.042727925 0.113515854 -0.19148518
0.13347332 0.022031147 -0.070485055 -0.05814967 0.102258354 -0.05149399 0.16841656 0.0752669
0.11152297 0.049393166 0.08342336 0.026066424 0.041963805 -0.07354903 0.05083073 0.024363488
-0.07252004 -0.014017278 -0.14784874 -0.1439606 -0.092249654 0.026003249 -0.09914008 -0.045537103
0.16354601 0.020610364 -0.10763303 0.021349592 0.16802137 -0.13617477 -0.1537264 0.05376007
-0.06250548 -0.038369436 0.023901295 -0.06471833 -0.14116062 -0.033357043 -0.13549282 -0.13064653
-0.14271715 0.088512726 -0.11840978 0.05077318 -0.112355106 -0.009215884 0.14651088 0.083415076
0.10972389 0.0825496 -0.047860388 -0.009006341 -0.02099509 0.018079627 0.1249524 0.17839175
-0.07310841 0.12713954 0.14949991 0.09433151 0.011152769 -0.18591504 -0.07917578 -0.14333084
0.17649607 -0.06200857 -0.079100646 -0.07046174 -0.081610106 -0.012039511 -0.12933818 0.056378834
-0.16530392 0.09255179 -0.05638735 -0.033717267 -0.08085964 0.10307673 0.15528212 -0.09932847
-0.06232794 0.13075441 0.09620973 -0.07825016 -0.09425938 -0.18097313 0.12434142 -0.10377557
0.04698342 -0.05832673 0.044113204 0.05852399 -0.00070853566 0.024760485 -0.059027687 -0.104923226
-0.14620668 0.00032098097 -0.1296435 -0.01725482 -0.16249059 -0.0019276551 -0.03045988 -0.17209166
-0.03569672 0.14530227 -0.102752425 -0.094384596 -0.117792346 -0.14161116 -0.05839653 0.04806474
-0.16680361 -0.1711693 -0.013560514 0.1619381 -0.14234793 0.110970154 0.16978209 -0.18222274
00000000: e893 0d3e fcc9 983d 45a0 cd3d 8222 18be
00000010: 0a22 25be 6e38 e03d 2c26 0cbe 7ae7 213e
00000020: 637b 67bc 1dc2 14bd 6c18 03bd ae54 ec3d
00000030: 99ca 0c3e 507b 913d 43ef 253e 0e50 9bbd
00000040: c989 b23d b373 a73d b9c4 fc3c 1bb4 f0bc
00000050: b54a 3c3d c344 9d3d ae9a 84bd f3ab 7bbd
00000060: 14d8 97bd 8f28 c9ba f466 a9bd c61a 38bd
00000070: 1ba1 c5bb 02aa 013d 0178 303e 94e1 173e
00000080: a853 bebd af08 01be a1ab e33d 0ae8 2e3e
00000090: b663 15be abf2 b73c f1df 4fbd b8cc 25bd
000000a0: 2e94 c73c 6a53 0a3d fed6 93bd 16fe a6bd
000000b0: adc1 e93d 5095 473e 73ad a83d d434 19bd
000000c0: 3c70 22be af80 2e3e 36e2 e93d 9e95 5f3d
000000d0: 05b3 82bd db68 553d 6e29 5abd e0af 12bd
000000e0: 213e 8bbd 8356 503d f85b 08be 9958 043e
000000f0: 10bb 5f3b f513 93bd d949 4ebd a7e4 ff3c
00000100: b9dc 5e3d fa5b a6bc b5dd 84bd 78d5 033d
00000110: 164c 093d cc44 d7bd 7436 1c3e d47a 08be
00000120: ecdb 81bc f37a 663c 45f2 883b 63b6 323d
00000130: 8101 c63d 09b4 1dbe 1146 2e3d 4f3c c43d
00000140: 1122 4d3e c301 1bbd 8334 043c 8144 28be
00000150: a617 d33c ba7a 2cbe 8ad9 39be 8c5a 6e3d
00000160: 6b3d 28bd 7cab a13d 54ad c0bb 3a89 b4bd
00000170: 3ab0 083e 7e1a 943d b381 fc3d 32a7 2bbe
00000180: 668e e5bd b764 e8bc 7724 c13c 6ae9 41be
00000190: 8b94 2c3e 5f99 c8bb df21 afbd dd24 2ebe
000001a0: 68ac 3bbd ec02 1a3d a416 c5bd bef3 8fbd
000001b0: 1417 e8bc 6168 0a3e 75aa 153e b6a0 33be
000001c0: daf3 c63c 4bc5 5c3d 0211 02bd 314f 293d
000001d0: 8954 0cbe 541d e939 c3d2 403d 7ca2 1d3e
000001e0: ece1 423c 5573 45bd 46b6 8cbd 03de 033e
000001f0: 96b1 3e3e de03 1ebe 05fe a8bd c4ce ee3d
00000200: 2eef de3d 1866 adbb 85e7 283e c02a 82bd
00000210: 39dc bc3d 7a03 2f3d 007b e83d b114 44be
00000220: 3bad 083e aa7a b43c 785a 90bd 592e 6ebd
00000230: d46c d13d 5deb 52bd 6475 2c3e 8825 9a3d
00000240: 2866 e43d 7d50 4a3d ded9 aa3d 4189 d53c
00000250: 3de2 2b3d e0a0 96bd e233 503d f095 c73c
00000260: 6385 94bd baa8 65bc a965 17be 686a 13be
00000270: 63ed bcbd c404 d53c f409 cbbd 1d85 3abd
00000280: 9b78 273e 11d7 a83c b56e dcbd 57e5 ae3c
00000290: cb0d 2c3e 6671 0bbe 746a 1dbe 8533 5c3d
000002a0: e002 80bd 4529 1dbd a6cc c33c 0b8b 84bd
000002b0: 698c 10be 65a1 08bd a1be 0abe 34c8 05be
000002c0: 7224 12be 2946 b53d d480 f2bd 8af7 4f3d
000002d0: 6f1a e6bd 38fe 16bc f306 163e 86d5 aa3d
000002e0: ebb6 e03d c40f a93d 4109 44bd 558f 13bc
000002f0: e5fd abbc ba1b 943c 0be7 ff3d 54ac 363e
00000300: ddb9 95bd de30 023e 8116 193e e130 c13d
00000310: 1bba 363c 8360 3ebe e926 a2bd 52c5 12be
00000320: 63bb 343e b3fc 7dbd 85ff a1bd 3f4e 90bd
00000330: 3323 a7bd 5f41 45bc 3a71 04be 7eed 663d
00000340: 6e45 29be cb8b bd3d 6cf6 66bd 1e1b 0abd
00000350: bd99 a5bd e519 d33d 4702 1f3e ba6c cbbd
00000360: 954b 7fbd 7ce4 053e 9b09 c53d 9f41 a0bd
00000370: 100b c1bd 0551 39be b7a6 fe3d 4988 d4bd
00000380: b071 403d 02e8 6ebd 0cb0 343d dab6 6f3d
00000390: 06bd 39ba 80d6 ca3c 04c7 71bd fde1 d6bd
000003a0: 34b7 15be 5649 a839 44c1 04be fb59 8dbc
000003b0: ef63 26be 5fa9 fcba 0087 f9bc cc38 30be
000003c0: b936 12bd 1eca 143e dd6f d2bd b64c c1bd
000003d0: 1d3d f1bd 8402 11be 3331 6fbd 88df 443d
000003e0: 91ce 2abe 0147 2fbe eb2c 5ebc 1ad3 253e
000003f0: a8c3 11be 5244 e33d 5bdb 2d3e 9998 3abe

lstm.weight_hh_l0 f4 [128, 32]
-0.076019794 0.173202 -0.108044855 -0.066484585 -0.18809076 -0.17114909 -0.133252 0.10389874
0.0937278 -0.17114629 -0.14382754 0.09488498 0.059469637 -0.1250943 0.0033712185 -0.18302244
-0.16648656 0.11154044 0.14871535 0.072927095 0.09681149 -0.102040805 -0.08183775 0.15155603
-0.12782188 -0.15619946 0.1497419 0.04634262 0.032633815 -0.020593498 0.09936877 0.16775915
0.17730455 -0.03572101 -0.03424995 -0.11065109 0.06788241 -0.06463645 0.017296754 0.095090464
-0.13146947 0.11475741 -0.15075487 -0.12796576 -0.028116878 -0.055283956 0.05337895 -0.09899893
-0.034377333 -0.13813491 -0.040271696 0.096003845 0.12558302 0.10249611 -0.118784934 0.08896675
0.16160275 -0.04486808 -0.08309625 -0.038162984 -0.1309791 -0.14016487 -0.13263223 -0.010939708
0.044043362 -0.0046648122 -0.067466296 -0.022153037 0.04463557 0.039218698 -0.1492949 0.1180198
-0.17951088 -0.011552938 0.004318541 -0.09790074 0.15083796 -0.0035613547 -0.0030227825 -0.12649295
0.1859936 -0.052082136 0.121672116 -0.14262123 0.09271286 0.11036065 -0.14190516 -0.014074609
0.07226471 0.11552889 -0.13055585 -0.015738877 0.115276724 0.025046375 0.18462701 0.018372992
-0.046669878 0.13543366 0.1441527 0.16011845 -0.050076984 -0.0680239 -0.06595417 0.08027381
0.16667026 0.12024856 -0.05170357 -0.03061054 0.044099495 0.09919783 -0.036921058 0.113465816
-0.14459875 -0.09416166 -0.008542317 -0.099291675 -0.07035077 -0.12101632 0.065413006 -0.11272612
0.14648686 0.02744402 0.012510418 -0.17104703 0.092927374 -0.1821251 -0.13409717 0.010496074
-0.02223075 0.12986839 -0.072233506 0.050440267 -0.10514956 -0.1719521 0.045929477 -0.17253456
0.0033876242 -0.118416935 0.14017312 0.14625062 -0.02732733 0.026419027 0.022323612 -0.102347806
-0.03847988 -0.15774068 -0.09676508 -0.13871959 -0.100659 0.044963162 -0.11378153 -0.06695036
-0.14588438 -0.1227867 0.05114509 0.10480587 -0.09157093 0.10076634 0.106974356 -0.09072747
-0.01315194 0.06912895 -0.0645955 -0.12906869 0.18607381 -0.07030958 0.027647445 0.14691085
0.09523304 0.123326145 0.07557712 0.10184001 0.13650498 0.16252139 -0.038562313 0.080370344
-0.029163472 0.035750892 -0.18124719 0.10529808 0.1643445 0.12262518 -0.15650259 0.04790437
0.011117553 -0.14720462 -0.12253597 -0.16617873 0.00956801 0.1624518 -0.046677798 0.1066145
0.045721877 0.18401451 -0.12812357 -0.0067415275 0.1365598 0.13091332 -0.14673428 -0.05464295
-0.050866194 -0.006810377 0.17124477 0.06676465 -0.051543705 0.039860625 -0.14671469 -0.09798047
-0.0698291 -0.015407918 0.07816005 0.12581839 0.0767212 -0.16903418 -0.070907876 -0.13165098
-0.037035286 -0.16309471 0.07557231 -0.08635512 0.113778494 -0.06033073 0.15383409 0.017651927
-0.1673751 0.16753952 -0.06047274 -0.1636054 -0.06706728 -0.016402103 -0.056401346 0.014901596
-0.080562115 -0.10547963 -0.07444716 0.10543062 0.05363126 -0.15141442 0.1668028 0.088049494
-0.098312385 0.022611013 0.05632623 0.06103399 0.11816305 0.031904854 0.030122971 -0.11513157
0.06620314 -0.07539682 0.028780453 -0.16576187 0.1092989 0.046332754 -0.10979182 -0.07467465
00000000: 44b0 9bbd dd5b 313e 9f46 ddbd 1229 88bd
00000010: dd9a 40be b541 2fbe 3673 08be ddc8 d43d
00000020: 5cf4 bf3d f940 2fbe 8747 13be 0e53 c23d
00000030: 6f96 733d b818 00be a9ef 5c3b 3c6a 3bbe
00000040: 747b 2abe 506f e43d d648 183e cd5a 953d
00000050: 1a45 c63d c5fa d0bd 8d9a a7bd 8131 1b3e
00000060: bde3 02be c0f2 1fbe f155 193e c2d1 3d3d
00000070: 09ab 053d b2b3 a8bc db81 cb3d 0ec9 2b3e
00000080: 538f 353e 3250 12bd ad49 0cbd 0a9d e2bd
00000090: ef05 8b3d 1d60 84bd ecb1 8d3c cabe c23d
000000a0: ef9f 06be ef05 eb3d 7c5f 1abe 7509 03be
000000b0: 5e55 e6bc 6e71 62bd e3a3 5a3d f3bf cabd
000000c0: 3fcf 0cbd 3d73 0dbe eff3 24bd aa9d c43d
000000d0: d698 003e 7be9 d13d 8445 f3bd 3334 b63d
000000e0: 317b 253e 98c7 37bd 5e2e aabd ca50 1cbd
000000f0: 631f 06be 6187 0fbe bed0 07be 763c 33bc
00000100: d066 343d 48db 98bb c52b 8abd 497a b5bc
00000110: cad3 363d c9a3 203d c3e0 18be 5db4 f13d
00000120: b3d1 37be 8948 3dbc 8c82 8d3b 2f80 c8bd
00000130: 4475 1a3e 9e65 69bb e019 46bb 5e87 01be
00000140: 1b75 3e3e 1454 55bd 3b2f f93d 4d0b 12be
00000150: 3de0 bd3d c404 e23d 964f 11be 3099 66bc
00000160: 85ff 933d 699a ec3d 6fb0 05be d1ee 80bc
00000170: 3416 ec3d 0e2e cd3c dd0e 3d3e f582 963c
00000180: ea28 3fbd 1faf 0a3e c49c 133e 17f6 233e
00000190: 861d 4dbd 1d50 8bbd fb12 87bd 9866 a43d
000001a0: 9cab 2a3e e144 f63d 1fc7 53bd f5c2 fabc
000001b0: aca1 343d 3b28 cb3d 893a 17bd c460 e83d
000001c0: b211 14be d4d7 c0bd 13f5 0bbc 6f59 cbbd
000001d0: 1114 90bd 68d7 f7bd 41f7 853d f4dc e6bd
000001e0: a700 163e 48d2 e03c 7ff8 4c3c f426 2fbe
000001f0: b550 be3d 017f 3abe c550 09be baf7 2b3c
00000200: 431d b6bc 38fc 043e 29ef 93bd 749a 4e3d
00000210: a758 d7bd 3614 30be 8c20 3c3d e6ac 30be
00000220: e702 5e3b 9484 f2bd 8b89 0f3e b9c2 153e
00000230: 91dd dfbc b76c d83c 02e0 b63c ba9b d1bd
00000240: 149d 1dbd c686 21be c52c c6bd 820c 0ebe
00000250: 4e26 cebd 4b2b 383d 4a06 e9bd 451d 89bd
00000260: b762 15be 9877 fbbd 847d 513d 76a4 d63d
00000270: 8a89 bbbd 955e ce3d 5f15 db3d 53cf b9bd
00000280: 3c7b 57bc 7b93 8d3d a54a 84bd 952a 04be
00000290: 228a 3e3e 78fe 8fbd e57c e23c cc6f 163e
000002a0: 8a09 c33d 6b92 fc3d 2dc8 9a3d 7f91 d03d
000002b0: f6c7 0b3e 026c 263e 84f3 1dbd 3599 a43d
000002c0: 3ce8 eebc 876f 123d dd98 39be 85a6 d73d
000002d0: ed49 283e e922 fb3d 3742 20be 5f37 443d
000002e0: 6626 363c cfbc 16be 23f4 fabd c22a 2abe
000002f0: 25c3 1c3c c459 263e 3831 3fbd b458 da3d
00000300: dd46 3b3d 4d6e 3c3e d332 03be 08e8 dcbb
00000310: 55d6 0b3e 240e 063e 8341 16be 49d1 5fbd
00000320: 1259 50bd 9529 dfbb ca5a 2f3e e8bb 883d
00000330: 7e1f 53bd e544 233d 603c 16be fca9 c8bd
00000340: 8f02 8fbd 7e71 7cbc 6012 a03d 89d6 003e
00000350: 0120 9d3d 4c17 2dbe 2638 91bd 84cf 06be
00000360: 50b2 17bd 4d02 27be a8c5 9a3d f4da b0bd
00000370: b304 e93d 5b1d 77bd af86 1d3e c69a 903c
00000380: 6164 2bbe 7b8f 2b3e 44b2 77bd 2d88 27be
00000390: 925a 89bd b45d 86bc 1905 67bd d325 743c
000003a0: c0fd a4bd b405 d8bd c177 98bd 02ec d73d
000003b0: 74ac 5b3d 620c 1bbe 5ace 2a3e 4b53 b43d
000003c0: 0158 c9bd bb3a b93c 55b6 663d c7fe 793d
000003d0: 78ff f13d aaae 023d 73c4 f63c 1aca ebbd
000003e0: 8395 873d a669 9abd fcc4 eb3c 7bbd 29be
000003f0: 1ad8 df3d 6ac7 3d3d 89da e0bd 06ef 98bd

lstm.bias_ih_l0 f4 [128]
0.1466275 0.034997255 0.070249364 0.16994911 0.0076276143 -0.0777509 0.062362976 -0.0689113
-0.16192017 -0.11752103 0.13727514 0.11895259 -0.16621868 -0.14117768 0.08529112 0.0025630558
-0.13114776 -0.19439796 -0.07713178 0.19076282 -0.08109512 -0.13574691 0.09372385 -0.057345532
-0.05164942 -0.12048584 0.09069004 0.00049413415 -0.0018259481 0.16987868 -0.12973616 0.17149206
0.05156589 0.18175824 -0.10228684 0.1466983 -0.07996828 -0.15838312 0.06877134 -0.007176167
-0.0064008706 -0.15272118 0.07171622 0.0983172 -0.16277328 -0.1551715 -0.086770296 0.015922068
-0.12144503 0.030639503 0.15785386 0.16274163 0.054906152 -0.00044280605 0.14828768 -0.042885333
-0.11039523 -0.10851625 0.1458207 0.042724166 -0.053214855 0.033535533 0.05712577 0.15907781
-0.13472041 0.020723648 -0.103696026 0.009089662 -0.034432616 -0.12541057 -0.14304227 0.024906162
0.08512058 0.14227247 0.13715637 0.048209272 -0.025456468 -0.027742572 -0.15223949 -0.14514923
0.06609302 0.012056695 -0.09949018 -0.0149114365 -0.12232355 0.10146737 -0.085326545 0.106447116
0.10717743 0.10772926 0.074293345 -0.07234229 -0.07420178 -0.07628527 0.16530521 -0.05557931
0.024650399 -0.0594765 -0.07517343 0.08644661 0.06953641 0.11586693 0.16715337 -0.06981598
0.11517273 0.13472602 0.024553327 0.020703308 0.104348935 0.010407653 -0.122849576 0.14078343
-0.07899533 -0.07664412 0.06630977 -0.017584475 0.09633705 -0.09219981 0.12698433 -0.03206614
-0.057282537 0.020566171 -0.0021032284 -0.15275998 0.107819 -0.08861725 -0.07432667 -0.119714856
00000000: 8525 163e 4859 0f3d e6de 8f3d 2407 2e3e
00000010: 11f1 f93b dd3b 9fbd 5270 7f3d 5e21 8dbd
00000020: 67ce 25be deae f0bd db91 0c3e 6a9d f33d
00000030: 3b35 2abe e290 10be 1cad ae3d f1f8 273b
00000040: 994b 06be 4210 47be 44f7 9dbd 5457 433e
00000050: 3315 a6bd 3d01 0bbe 4af2 bf3d 26e3 6abd
00000060: 588e 53bd 48c1 f6bd b3bb b93d c888 013a
00000070: a754 efba adf4 2d3e 8ed9 04be 9d9b 2f3e
00000080: c136 533d d51e 3a3e c37b d1bd 1438 163e
00000090: 69c6 a3bd 2f2f 22be fdd7 8c3d 0d26 ebbb
000000a0: 65be d1bb f162 1cbe f4df 923d 875a c93d
000000b0: 0aae 26be 47e5 1ebe a0b4 b1bd ff6e 823c
000000c0: 2cb8 f8bd b2ff fa3c 71a4 213e bea5 263e
000000d0: 46e5 603d 6c28 e8b9 bad8 173e 88a8 2fbd
000000e0: e516 e2bd c53d debd 0652 153e 89ff 2e3d
000000f0: d2f7 59bd 8e5c 093d b6fc 693d 4be5 223e
00000100: 26f4 09be a4c4 a93c 955e d4bd ceec 143c
00000110: 3709 0dbd a16b 00be ac79 12be 0208 cc3c
00000120: b353 ae3d e0af 113e b872 0c3e 1677 453d
00000130: 158a d0bc 6444 e3bc abe4 1bbe 00a2 14be
00000140: c75b 873d 7289 453c 82c1 cbbd 194f 74bc
00000150: c584 fabd 20ce cf3d afbf aebd f200 da3d
00000160: d77f db3d 29a1 dc3d 1c27 983d 3228 94bd
00000170: 1af7 97bd 743b 9cbd c545 293e 21a7 63bd
00000180: a2ef c93c a19d 73bd 87f4 99bd ec0a b13d
00000190: 1b69 8e3d a44b ed3d 412a 2b3e aefb 8ebd
000001a0: aedf eb3d 9ef5 093e 0f24 c93c fc99 a93c
000001b0: e5b4 d53d dc84 2a3c 8f98 fbbd 8829 103e
000001c0: 4ec8 a1bd 98f7 9cbd 6bcd 873d 510d 90bc
000001d0: 5c4c c53d 41d3 bcbd 2e08 023e c957 03bd
000001e0: 18a1 6abd 637a a83c 51d6 09bb 1d6d 1cbe
000001f0: 35d0 dc3d f67c b5bd 9538 98bd 102d f5bd

lstm.bias_hh_l0 f4 [128]
-0.06294208 0.04466127 -0.09790844 0.051994532 -0.10992588 -0.13496643 -0.067426965 0.041626163
-0.16430555 0.14233516 0.12950374 0.093807 0.055554453 -0.016284749 0.04757235 -0.0143832825
0.13966104 -0.15909737 0.06488648 -0.024459144 -0.11190548 0.012242157 0.0147727495 -0.15172395
-0.020683456 -0.15229082 0.10703421 0.12427169 -0.16624951 0.07732413 -0.011883302 -0.06692473
-0.14443971 0.07416432 0.14849386 0.13588399 0.022100143 0.08905773 -0.16120489 -0.11949297
-0.079102755 0.06485989 0.06207408 0.020171927 -0.14048153 0.09268383 -0.15306978 0.07940516
0.12853897 -0.18845183 0.04439213 -0.1587701 -0.108343236 0.022640496 -0.13670088 -0.06510452
-0.01614708 -0.022114385 -0.05368457 0.10778237 -0.012580679 -0.014772931 -0.0985598 0.07781658
0.12935185 0.060563847 0.14100721 0.044385303 -0.11757149 -0.090203635 -0.07505072 0.17055956
0.030368574 0.093148135 0.06462691 -0.1512256 0.12398698 -0.05310827 0.14910701 -0.088939644
0.13051401 -0.1565063 0.046705216 -0.12520564 0.16495739 -0.042548876 0.028222851 0.010130915
0.03161358 -0.0520421 0.051971894 0.13874334 0.1052936 0.08687002 0.10163771 -0.09810479
0.1676557 0.0012833539 0.11515756 0.07337346 -0.11951606 -0.12877707 0.17601888 -0.13439749
-0.08064599 -0.03508349 0.065464415 0.110846594 -0.05803814 -0.122343756 -0.11375199 0.032503325
-0.15625487 -0.11491881 -0.027032465 0.1434894 -0.16893107 0.1831768 -0.043269556 -0.15866694
-0.026975445 -0.0677693 0.007418798 -0.0534303 -0.12778313 -0.105182886 0.06424428 -0.07856821
00000000: c7e7 80bd bcee 363d 3884 c8bd 38f8 543d
00000010: d220 e1bd a434 0abe 2617 8abd 3280 2a3d
00000020: b73f 28be 4fc0 113e a19c 043e e21d c03d
00000030: 118d 633d 9867 85bc 39db 423d dca7 6bbc
00000040: 4e03 0f3e 6cea 22be 34e3 843d 8b5e c8bc
00000050: b32e e5bd 5493 483c 6709 723c 865d 1bbe
00000060: 5a70 a9bc 20f2 1bbe c034 db3d 2882 fe3d
00000070: 503d 2abe 1d5c 9e3d 2eb2 42bc d50f 89bd
00000080: 01e8 13be 77e3 973d c60e 183e 2c25 0b3e
00000090: 5c0b b53c e663 b63d e512 25be bbb8 f4bd
000000a0: a000 a2bd 43d5 843d 6441 7e3d 993f a53c
000000b0: 64da 0fbe 05d1 bd3d 53be 1cbe 2c9f a23d
000000c0: b89f 033e 84f9 40be 86d4 353d a194 22be
000000d0: 0fe3 ddbd 9078 b93c 51fb 0bbe 8555 85bd
000000e0: e246 84bc 3a29 b5bc 5ae4 5bbd 01bd dc3d
000000f0: 311f 4ebc 2a0a 72bc b8d9 c9bd 4d5e 9f3d
00000100: d074 043e cc11 783d 3264 103e 5dcd 353d
00000110: 52c9 f0bd afbc b8bd 31b4 99bd 2aa7 2e3e
00000120: 84c7 f83c 73c4 be3d 1d5b 843d e2da 1abe
00000130: e3ec fd3d 0f88 59bd 82af 183e fd25 b6bd
00000140: 77a5 053e 3043 20be f84d 3f3d e835 00be
00000150: 97ea 283e bb47 2ebd 9c33 e73c 23fc 253c
00000160: 3e7d 013d 192a 55bd 7be0 543d bc12 0e3e
00000170: 2ca4 d73d e9e8 b13d 6f27 d03d 2aeb c8bd
00000180: f0ad 2b3e 3636 a83a bad7 eb3d d344 963d
00000190: d6c4 f4bd 23de 03be 4b3e 343e 7f9f 09be
000001a0: ba29 a5bd b5b3 0fbd 3512 863d 8a03 e33d
000001b0: 67b9 6dbd 5d8f fabd cef6 e8bd 3522 053d
000001c0: 4701 20be 8e5a ebbd 3073 ddbc e3ee 123e
000001d0: 44fc 2cbe b392 3b3e 6b3b 31bd 9679 22be
000001e0: 9cfb dcbc a1ca 8abd 6319 f33b bbd9 5abd
000001f0: 95d9 02be 206a d7bd 8192 833d 5fe8 a0bd

lstm.weight_ih_l0_reverse f4 [128, 7]
-0.14324923 -0.16957696 -0.037345424 -0.0077506434 -0.0396876 0.12815608 -0.14848909 0.010018354
0.008753072 -0.14620015 -0.17492689 -0.18563056 -0.08802691 -0.18143404 0.06984941 -0.14216349
0.007485337 -0.16628532 -0.15802795 -0.05829831 0.018906914 -0.13185394 0.067689314 -0.010355491
-0.092309035 0.019522646 -0.09535801 0.044705674 0.024805658 -0.107537866 0.11983046 0.086145006
-0.0027296655 -0.064298466 -0.084867105 -0.073539436 -0.07968533 -0.05561941 0.014638417 0.13167654
-0.09424358 0.12519056 0.12167165 -0.1378111 -0.016360268 -0.14365138 -0.039676335 0.10973457
-0.07963034 -0.12577863 0.15252872 -0.14728591 -0.01763244 0.08078768 -0.10014528 0.03265416
0.05576338 0.11452832 0.12385713 -0.120416835 -0.029129937 -0.0588092 0.08375585 -0.047204044
-0.110845394 0.00016689653 0.0007028743 -0.14005059 0.1679387 -0.11803064 -0.0834657 0.0042208787
-0.13187656 0.04048583 0.098896265 -0.062317505 -0.08568798 0.072229266 0.16545562 0.035019305
-0.06011533 0.037866946 0.016431818 -0.092931546 -0.056845184 0.059380967 -0.15779258 0.1867086
-0.12663482 0.13098118 -0.15484011 -0.16529517 0.09169788 0.07508452 -0.12554388 0.11128749
0.030807892 0.15541105 0.0903894 -0.14448571 0.08182079 0.08199294 0.087012105 0.08808188
-0.02980608 0.039588727 0.011557063 -0.115795426 -0.0570775 -0.063743 -0.107663855 0.16682409
0.11959304 0.11599062 0.062037885 0.04469054 -0.03246769 0.20016758 -0.041900985 -0.053796176
-0.083752535 0.1289095 -0.12345596 0.12150811 0.14354865 -0.16027749 0.107527345 -0.13427617
0.031049475 -0.05922762 0.12404308 -0.045837805 0.019777786 -0.11358777 -0.014668398 -0.14933264
-0.08654682 -0.13213442 0.05170905 0.090490654 -0.13682412 -0.03759494 -0.100200884 0.023160702
0.1815922 0.09619492 -0.018927168 0.09006958 -0.1526339 -0.113725096 -0.06452934 0.053743444
0.0099807335 -0.085192226 -0.033635918 -0.12046994 0.053700723 -0.06958435 -0.17635176 0.09066155
-0.0055671874 0.063492335 0.0511761 0.14511919 -0.07549519 -0.062391646 -0.114332035 0.05405048
-0.07284864 0.09609314 -0.13072014 -0.03864958 0.018453792 0.034538463 -0.15524255 0.17985226
-0.029726857 0.035401467 0.14311963 -0.1626119 -0.08464103 0.08266293 -0.09254001 -0.067336164
0.055751022 -0.067018636 0.117712624 -0.1610234 0.09552794 -0.070467174 0.02314692 -0.16664578
-0.15808836 -0.06618256 -0.029442877 0.05798352 -0.17377926 -0.08154451 0.05095885 -0.115508646
-0.072579265 0.051286884 0.160052 0.07062242 0.03108575 0.13807055 -0.121983044 -0.072189644
0.116555355 0.08373213 0.10121096 -0.1568626 0.07541385 0.13756412 0.030028379 -0.1886147
-0.13334106 0.0373099 0.18456253 -0.16008206 0.0055215545 0.059286244 -0.0654669 0.029560555
-0.097538374 -0.083380334 -0.09708183 -0.008416515 -0.0926722 0.11913103 -0.08948542 -0.050382074
0.020848924 0.09697107 0.021991892 -0.12145134 0.062047005 0.03805508 0.09293744 0.09942968
0.07848956 -0.1575898 -0.03163486 0.104554944 -0.051964264 -0.17914692 0.1371121 0.019072818
0.20675655 0.14865363 -0.036424506 -0.20000552 -0.08414921 0.1596637 -0.034768313 -0.12578008
00000000: edaf 12be 95a5 2dbe 84f7 18bd 1cf9 fdbb
00000010: 778f 22bd 593b 033e 860d 18be 0624 243c
00000020: 0b69 0f3c 7eb5 15be 0920 33be f015 3ebe
00000030: 7447 b4bd d8c9 39be 350d 8f3d 4e93 11be
00000040: 8f47 f53b b346 2abe 14d2 21be 35ca 6ebd
00000050: ace2 9a3c b804 07be b2a0 8a3d 14aa 29bc
00000060: 850c bdbd f5ed 9f3c 0f4b c3bd 4c1d 373d
00000070: 3c35 cb3c d03c dcbd ac69 f53d cb6c b03d
00000080: 30e4 32bb eaae 83bd cece adbd d89b 96bd
00000090: 1032 a3bd 2ed1 63bd f9d5 6f3c 37d6 063e
000000a0: c702 c1bd f431 003e fc2e f93d 5a1e 0dbe
000000b0: f805 86bc 5919 13be a783 22bd 85bc e03d
000000c0: 3b15 a3bd 1dcc 00be 7d30 1c3e 1ed2 16be
000000d0: e871 90bc 0374 a53d f818 cdbd 5ec0 053d
000000e0: 2468 643d d38d ea3d cfa8 fd3d 1a9d f6bd
000000f0: e8a1 eebc eae1 70bd 3088 ab3d 0759 41bd
00000100: e902 e3bd f200 2f39 1941 383a 6c69 0fbe
00000110: 1ff8 2b3e 0cba f1bd 11f0 aabd 4c4f 8a3b
00000120: a60a 07be 78d4 253d 208a ca3d a440 7fbd
00000130: 2e7d afbd f0ec 933d 336d 293e 6770 0f3d
00000140: 7e3b 76bd 5f1a 1b3d 059c 863c e552 bebd
00000150: 7fd6 68bd 7539 733d 6194 21be 8a30 3f3e
00000160: 8fac 01be ee1f 063e 688e 1ebe 2343 29be
00000170: 19cc bb3d eac5 993d 938e 00be b2ea e33d
00000180: d560 fc3c 1324 1f3e 141e b93d 10f4 13be
00000190: a991 a73d eaeb a73d 6733 b23d 4664 b43d
000001a0: e12b f4bc ca27 223d d659 3d3c 2726 edbd
000001b0: 19ca 69bd b18b 82bd de7e dcbd efd3 2a3e
000001c0: 32ed f43d 7d8c ed3d 701b 7e3d 6d0d 373d
000001d0: d7fc 04bd bbf8 4c3e 5ea0 2bbd 6159 5cbd
000001e0: 7386 abbd da00 043e 7ad6 fcbd 3ed9 f83d
000001f0: 6bfe 123e c81f 24be 4c37 dc3d b17f 09be
00000200: 785b fe3c a998 72bd 4c0a fe3d 6cc0 3bbd
00000210: 0605 a23c b4a0 e8bd b853 70bc a8ea 18be
00000220: 763f b1bd 3f4e 07be decc 533d 2a53 b93d
00000230: 9f1b 0cbe 27fd 19bd 1f36 cdbd 83bb bd3c
00000240: 4ef3 393e d801 c53d 260d 9bbc 6676 b83d
00000250: 104c 1cbe b4e8 e8bd f527 84bd 1622 5c3d
00000260: 3b86 233c 4379 aebd d1c5 09bd f2b8 f6bd
00000270: 4af5 5b3d 3d82 8ebd 8e95 34be c3ac b93d
00000280: f46c b6bb 4508 823d 089e 513d 209a 143e
00000290: 399d 9abd 628e 7fbd ea26 eabd 0964 5d3d
000002a0: ab31 95bd 7bcc c43d 80db 05be 064f 1ebd
000002b0: 682c 973c 3478 0d3d e7f7 1ebe 312b 383e
000002c0: bd85 f3bc 2101 113d f48d 123e bc83 26be
000002d0: 4758 adbd 2f4b a93d 9e85 bdbd 8be7 89bd
000002e0: 2f5b 643d 1141 89bd 5113 f13d 51e3 24be
000002f0: 27a4 c33d 1851 90bd 9c9e bd3c 31a5 2abe
00000300: eae1 21be b98a 87bd 3032 f1bc 2180 6d3d
00000310: 31f3 31be cf00 a7bd 3aba 503d cc8f ecbd
00000320: 70a4 94bd 3212 523d ace4 233e 7da2 903d
00000330: 8ba7 fe3c 5e62 0d3e 3fd2 f9bd 2ad8 93bd
00000340: 93b4 ee3d c07b ab3d b147 cf3d 97a0 20be
00000350: 9472 9a3d 9cdd 0c3e 13fe f53c 3624 41be
00000360: 8f8a 08be 44d2 183d f6fd 3c3e 8dec 23be
00000370: 28ee b43b 22d6 723d 8313 86bd fa28 f23c
00000380: 33c2 c7bd 4fc3 aabd d7d2 c6bd 6ce5 09bc
00000390: ecca bdbd f8fa f33d 2244 b7bd 6f5d 4ebd
000003a0: 5dcb aa3c c598 c63d 5728 b43c 7bbb f8bd
000003b0: 0025 7e3d a5df 1b3d fc55 be3d caa1 cb3d
000003c0: 22bf a03d 385f 21be 8e93 01bd e720 d63d
000003d0: 7bd8 54bd 4a72 37be 1d67 0c3e 993e 9c3c
000003e0: fdb7 533e a838 183e dd31 15bd 3fce 4cbe
000003f0: 6c56 acbd e27e 233e 3869 0ebd 7ecc 00be

lstm.weight_hh_l0_reverse f4 [128, 32]
0.05200319 -0.16067483 -0.14079547 -0.056292545 -0.006216225 -0.0015049713 -0.14855024 -0.13632984
0.067831054 0.09187903 0.09259258 0.07097767 0.11545505 -0.007611024 0.07812492 -0.086629555
0.14720199 -0.0063007968 0.13307011 -0.015586538 0.15535858 0.07265488 0.1378935 0.0002872943
-0.051692132 0.016097108 0.0064870585 0.16803001 0.08933492 0.052515425 -0.07466915 0.10323364
-0.006705024 0.13576555 -0.046366815 0.117129326 -0.11410673 0.036992494 -0.1766512 -0.07416846
0.11830235 -0.103395104 0.09448929 0.07372545 -0.08707817 -0.04589493 -0.085210495 0.07608836
-0.039789442 -0.07590805 -0.15621857 0.029231677 0.09094512 -0.0094922185 -0.12626104 0.14359474
-0.1315198 -0.17195868 -0.08029598 -0.11439436 0.037124567 0.18002783 -0.049659498 -0.11705776
-0.11605211 0.08067088 0.15835564 -0.06893319 0.16638823 -0.1383605 0.033472966 -0.013720969
-0.035099223 -0.13647994 0.08865208 0.03326144 -0.18731461 0.02901758 0.113464236 0.008105119
0.09019596 0.0069312486 0.058563434 0.07127567 -0.14705083 0.111686 -0.040452488 -0.041093513
0.024737839 0.106794424 0.05217328 0.089056306 -0.064324364 0.09383361 0.1669062 -0.104402676
-0.05451265 0.14548579 0.14922926 0.13865745 -0.1472846 0.17539246 0.16269061 -0.18153521
-0.084416576 0.0014989177 0.1975777 0.0012862256 0.17389156 0.16982579 -0.040706377 -0.13010408
0.041349456 -0.09020567 -0.18641461 0.10673765 -0.15275711 0.13940947 0.0015944042 0.19389561
-0.06379517 0.18523805 -0.047161832 0.0026142045 0.018223435 0.08117206 0.08697507 -0.099166006
-0.11996525 -0.056112867 0.11193439 0.050319448 -0.026459023 -0.0727462 -0.11452479 0.05649201
-0.17014395 -0.108658426 -0.10569809 -0.014428142 -0.15659687 -0.06111137 0.09994689 -0.09704668
-0.16030578 -0.11847405 -0.050846018 -0.008136979 -0.15192033 -0.15377025 0.1287352 0.005547096
0.063174106 -0.08578604 -0.04625988 -0.13089709 0.06411978 0.09729335 0.07321689 -0.09182753
-0.06822744 -0.100178726 0.1495268 -0.070220254 0.04413743 -0.009477013 -0.025193537 -0.112773426
-0.075218074 0.15206221 -0.12951492 0.041323055 0.057045408 -0.07813918 0.15988229 -0.13666378
0.011335047 0.12123055 -0.12779893 0.02798442 0.075145975 0.14391635 0.009295667 -0.15995115
0.019314788 -0.14082608 0.11093854 0.0018653404 -0.16136737 -0.04066214 -0.15437962 -0.14800808
0.04280611 -0.07204749 -0.02813329 0.12922852 -0.11143518 0.12478453 -0.104279764 0.16528402
-0.18736686 0.0035299312 -0.041867826 0.07390006 -0.06679461 -0.040784854 -0.1591328 -0.17341697
0.075303316 0.07936198 -0.13312314 -0.1823668 0.11158836 0.13572198 0.018918071 0.052743092
0.04164896 0.15985228 0.11711334 -0.042247143 0.1366199 0.03533373 0.030001497 -0.10608489
-0.14810966 0.09209025 -0.07678682 0.03699166 0.009758092 -0.08961794 -0.18513142 -0.13499252
-0.07368625 -0.086681776 0.087007836 0.04664793 0.15915777 -0.11284667 -0.09326016 0.12028296
0.046934914 -0.060947567 -0.0657461 -0.15328836 0.064399146 -0.16946961 0.0046097655 -0.17840303
-0.08296564 -0.16346988 -0.12864932 0.09862495 0.02435049 -0.033604473 -0.019238044 -0.020955214
00000000: 4c01 553d f187 24be b02c 10be 0393 66bd
00000010: 7ab1 cbbb 7542 c5ba 8e1d 18be 0d9a 0bbe
00000020: 02eb 8a3d 132b bc3d 2ea1 bd3d be5c 913d
00000030: b273 ec3d e665 f9bb f5ff 9f3d d66a b1bd
00000040: 1ebc 163e ea76 cebb 8843 083e ae5e 7fbc
00000050: 5216 1f3e 15cc 943d f433 0d3e fd9f 9639
00000060: 21bb 53bd 15de 833c 6491 d43b 0f10 2c3e
00000070: 3af5 b63d 6a1a 573d 24ec 98bd 296c d33d
00000080: d1b5 dbbb 2006 0b3e 21eb 3dbd 80e1 ef3d
00000090: cab0 e9bd 7185 173d 0de4 34be a2e5 97bd
000000a0: 8148 f23d d0c0 d3bd 9a83 c13d 5efd 963d
000000b0: 0a56 b2bd 52fc 3bbd d782 aebd 37d4 9b3d
000000c0: 41fa 22bd ae75 9bbd c3f7 1fbe 4577 ef3c
000000d0: 6f41 ba3d 4085 1bbc 934a 01be 800a 133e
000000e0: 20ad 06be f015 30be 3872 a4bd 9747 eabd
000000f0: ee0f 183d 3759 383e c267 4bbd fbbb efbd
00000100: bbac edbd c636 a53d fb27 223e d82c 8dbd
00000110: ad61 2a3e 60ae 0dbe f31a 093d eacd 60bc
00000120: 34c4 0fbd 66c1 0bbe 398f b53d 263d 083d
00000130: 67cf 3fbe 47b6 ed3c f05f e83d 55cb 043c
00000140: a9b8 b83d 871f e33b 36e0 6f3d faf8 913d
00000150: 7e94 16be a1bb e43d 82b1 25bd ac51 28bd
00000160: 02a7 ca3c 09b7 da3d a6b3 553d 2763 b63d
00000170: 7ebc 83bd d62b c03d 75e9 2a3e 12d1 d5bd
00000180: a848 5fbd 3afa 143e 8ecf 183e 38fc 0d3e
00000190: c6d1 16be 159a 333e 5e98 263e 5ee4 39be
000001a0: 99e2 acbd 5577 c43a cf51 4a3e 9296 a83a
000001b0: a110 323e d0e6 2d3e bbbb 26bd 013a 05be
000001c0: 0c5e 293d c0bd b8bd 79e3 3ebe 4599 da3d
000001d0: 5c6c 1cbe 5bc1 0e3e 54fb d03a 928c 463e
000001e0: 0ba7 82bd 0baf 3d3e c42c 41bd 1353 2b3b
000001f0: 5049 953c 893d a63d fc1f b23d 8c17 cbbd
00000200: 57b0 f5bd 9bd6 65bd dc3d e53d c41b 4e3d
00000210: 98c0 d8bc f6fb 94bd f98b eabd 2a64 673d
00000220: 373a 2ebe 4f88 debd 3d78 d8bd 0464 6cbc
00000230: ee5a 20be ea4f 7abd f4b0 cc3d 69c0 c6bd
00000240: 3327 24be 86a2 f2bd ea43 50bd f750 05bc
00000250: 0191 1bbe f375 1dbe 29d3 033e 6ac4 b53b
00000260: 6d61 813d 97b0 afbd 007b 3dbd e309 06be
00000270: 3b51 833d bc41 c73d bdf2 953d 1210 bcbd
00000280: d4ba 8bbd 812a cdbd 8e1d 193e a3cf 8fbd
00000290: 73c9 343d 7945 1bbc ad62 cebc c1f5 e6bd
000002a0: ef0b 9abd 32b6 1b3e 8f9f 04be 5d42 293d
000002b0: 72a8 693d 6f07 a0bd 2fb8 233e 97f1 0bbe
000002c0: a2b6 393c b947 f83d b9dd 02be 953f e53c
000002d0: 22e6 993d cf5e 133e da4c 183c 3cca 23be
000002e0: 0c3a 9e3c b634 10be bf33 e33d 707e f43a
000002f0: 7d3d 25be 588d 26bd b115 1ebe 6e8f 17be
00000300: 7655 2f3d a28d 93bd c977 e6bc 7b54 043e
00000310: 2138 e4bd 088f ff3d a190 d5bd 3740 293e
00000320: 19dd 3fbe 6b56 673b 997d 2bbd ea58 973d
00000330: 9dcb 88bd 050e 27bd b5f3 22be 3894 31be
00000340: a038 9a3d 8988 a23d 6f51 08be 5dbe 3abe
00000350: 7088 e43d b4fa 0a3e 12fa 9a3c 2409 583d
00000360: 1a98 2a3d 51b0 233e 1ed9 ef3d 570b 2dbd
00000370: 16e6 0b3e 1aba 103d b3c5 f53c 0943 d9bd
00000380: 0faa 17be d099 bc3d 6942 9dbd 9184 173d
00000390: 68e0 1f3c 9c89 b7bd 1793 3dbe 7b3b 0abe
000003a0: d1e8 96bd 3786 b1bd 2a31 b23d e611 3f3d
000003b0: 41fa 223e 281c e7bd 2fff bebd ea56 f63d
000003c0: d33e 403d 28a4 79bd e4a5 86bd a0f7 1cbe
000003d0: b3e3 833d 7189 2dbe 840d 973b 49af 36be
000003e0: e4e9 a9bd a664 27be a6bc 03be e1fb c93d
000003f0: ae7a c73c d8a4 09bd 1a99 9dbc 45aa abbc

lstm.bias_ih_l0_reverse f4 [128]
0.042959325 -0.13741939 0.10776012 -0.04244659 0.00031053278 -0.122164756 -0.021925768 0.024845816
-0.109537885 0.17631505 -0.09056676 0.03641112 0.15946965 0.11877141 0.052506637 -0.07815948
-0.0993179 -0.12673573 -0.15071516 0.10232135 -0.013044905 -0.08081654 0.06042214 -0.009365685
0.11407082 -0.10715714 0.08115117 -0.15644637 0.099693716 -0.03654031 -0.06438777 0.08582901
-0.047591686 0.006476462 0.06674156 0.17494975 -0.11775067 -0.14352207 0.023509238 0.020090964
0.13948959 0.12022104 -0.08198148 0.16430469 0.075589344 -0.042343955 -0.10089333 -0.15231217
-0.013691728 0.16748512 0.100139886 0.07062378 0.052191976 0.1571331 0.091194466 0.11930205
-0.1369386 -0.12835696 -0.09723405 0.027355209 0.041123025 0.18064977 -0.07365025 0.042384036
0.03823332 -0.028043808 0.0389903 0.044206128 -0.17501864 -0.06580118 0.06413993 0.17349252
0.17953697 -0.06633947 -0.029869424 -0.110815436 0.057723187 0.09795996 0.03497943 -0.15208755
0.10624336 -0.08931015 -0.09019861 0.025535088 0.016157191 0.08923323 0.052333582 0.11854211
0.1117012 0.1243349 -0.15010239 -0.10023031 -0.15722491 0.083996005 0.08645024 -0.02956309
0.08497019 0.15398924 -0.06236035 -0.06899602 -0.091607176 0.094576605 -0.051423978 -0.05205578
0.14491706 0.030478865 0.13547239 0.16843311 -0.064437516 0.07857706 0.08829761 0.10955352
-0.12694477 0.117707215 0.04228579 -0.0864718 0.016713163 -0.027995648 -0.16588956 -0.1255737
-0.15634958 -0.14224963 0.00029617286 0.109731674 0.0058821333 -0.016077464 -0.11657188 -0.1230773
00000000: 1ef6 2f3d abb7 0cbe 56b1 dc3d 7adc 2dbd
00000010: 01cf a239 8431 fabd ab9d b3bc 7489 cb3c
00000020: 6655 e0bd ef8b 343e 117b b9bd d423 153d
00000030: 034c 233e 6d3e f33d 3311 573d 1412 a0bd
00000040: 2f67 cbbd 03c7 01be 1355 1abe db8d d13d
00000050: 4cba 55bc 2483 a5bd 357d 773d 8872 19bc
00000060: f69d e93d 3475 dbbd 9632 a63d 7a33 20be
00000070: 382c cc3d 4bab 15bd bcdd 83bd 1fc7 af3d
00000080: 80ef 42bd 8038 d43b cdaf 883d 0726 333e
00000090: 4327 f1bd 73f7 12be 7296 c03c ce95 a43c
000000a0: 5cd6 0e3e 7336 f63d e8e5 a7bd 7d3f 283e
000000b0: 96ce 9a3d db70 2dbd 2aa1 cebd b9f7 1bbe
000000c0: 4553 60bc 3881 2b3e 2416 cd3d 33a3 903d
000000d0: 41c7 553d 80e7 203e 2ac4 ba3d a254 f43d
000000e0: a239 0cbe 0270 03be a522 c7bd 0818 e03c
000000f0: 9e70 283d 41fc 383e f1d5 96bd e29a 2d3d
00000100: 8b9a 1c3d 21bc e5bc 4bb4 1f3d 7c11 353d
00000110: 1638 33be c5c2 86bd cc5b 833d 06a8 313e
00000120: 8ad8 373e fddc 87bd b9b0 f4bc 34f3 e2bd
00000130: 266f 6c3d 3b9f c83d 9746 0f3d d7bc 1bbe
00000140: 1e96 d93d 3de8 b6bd 0dba b8bd f62e d13c
00000150: 165c 843c e9bf b63d bd5b 563d 35c6 f23d
00000160: 99c3 e43d 4ca3 fe3d 71b4 19be 8c45 cdbd
00000170: 91ff 20be 1906 ac3d d30c b13d 4b2e f2bc
00000180: da04 ae3d 5baf 1d3e 916d 7fbd c94d 8dbd
00000190: 8b9c bbbd 61b1 c13d f3a1 52bd 7138 55bd
000001a0: 2365 143e d0ae f93c 46b9 0a3e bb79 2c3e
000001b0: d1f7 83bd 02ed a03d 61d5 b43d 995d e03d
000001c0: cffd 01be 7b10 f13d dd33 2d3d 2118 b1bd
000001d0: 0bea 883c 2157 e5bc f4de 29be 6496 00be
000001e0: 1b1a 20be e3a9 11be a647 9b39 00bb e03d
000001f0: e9be c03b e3b4 83bc 3dbd eebd f40f fcbd

lstm.bias_hh_l0_reverse f4 [128]
-0.072923124 -0.07353419 0.13903476 -0.12767372 -0.17324153 0.035984337 -0.05223679 -0.14209609
0.03908866 -0.03128529 -0.105696104 0.12377541 -0.067167565 0.054323286 0.15781455 0.03861478
-0.021025535 -0.122405246 0.13591653 -0.117890514 0.01993201 0.068511195 -0.03362392 0.08613409
-0.16276306 0.13279572 0.048268292 3.4232857e-05 -0.10943056 -0.11489099 0.0135348635 0.07794104
0.068856575 0.09075175 -0.0058061765 -0.04716264 0.120679125 -0.04109368 -0.036370896 -0.17720245
0.14302813 0.11563852 -0.021162823 0.13101241 0.109615296 -0.14015625 0.14100258 0.045715533
0.017169796 0.019081749 0.09841608 0.119388744 -0.15334606 -0.0717697 -0.06794014 0.03249261
-0.0030909395 0.072547995 -0.04816551 0.035334814 0.012268442 0.07745749 -0.10524333 0.14203659
0.002826326 0.088438034 -0.15196894 0.18628749 -0.016533047 -0.015354154 0.042205933 -0.002458971
-0.16080633 0.07411022 0.13048689 0.05275284 0.15104192 0.12263383 0.02564337 -0.16462967
-0.006582623 -0.09223531 0.101752944 -0.07600892 -0.10472307 0.09178956 -0.12257147 0.1611703
0.096647486 0.13152164 -0.025929973 0.17128253 0.06039847 -0.030715909 -0.16965014 0.13412341
-0.094214775 0.058102 -0.008357546 0.039289027 -0.057334196 0.009503726 -0.09616539 -0.17772916
0.10664376 0.007932622 -0.10882414 -0.064732485 0.18316634 0.061959453 0.0055358466 0.038895894
-0.13349663 0.14308934 -0.08390355 -0.1683596 -0.0707902 -0.1262049 0.15060553 0.031691555
-0.12116504 -0.027992453 -0.2009381 0.047328524 0.14777963 -0.06633963 0.174915 0.14964056
00000000: b858 95bd 1899 96bd 215f 0e3e e6bc 02be
00000010: 3a66 31be 5064 133d 3ff6 55bd a381 11be
00000020: 6e1b 203d 0125 00bd 3377 d8bd f67d fd3d
00000030: 268f 89bd 1882 5e3d 239a 213e 882a 1e3d
00000040: be3d acbc 9aaf fabd b42d 0b3e 9570 f1bd
00000050: 7448 a33c 994f 8c3d 3cb9 09bd 1267 b03d
00000060: 5cab 26be 9afb 073e f9b4 453d 4095 0f38
00000070: 211d e0bd f84b ebbd 55c1 5d3c 8d9f 9f3d
00000080: ad04 8d3d 0edc b93d bd41 bebb 9d2d 41bd
00000090: 9e26 f73d d951 28bd a6f9 14bd 8f74 35be
000000a0: f775 123e e3d3 ec3d a85d adbc 1e28 063e
000000b0: fc7d e03d 1f85 0fbe fb62 103e 3640 3b3d
000000c0: aca7 8c3c 5451 9c3c 5f8e c93d 1682 f43d
000000d0: c006 1dbe fefb 92bd 3324 8bbd f916 053d
000000e0: 5c91 4abb 0b94 943d 3349 45bd 3dbb 103d
000000f0: 9301 493c 08a2 9e3d d189 d7bd 0a72 113e
00000100: e239 393b 001f b53d bf9d 1bbe 26c2 3e3e
00000110: 5070 87bc fd8f 7bbc 21e0 2c3d b026 21bb
00000120: 6aaa 24be 19c7 973d 5b9e 053e 5d13 583d
00000130: bcaa 1a3e 7227 fb3d 0b12 d23c ae94 28be
00000140: 0bb3 d7bb dee5 bcbd d963 d03d 91aa 9bbd
00000150: 0d79 d6bd 2afc bb3d c006 fbbd d409 253e
00000160: 1eef c53d 9cad 063e 186b d4bc b064 2f3e
00000170: 6364 773d ee9f fbbc c4b8 2dbe a657 093e
00000180: adf3 c0bd 5dfc 6d3d 17ee 08bc 88ed 203d
00000190: 43d7 6abd 84b5 1b3c 5cf2 c4bd a2fe 35be
000001a0: 0b68 da3d d4f7 013c 31df debd 7792 84bd
000001b0: f58f 3b3e 32c9 7d3d 0c66 b53b 4d51 1f3d
000001c0: 57b3 08be 0386 123e a0d5 abbd 7566 2cbe
000001d0: 74fa 90bd db3b 01be 5638 1a3e 01cf 013d
000001e0: 6025 f8bd 6e50 e5bc b8c2 4dbe 8edb 413d
000001f0: 8b53 173e 12dd 87bd eb1c 333e 603b 193e

lstm.weight_ih_l1 f4 [128, 64]
0.094110385 -0.15835932 0.019105317 0.055340715 0.11725167 -0.113718055 0.14206848 0.12748806
0.180342 0.097576894 -0.053051338 -0.09831906 0.10029212 0.0013639582 0.02992104 -0.088518105
-0.019177793 -0.08704556 0.19785984 0.025766466 -0.05603666 -0.05765082 -0.0846346 -0.10123265
-0.10467449 -0.08025263 -0.121386 0.06911126 0.16927806 -0.057941142 0.072249874 0.13885975
-0.18649286 -0.12569222 0.12749657 0.0110078575 0.012201909 0.18112494 0.13562596 0.108754404
0.120907955 0.032402053 -0.06902394 0.007711939 -0.08933786 0.031413753 -0.13773397 0.14181846
-0.10315839 -0.07802205 -0.107868396 0.11869923 -0.0073064407 0.113398135 0.09257629 -0.05637219
0.074468754 -0.07124704 -0.07979916 -0.09825536 -0.051690865 -0.056145154 -0.14775486 -0.025783358
0.009933715 -0.041342236 0.036725923 0.06752428 -0.015462394 -0.01049503 -0.04026824 0.11676918
0.024991373 0.102051474 -0.06973538 0.061708 0.08225282 0.08751383 0.0813832 -0.14122066
-0.019899976 -0.06510072 0.06402086 -0.013083313 -0.078436345 -0.046980403 -0.06998093 0.077152975
0.11683638 0.014238068 0.115548156 0.18168311 0.04168701 0.09604273 0.12109432 0.12371696
-0.15986003 -0.007366651 -0.13906677 0.011627535 -0.10348153 -0.070349835 -0.07901207 -0.0708923
-0.0020376432 -0.037268147 -0.076790616 -0.019936327 -0.12487463 -0.032718677 -0.056303155 -0.032875735
0.11475996 0.0059815003 -0.115631245 0.1449589 -0.12737677 -0.14249313 -0.021054866 0.099920474
-0.10913919 0.114058465 -0.12701349 0.045868587 -0.028790286 0.19496973 0.07922753 0.07270114
-0.016592206 -0.05316929 -0.13425975 0.15884387 0.03797302 -0.12045235 -0.1674646 0.026193911
-0.036536157 0.048549324 0.060560606 -0.11143442 0.054444585 0.13922155 -0.14899567 -0.09499799
-0.12636931 0.020580001 0.15990633 -0.13031682 0.10194404 -0.07850272 0.064363524 0.06690529
0.13027874 0.07146484 -0.049639393 -0.0189529 -0.14996591 0.054416258 -0.10751599 -0.020994617
0.12568213 0.06311444 -0.120116845 0.15434621 0.15637149 -0.14105837 0.016659953 -0.02109827
-0.12002689 0.101273105 -0.032851886 0.07030367 -0.16112503 -0.12715404 0.03361602 -0.027367154
-0.15507083 0.042357378 0.103756435 0.11662755 0.053425264 -0.03936589 0.1601359 -0.14963919
-0.0663569 0.19097544 0.15643296 0.13896614 0.10551912 -0.0460247 0.1127591 0.10719727
0.005877947 0.00087972934 -0.046148892 0.17819533 0.0046235467 -0.08242208 0.062166233 0.1172551
-0.14120981 0.025663199 -0.050593965 -0.08689691 0.0016834349 -0.09528025 0.10990283 -0.17668228
0.17566058 -0.021347769 0.07643256 0.079528086 -0.08766509 -0.11878394 -0.036426872 -0.042108115
0.124588795 0.08736775 0.00043566828 0.17198297 0.11319457 -0.013453495 0.029521463 -0.10813472
0.059516903 0.12414429 -0.0624955 0.005048599 0.10692054 0.13166246 -0.18580663 -0.12960656
-0.01741275 0.14189927 -0.14048226 0.029522993 -0.13808668 -0.0036329373 -0.047624163 -0.10295297
-0.10534461 -0.12743054 0.08827367 -0.010995315 -0.14091252 -0.034348786 -0.10800645 -0.14128618
0.08426924 -0.06507383 -0.15676016 -0.12351283 -0.03275036 -0.041006442 -0.13444506 0.05662922
00000000: f2bc c03d f228 22be c182 9c3c f2ac 623d
00000010: a521 f03d 03e5 e8bd 667a 113e 3b8c 023e
00000020: 93ab 383e 65d6 c73d 5c4c 59bd 815b c9bd
00000030: f465 cd3d d8c6 b23a f81c f53c fb48 b5bd
00000040: bf1a 9dbc f144 b2bd c59b 4a3e 3214 d33c
00000050: b286 65bd 4423 6cbd e854 adbd 1053 cfbd
00000060: 945f d6bd 7e5b a4bd 3999 f8bd 348a 8d3d
00000070: 3a57 2d3e b153 6dbd bef7 933d 4031 0e3e
00000080: fcf7 3ebe 76b5 00be 768e 023e 4d5a 343c
00000090: 84ea 473c d178 393e 88e1 0a3e a1ba de3d
000000a0: 979e f73d 04b8 043d 6c5c 8dbd 6fb4 fc3b
000000b0: c5f6 b6bd b5ab 003d 220a 0dbe dc38 113e
000000c0: b544 d3bd 06ca 9fbd 1bea dcbd 9518 f33d
000000d0: de6a efbb 483d e83d a398 bd3d 87e6 66bd
000000e0: 1383 983d f8e9 91bd be6d a3bd 1b3a c9bd
000000f0: cdb9 53bd 76f8 65bd 0d4d 17be 9f37 d3bc
00000100: 05c1 223c 7a56 29bd ec6d 163d 2b4a 8a3d
00000110: fb55 7dbc 59f3 2bbc 4ff0 24bd ae24 ef3d
00000120: b5ba cc3c 5d00 d13d 6cd1 8ebd 87c1 7c3d
00000130: 2b74 a83d 733a b33d 3cac a63d 269c 10be
00000140: 4605 a3bc 8753 85bd 5e1d 833d 645b 56bc
00000150: 3ca3 a0bd 866e 40bd 2952 8fbd 6102 9e3d
00000160: e947 ef3d c946 693c 83a4 ec3d 230b 3a3e
00000170: 00c0 2a3d 0db2 c43d 4d00 f83d 515f fd3d
00000180: 59b2 23be f363 f1bb 8567 0ebe 6b81 3e3c
00000190: 20ee d3bd 9313 90bd 15d1 a1bd fb2f 91bd
000001a0: fb89 05bb 7ca6 18bd 6644 9dbd 8251 a3bc
000001b0: 45be ffbd 0504 06bd 239e 66bd b5a8 06bd
000001c0: 4507 eb3d 7600 c43b 13d0 ecbd 1b70 143e
000001d0: 0e6f 02be b8e9 11be 417b acbc 1ba3 cc3d
000001e0: 5e84 dfbd 7c97 e93d d30f 02be b3e0 3b3d
000001f0: 9bd9 ebbc 25a6 473e 0b42 a23d 56e4 943d
00000200: 61ec 87bc 0bc8 59bd 637b 09be f8a7 223e
00000210: 9989 1b3d b9af f6bd d77b 2bbe 9d94 d63c
00000220: f0a6 15bd a8db 463d 660e 783d bb37 e4bd
00000230: 4901 5f3d 1890 0e3e 5292 18be 4e8e c2bd
00000240: f566 01be 6497 a83c 7cbe 233e c671 05be
00000250: 09c8 d03d 09c6 a0bd 06d1 833d a405 893d
00000260: ca67 053e 285c 923d ad52 4bbd 1d43 9bbc
00000270: aa90 19be 95e3 5e3d 5831 dcbd e7fc abbc
00000280: d1b2 003e 2542 813d d2ff f5bd ef0c 1e3e
00000290: d91f 203e 9b71 10be 747a 883c 47d6 acbc
000002a0: a8d0 f5bd 4668 cf3d b38f 06bd 5ffb 8f3d
000002b0: f6fd 24be ab34 02be f4b0 093d 1531 e0bc
000002c0: e3ca 1ebe ee7e 2d3d 417e d43d 6dda ee3d
000002d0: 73d4 5a3d 213e 21bd aafa 233e 043b 19be
000002e0: 20e6 87bd 118f 433e f62f 203e 244d 0e3e
000002f0: 691a d83d 6584 3cbd 3eee e63d 3e8a db3d
00000300: cb9b c03b a39d 663a 9f06 3dbd d678 363e
00000310: 1f81 973b e8cc a8bd 05a2 7e3d 7123 f03d
00000320: 4e99 10be a13b d23c 9e3b 4fbd 02f7 b1bd
00000330: b4a6 dc3a 4b22 c3bd bc14 e13d 33ec 34be
00000340: 5ee0 333e 84e1 aebc ad88 9c3d 9fdf a23d
00000350: c189 b3bd ff44 f3bd 5834 15bd 8f79 2cbd
00000360: 6928 ff3d dded b23d 686a e439 4e1c 303e
00000370: 8ed2 e73d 0c6c 5cbc ffd6 f13c bc75 ddbd
00000380: ffc7 733d 5d3f fe3d 48fb 7fbd b86e a53b
00000390: 28f9 da3d 86d2 063e 1844 3ebe 95b7 04be
000003a0: 2fa5 8ebc 0b4e 113e 95da 0fbe 34da f13c
000003b0: 9866 0dbe 9316 6ebb 8e11 43bd 02d9 d2bd
000003c0: eabe d7bd 277d 02be d3c8 b43d b225 34bc
000003d0: 5f4b 10be 50b1 0cbd 7c32 ddbd 53ad 10be
000003e0: 5a95 ac3d 6e45 85bd bc85 20be 4bf4 fcbd
000003f0: 3e25 06bd 5ff6 27bd f7ab 09be 0af4 673d

lstm.weight_hh_l1 f4 [128, 32]
0.1466722 0.1478705 -0.032357268 0.105973035 0.03077588 -0.072671 0.11414056 -0.09068428
0.14468987 -0.10818215 -0.049826443 -0.119979784 0.14799662 0.1767883 -0.07347073 0.019385852
0.14917402 0.03529002 -0.07367993 0.0990025 0.034421537 0.0068900622 0.07187009 0.13034639
0.16994892 -0.14645627 0.022965861 0.1655497 -0.17101306 0.02314305 0.04167847 -0.03452863
-0.15297674 0.07677534 0.10224884 0.1796691 0.13944083 -0.095212124 0.09617264 -0.07473927
0.028885528 -0.09343142 0.026584847 0.080132544 0.116783455 0.07724631 -0.09779663 0.12870292
0.100955375 0.068085924 0.016999638 0.10190884 -0.009914722 0.09449492 -0.08364503 -0.0012721537
0.084746666 0.09178133 0.077913575 0.08165627 -0.079274654 0.011289959 -0.078332014 -0.17046666
0.047556944 0.079250455 0.18640944 -0.07279103 0.029788239 0.100829765 -0.01655217 -0.10729759
0.10741113 -0.045858674 -0.037007537 0.04051302 0.030114342 0.059603635 0.052469466 0.10059244
0.07033535 0.049656916 -0.14777932 0.115994036 0.018609516 0.14492318 0.10897159 0.14267208
0.14731202 0.022940317 -0.04034765 0.10587537 -0.13002352 0.11630678 -0.0884586 -0.03362305
0.16455527 0.012175785 0.032072578 0.021105705 0.07451844 -0.036590558 -0.07002605 -0.06891504
-0.10877016 -0.006910865 -0.14957912 -0.0008127565 -0.09461024 -0.16621326 -0.10476203 -0.007653482
-0.08544121 -0.030245231 0.13509975 -0.01724822 0.12008905 -0.15087117 0.1251804 -0.07646649
0.06513459 -0.055215474 0.10677611 -0.12912786 0.03606486 0.056058936 0.10180794 0.06817325
-0.13277677 0.044113975 -0.15040214 0.028355474 -0.0017424866 -0.09392896 -0.06556491 0.10959397
-0.08738878 0.024217648 0.08599231 -0.010517518 0.13444997 0.025413126 0.11551591 -0.009789276
0.07394014 -0.02828097 0.0730091 0.009813058 0.04805655 -0.1407357 0.16351973 0.04481769
0.032364372 0.028067993 0.024242312 0.12511837 -0.1080582 0.12140495 0.023343587 -0.05241956
-0.15398473 0.05190476 0.08558804 -0.017301733 -0.10136766 -0.13936256 -0.18624663 0.13170636
-0.16577882 -0.029093057 -0.13887312 -0.07833424 -0.08777479 0.11691042 -0.08081931 0.12831004
-0.02832266 -0.18223107 -0.09617113 -0.08100094 0.18685299 0.0050601764 0.026972549 0.10385643
-0.1259262 0.19290024 0.1506878 0.09867741 -0.042145275 0.04394412 0.1605275 -0.022485934
0.016983531 0.12919149 -0.115363464 0.1635127 0.08075026 0.067124054 -0.15356754 0.11764811
-0.06083873 -0.123646975 0.04003515 -0.11215232 -0.17304148 -0.16503884 0.09469982 -0.13896511
-0.03777847 0.18284354 -0.12381347 -0.09584094 0.027599018 0.130742 0.034312367 -0.0032991844
-0.17256878 -0.11449512 -0.06465108 0.016966164 -0.12428843 0.07181839 0.085729 0.09333682
-0.15134306 0.123133875 -0.001227008 0.13502245 -0.013883182 -0.0067883315 0.18392698 -0.07896552
0.07475696 0.022711659 -0.049679548 -0.031317715 0.023962997 -0.0970742 -0.07708036 -0.07617753
-0.1909374 0.026178716 -0.0981698 -0.13128185 -0.113922976 0.08836227 -0.12400829 0.13980035
-0.08961544 -0.0029196986 -0.07941109 0.07084676 0.108858004 0.074757606 -0.087130465 -0.0673983
00000000: 3d31 163e 5d6b 173e 0e89 04bd 6408 d93d
00000010: b31d fc3c 89d4 94bd 87c2 e93d aeb8 b9bd
00000020: 9529 143e 9a8e ddbd d016 4cbd f6b7 f5bd
00000030: 6d8c 173e fe07 353e d277 96bd 14cf 9e3c
00000040: 13c1 183e 458c 103d 81e5 96bd d3c1 ca3d
00000050: 99fd 0c3d 08c6 e13b a030 933d 8679 053e
00000060: 1707 2e3e a2f8 15be e722 bc3c dc85 293e
00000070: 0c1e 2fbe 7e96 bd3c 0bb7 2a3d e56d 0dbd
00000080: efa5 1cbe 643c 9d3d d767 d13d 2dfb 373e
00000090: 94c9 0e3e 93fe c2bd 29f6 c43d e710 99bd
000000a0: 58a1 ec3c f958 bfbd 77c8 d93c 881c a43d
000000b0: 2a2c ef3d 5033 9e3d 9949 c8bd b3ca 033e
000000c0: b1c1 ce3d a270 8b3d d342 8b3c 95b5 d03d
000000d0: 5c71 22bc 8d86 c13d 164e abbd 65be a6ba
000000e0: a98f ad3d daf7 bb3d 2791 9f3d 673b a73d
000000f0: c05a a2bd 85f9 383c 896c a0bd d08e 2ebe
00000100: 12cb 423d 104e a23d 1ee2 3e3e 7713 95bd
00000110: 7706 f43c d67f ce3d 6b98 87bc d7be dbbd
00000120: 5efa db3d 4ed6 3bbd 3795 17bd fbf0 253d
00000130: 5ab2 f63c f122 743d 39ea 563d 6903 ce3d
00000140: fb0b 903d 0d65 4b3d 7653 17be 488e ed3d
00000150: fc72 983c be66 143e 7f2c df3d a118 123e
00000160: f6d8 163e 55ed bb3c 9443 25bd 30d5 d83d
00000170: e324 05be 4032 ee3d c829 b5bd 53b8 09bd
00000180: 2d81 283e f27c 473c 895e 033d dfe5 ac3c
00000190: 209d 983d fbdf 15bd d169 8fbd 5423 8dbd
000001a0: e4c2 debd 8a74 e2bb 452b 19be 2a0f 55ba
000001b0: 03c3 c1bd cf33 2abe 7a8d d6bd 0fca fabb
000001c0: cdfb aebd d9c4 f7bc 9757 0a3e 244c 8dbc
000001d0: 3ff1 f53d f97d 1abe 4a2f 003e 779a 9cbd
000001e0: 4965 853d 9f29 62bd 6fad da3d 183a 04be
000001f0: bfb8 133d 0e9e 653d ae80 d03d 6b9e 8b3d
00000200: a2f6 07be dbb0 343d 0503 1abe bd49 e83c
00000210: 2664 e4ba d45d c0bd e546 86bd ce72 e03d
00000220: e4f8 b2bd 1764 c63c bc1c b03d ab51 2cbc
00000230: 41ad 093e 302f d03c 9b93 ec3d 3363 20bc
00000240: ee6d 973d 7ead e7bc cc85 953d f3c6 203c
00000250: f2d6 443d 051d 10be b771 273e c192 373d
00000260: 8190 043d d9ee e53c d097 c63c 081f 003e
00000270: 9e4d ddbd 29a3 f83d 0d3b bf3c e4b5 56bd
00000280: 2cae 1dbe 169a 543d c848 af3d 5dbc 8dbc
00000290: d999 cfbd 0fb5 0ebe 70b7 3ebe 08de 063e
000002a0: ecc1 29be 9054 eebc c134 0ebe b46d a0bd
000002b0: 45c3 b3bd bb6e ef3d 9884 a5bd b563 033e
000002c0: ec04 e8bc c89a 3abe 5ff5 c4bd d2e3 a5bd
000002d0: 6456 3f3e d6cf a53b 89f5 dc3c aeb2 d43d
000002e0: ccf2 00be a487 453e e74d 1a3e 6217 ca3d
000002f0: 86a0 2cbd c0fe 333d 5261 243e 6c34 b8bc
00000300: 0c21 8b3c c64a 043e ae43 ecbd e06f 273e
00000310: 6460 a53d 5678 893d cf40 1dbe 7ef1 f03d
00000320: 0832 79bd a03a fdbd e6fb 233d 1eb0 e5bd
00000330: c931 31be f1ff 28be fbf1 c13d df4c 0ebe
00000340: 99bd 1abd 563b 3b3e eb91 fdbd 4148 c4bd
00000350: 5617 e23c 3be1 053e 208b 0c3d 2137 58bb
00000360: dfb5 30be 6b7c eabd c967 84bd a0fc 8a3c
00000370: ef8a febd 8515 933d b092 af3d 6027 bf3d
00000380: adf9 1abe 9d2d fc3d 8ed3 a0ba 5343 0a3e
00000390: 4976 63bc a770 debb 5b57 3c3e adb8 a1bd
000003a0: 2d1a 993d cd0d ba3c c87c 4bbd 0147 00bd
000003b0: 0c4e c43c d7ce c6bd 4fdc 9dbd f702 9cbd
000003c0: 1885 43be bf74 d63c 400d c9bd c06e 06be
000003d0: 7350 e9bd 47f7 b43d 0ff8 fdbd d327 0f3e
000003e0: 4d88 b7bd 6a58 3fbb 48a2 a2bd 1b18 913d
000003f0: f2f0 de3d 841a 993d 7571 b2bd 1f08 8abd
