result_train/seqmodel_ep40.pth (torch, 390389 bytes, 44 tensors)

lstm.weight_ih_l0 f4 [128, 7]
0.1320641 0.071916334 0.10639413 -0.14953972 -0.16448586 0.12004294 -0.14699882 0.1630387
-0.022153255 -0.045613524 -0.032234512 0.11778291 0.14243084 0.06822947 0.16064116 -0.07058435
0.0921592 0.081538014 0.03353275 -0.03649814 0.049899656 0.07195825 -0.060536202 -0.054453008
-0.06731858 -0.0031255218 -0.089664124 -0.045074802 -0.009522701 0.025966706 0.17669132 0.15892267
-0.09267958 -0.11660832 0.10149171 0.16843142 -0.1392842 0.026836593 -0.049921833 -0.04252794
0.015170237 0.0328888 -0.077063896 -0.078830294 0.11928162 0.1992039 0.08199843 -0.04727045
-0.16601662 0.17886998 0.11123168 0.06078569 -0.07605088 0.061347723 -0.053434063 -0.025828894
-0.07003938 0.04652818 -0.12819684 0.13488336 0.0033025707 -0.06022054 -0.058872096 0.031173455
0.05089116 -0.018229168 -0.06813868 0.0310985 0.044264156 -0.1064113 0.15492575 -0.1384048
-0.012449505 0.015020219 0.0062591033 0.050987553 0.09658057 -0.16295955 0.040451407 0.10476184
0.20640136 -0.032856587 0.0027566077 -0.17696506 0.027435312 -0.17620158 -0.17894262 0.06280268
-0.04045495 0.08824862 -0.014750642 -0.09324664 0.13008146 0.078375794 0.12205782 -0.16950089
-0.10102628 -0.03497095 0.021028018 -0.18067025 0.17361696 -0.0037379386 -0.08491897 -0.16534078
-0.053038884 0.029083408 -0.0930119 -0.06970088 -0.026759455 0.13412073 0.1526226 -0.1698687
0.026504101 0.05872424 -0.03712362 0.041467946 -0.13565558 -0.00616598 0.04205478 0.15631005
0.01832306 -0.049177885 -0.06967284 0.12740575 0.17806026 -0.15403275 -0.08259833 0.112707235
0.11708574 -0.007057632 0.17160644 -0.055744357 0.08792371 0.04022392 0.11903845 -0.19653283
0.13899657 0.0174578 -0.0693471 -0.06318156 0.099374525 -0.055312566 0.1685088 0.07390957
0.11026388 0.058743104 0.076521434 0.028352773 0.03777469 -0.06694937 0.059880495 0.023681786
-0.06636601 -0.006078519 -0.15571417 -0.1347848 -0.091788314 0.029316323 -0.1022132 -0.03885399
0.15659037 0.021489833 -0.1050497 0.022116184 0.16851711 -0.13731392 -0.16017908 0.05509303
-0.06473545 -0.042394828 0.028428057 -0.061454415 -0.13822311 -0.025773758 -0.14618863 -0.13901155
-0.13622932 0.090975486 -0.11132232 0.04076708 -0.11301847 -0.013646618 0.1496876 0.08638312
0.110254616 0.083687745 -0.05005926 1.5943366e-05 -0.017728973 0.017653754 0.13202663 0.18362877
-0.07016708 0.1228085 0.15048176 0.08947312 0.008535175 -0.18061844 -0.078679144 -0.14490014
0.1760873 -0.054573044 -0.08219844 -0.076130845 -0.07832283 -0.003358386 -0.12265609 0.05725882
-0.15515165 0.08260613 -0.057620306 -0.034335796 -0.07575409 0.10552168 0.15389015 -0.10414798
-0.06749444 0.12689976 0.095916614 -0.07300608 -0.090810865 -0.18107706 0.13064198 -0.10181975
0.04491311 -0.060963314 0.04445688 0.056454208 -0.002315766 0.029941525 -0.06536507 -0.09853092
-0.15033324 -0.008850473 -0.13437656 -0.014096584 -0.16438496 -0.0035085476 -0.029519914 -0.17538632
-0.045576595 0.13777205 -0.098167755 -0.10470602 -0.10807165 -0.14606135 -0.05266925 0.057627123
-0.16407908 -0.17127027 -0.023842838 0.1600877 -0.14753838 0.103935055 0.16937038 -0.1834775
00000000: d03b 073e df48 933d 2ae5 d93d f120 19be
00000010: fb6e 28be 13d9 f53d dc86 16be 9ef3 263e
00000020: be7a b5bc 3fd5 3abd 5608 04bd 2b38 f13d
00000030: 64d9 113e e4bb 8b3d 1e7f 243e 878e 90bd
00000040: f6bd bc3d 67fd a63d a359 093d 137f 15bd
00000050: 9563 4c3d d95e 933d cff4 77bd 1e0a 5fbd
00000060: 53de 89bd 8ed5 4cbb d3a1 b7bd 5ba0 38bd
00000070: 1a05 1cbc 21b8 d43c 92ee 343e a0bc 223e
00000080: cbce bdbd 58d0 eebd e3da cf3d 4979 2c3e
00000090: 84a0 0ebe 6ad8 db3c d67a 4cbd c731 2ebd
000000a0: 968c 783c 68b6 063d add3 9dbd c771 a1bd
000000b0: ec49 f43d 1bfc 4b3e cbee a73d a99e 41bd
000000c0: 4300 2abe b129 373e 6fcd e33d 6afa 783d
000000d0: 90c0 9bbd c047 7b3d addd 5abd 1e97 d3bc
000000e0: ce70 8fbd 5594 3e3d 0846 03be dd1e 0a3e
000000f0: f16f 583b d0a9 76bd de23 71bd 795f ff3c
00000100: 4073 503d 5655 95bc 4b8c 8bbd 48c2 fe3c
00000110: 554e 353d 2bee d9bd dba4 1e3e fdb9 0dbe
00000120: 02f9 4bbc 5d17 763c 2a19 cd3b 53d8 503d
00000130: 09cc c53d dede 26be 60b0 253d 608d d63d
00000140: e15a 533e a194 06bd 34a8 343b 5436 35be
00000150: 05c0 e03c 306e 34be bc3c 37be b19e 803d
00000160: 17b4 25bd b1bb b43d adac 71bc 18f8 bebd
00000170: 1334 053e 7d83 a03d 73f9 f93d a491 2dbe
00000180: dee6 cebd b33d 0fbd f342 ac3c 9f01 39be
00000190: a5c8 313e 34f8 74bb ffe9 adbd 184f 29be
000001a0: 4d3f 59bd 5440 ee3c 067d bebd 56bf 8ebd
000001b0: a536 dbbc f256 093e 1949 1c3e 0ff2 2dbe
000001c0: 211f d93c d488 703d f00e 18bd 4bda 293d
000001d0: 4ce9 0abe fd0b cabb a241 2c3d be0f 203e
000001e0: 3e1a 963c c06e 49bd a2b0 8ebd a776 023e
000001f0: 6e55 363e c3ba 1dbe 5029 a9bd 0dd3 e63d
00000200: a6ca ef3d b543 e7bb 99b9 2f3e 3254 64bd
00000210: 5911 b43d d6c1 243d 6eca f33d e73f 49be
00000220: 1e55 0e3e a903 8f3c da05 8ebd 5565 81bd
00000230: df84 cb3d 6e8f 62bd 928d 2c3e e75d 973d
00000240: 07d2 e13d 9c9c 703d 45b7 9c3d 1344 e83c
00000250: a2b9 1a3d c01c 89bd 4045 753d 4e00 c23c
00000260: e7ea 87bd 502e c7bb 8973 1fbe 0705 0abe
00000270: 83fb bbbd c928 f03c 2755 d1bd 5d25 1fbd
00000280: 3a59 203e 720b b03c 4c24 d7bd 002d b53c
00000290: c08f 2c3e 059c 0cbe fc05 24be 3ba9 613d
000002a0: 0594 84bd 33a6 2dbd f5e1 e83c a0b7 7bbd
000002b0: 5c8a 0dbe 7d23 d3bc 79b2 15be 0b59 0ebe
000002c0: b37f 0bbe 5b51 ba3d f5fc e3bd 62fb 263d
000002d0: 3a76 e7bd 1196 5fbc b547 193e a2e9 b03d
000002e0: 2ccd e13d 7b64 ab3d f00a 4dbd 1ebe 8537
000002f0: 5a3c 91bc 9b9e 903c fd31 073e 2e09 3c3e
00000300: c2b3 8fbd 0683 fb3d e417 1a3e af3d b73d
00000310: 1ed7 0b3c 0af4 38be 8822 a1bd b460 14be
00000320: 3b50 343e fc87 5fbd a857 a8bd 7dea 9bbd
00000330: b867 a0bd 5e18 5cbb 1e33 fbbd 3988 6a3d
00000340: 13e0 1ebe 672d a93d 4503 6cbd b1a3 0cbd
00000350: f624 9bbd c01b d83d 6195 1d3e 894b d5bd
00000360: 863a 8abd 03f2 013e ee6f c43d 3684 95bd
00000370: 0cfb b9bd 446c 39be 03c7 053e e086 d0bd
00000380: cff6 373d abb4 79bd 6b18 363d 873c 673d
00000390: 1bc4 17bb ee47 f53c 1fde 85bd 94ca c9bd
000003a0: f5f0 19be 9301 11bc 029a 09be 5cf5 66bc
000003b0: 8854 28be a9ef 65bb bfd3 f1bc 7998 33be
000003c0: 86ae 3abd 1e14 0d3e 2d0c c9bd 1c70 d6bd
000003d0: ab54 ddbd 1b91 15be b6bb 57bd 6b0a 6c3d
000003e0: 5904 28be 7961 2fbe 0e52 c3bc 08ee 233e
000003f0: 4d14 17be e7db d43d 6e6f 2d3e 87e1 3bbe

lstm.weight_hh_l0 f4 [128, 32]
-0.08172925 0.16746402 -0.10338716 -0.058451284 -0.19484304 -0.17178226 -0.14163594 0.11022237
0.10052347 -0.17059727 -0.13800296 0.09024116 0.051211733 -0.12930477 0.008395568 -0.18685822
-0.16127428 0.10614835 0.15764572 0.07256083 0.09061628 -0.094894536 -0.082126595 0.16021955
-0.12149152 -0.1502348 0.14186817 0.05128744 0.041823566 -0.02787684 0.10012085 0.17066507
0.17876656 -0.03395572 -0.036455326 -0.11521582 0.07463548 -0.062245514 0.021836987 0.09006829
-0.13230099 0.1130108 -0.15404724 -0.12502337 -0.02586538 -0.05412914 0.049746666 -0.09525175
-0.03702813 -0.13365103 -0.043129414 0.10177951 0.12221803 0.09667665 -0.11069546 0.084589355
0.15789318 -0.0491784 -0.083348766 -0.039248116 -0.13828573 -0.13798621 -0.13488518 -0.00948119
0.050581113 -0.0014659468 -0.06522179 -0.023538912 0.04158756 0.038101304 -0.15049903 0.12259109
-0.18659319 -0.013080917 0.0018325286 -0.09396928 0.15631445 0.0005298826 -0.0036901082 -0.13150026
0.18435355 -0.057050653 0.11652768 -0.14941303 0.09263983 0.116780534 -0.14884111 -0.0075510982
0.07030288 0.113788106 -0.12391607 -0.011677348 0.11258923 0.0320325 0.18745622 0.015395566
-0.040276907 0.14138788 0.15007553 0.16520883 -0.052745156 -0.07377377 -0.07239566 0.08531869
0.16916263 0.12258232 -0.047920436 -0.035019364 0.045183193 0.1042983 -0.045238733 0.10730133
-0.13874362 -0.09940734 -0.0062259673 -0.108354434 -0.06461084 -0.11771132 0.055080347 -0.104622
0.15039225 0.03540465 0.013689731 -0.16425385 0.096019916 -0.18068929 -0.12817618 0.015547093
-0.029273922 0.12731509 -0.07372996 0.053385843 -0.1046241 -0.17765798 0.04383057 -0.173543
0.010657227 -0.11470387 0.14693236 0.13863945 -0.03170335 0.02143339 0.0271808 -0.09823427
-0.029290551 -0.15497942 -0.093243465 -0.13465835 -0.097754605 0.0440892 -0.10739547 -0.07190263
-0.13895495 -0.116466515 0.046902366 0.10047794 -0.08670093 0.09168619 0.10624463 -0.08847296
-0.006733162 0.067068934 -0.063054495 -0.12703677 0.18436603 -0.065475866 0.026675269 0.14617802
0.09412819 0.11847478 0.07091292 0.10408768 0.13357233 0.16798194 -0.036556084 0.08178611
-0.031206047 0.035119217 -0.17966932 0.106263936 0.16271274 0.122171365 -0.1574012 0.054975566
0.008457887 -0.14554372 -0.123071074 -0.16435577 0.01519157 0.1611189 -0.049644552 0.11415789
0.050283253 0.18272157 -0.13043846 -0.007561077 0.13485746 0.13492487 -0.14609332 -0.055615745
-0.051642027 -0.004498313 0.16977133 0.066236675 -0.052456293 0.04568265 -0.14614712 -0.10076837
-0.07056397 -0.017455991 0.07587387 0.12309501 0.07391607 -0.17281498 -0.07620239 -0.1315859
-0.03746275 -0.16154668 0.07923489 -0.086795904 0.113581054 -0.058836862 0.15392365 0.014180357
-0.15476955 0.17715482 -0.06199943 -0.16337812 -0.06772507 -0.020589693 -0.061245993 0.014624833
-0.08641002 -0.108095214 -0.07628752 0.10824547 0.06282718 -0.14207368 0.16843846 0.083939515
-0.10022202 0.0253752 0.049769916 0.048673898 0.12630753 0.04413754 0.01947442 -0.10337182
0.06437545 -0.07007787 0.03789476 -0.16611198 0.10586264 0.051594097 -0.10506788 -0.0686605
00000000: aa61 a7bd b07b 2b3e a6bc d3bd 9d6a 6fbd
00000010: ef84 47be b0e7 2fbe 0309 11be 44bc e13d
00000020: 40df cd3d 0db1 2ebe a650 0dbe 5bd0 b83d
00000030: 65c3 513d 7868 04be 908d 093c c357 3fbe
00000040: 1625 25be 4e64 d93d e16d 213e c69a 943d
00000050: 0795 b93d 1158 c2bd fd31 a8bd 9810 243e
00000060: 8cd0 f8bd 27d7 19be e445 113e c712 523d
00000070: 304f 2b3d f95d e4bc 290c cd3d d3c2 2e3e
00000080: 950e 373e 2715 0bbd 2e52 15bd 46f6 ebbd
00000090: 7dda 983d 27f5 7ebd 7be3 b23c b975 b83d
000000a0: e979 07be 3572 e73d 8fbe 1dbe 2006 00be
000000b0: a2e3 d3bc 84b6 5dbd 29c3 4b3d 5913 c3bd
000000c0: cfaa 17bd d1db 08be 78a8 30bd c771 d03d
000000d0: 724d fa3d 68fe c53d 4db4 e2bd 2f3d ad3d
000000e0: c0ae 213e 4a6f 49bd c2b2 aabd a2c2 20bd
000000f0: c69a 0dbe 424c 0dbe 571f 0abe fe56 1bbc
00000100: 242e 4f3d 0325 c0ba 0093 85bd add4 c0bc
00000110: b857 2a3d 1d10 1c3d 6b1c 1abe 0a11 fb3d
00000120: 4912 3fbe 5851 56bc 7531 f03a f772 c0bd
00000130: e510 203e d2e7 0a3a bed5 71bb 01a8 06be
00000140: 2dc7 3c3e f2ad 69bd 10a6 ee3d bbff 18be
00000150: f4b9 bd3d a22a ef3d ce69 18be 346f f7bb
00000160: f5fa 8f3d bd09 e93d b5c7 fdbd 5952 3fbc
00000170: 2f95 e63d 8334 033d 86f4 3f3e af3d 7c3c
00000180: 66f9 24bd fcc7 103e 66ad 193e 812c 293e
00000190: 4e0b 58bd b416 97bd 2d44 94bd 91bb ae3d
000001a0: f838 2d3e 700c fb3d 3848 44bd 7770 0fbd
000001b0: 0312 393d 599a d53d 404c 39bd cdc0 db3d
000001c0: cf12 0ebe 1396 cbbd 3303 ccbb eee8 ddbd
000001d0: b052 84bd a212 f1bd ee9b 613d 0f44 d6bd
000001e0: 6d00 1a3e 7704 113d e54a 603c 2932 28be
000001f0: 17a6 c43d 9d06 39be 9e40 03be 3cb9 7e3c
00000200: ddcf efbc e35e 023e bcff 96bd 1dab 5a3d
00000210: 2945 d6bd f9eb 35be af87 333d 42b5 31be
00000220: a69b 2e3c dde9 eabd 7075 163e 80f7 0d3e
00000230: 5fdb 01bd 1495 af3c 45aa de3c 0d2f c9bd
00000240: bdf2 efbc edb2 1ebe 6ef6 bebd e1e3 09be
00000250: 9133 c8bd e196 343d 28f2 dbbd b041 93bd
00000260: 354a 0ebe ff85 eebd b21c 403d 61c7 cd3d
00000270: 4290 b1bd f8c5 bb3d c996 d93d 5031 b5bd
00000280: dba1 dcbb 705b 893d b722 81bd ed15 02be
00000290: 73ca 3c3e 3618 86bd 1886 da3c b1af 153e
000002a0: 48c6 c03d e8a2 f23d cb3a 913d ec2b d53d
000002b0: 2fc7 083e 7503 2c3e d5bb 15bd 7a7f a73d
000002c0: d3a3 ffbc 2bd9 0f3d 3cfb 37be e8a0 d93d
000002d0: 2b9e 263e fb34 fa3d c82d 21be 0f2e 613d
000002e0: f392 0a3c 6a09 15be b00c fcbd e14c 28be
000002f0: 10e6 783c 5afc 243e 1658 4bbd 9dcb e93d
00000300: d0f5 4d3d 5d1b 3b3e a991 05be e9c2 f7bb
00000310: 1318 0a3e bf29 0a3e 7d99 15be 56cd 63bd
00000320: 9786 53bd 9666 93bb 89d8 2d3e 18a7 873d
00000330: 69dc 56bd bb1d 3b3d 97a7 15be a65f cebd
00000340: d883 90bd deff 8ebc c263 9b3d 3d19 fc3d
00000350: 4f61 973d 69f6 30be 0010 9cbd 74be 06be
00000360: 8a72 19bd 7e6c 25be e745 a23d 0dc2 b1bd
00000370: 2f9d e83d ecfe 70bd 299e 1d3e ba54 683c
00000380: e97b 1ebe 1368 353e 1df3 7dbd 984c 27be
00000390: 71b3 8abd b7ab a8bc 14dd 7abd ff9c 6f3c
000003a0: bdf7 b0bd 0661 ddbd a23c 9cbd cdaf dd3d
000003b0: 89ab 803d c37b 11be 227b 2c3e 7be8 ab3d
000003c0: 3441 cdbd a7df cf3c 8adb 4b3d 485e 473d
000003d0: c356 013e 91c9 343d d288 9f3c 9bb4 d3bd
000003e0: 47d7 833d fc84 8fbd 8937 1b3d 4219 2abe
000003f0: 83ce d83d 5554 533d d42d d7bd e09d 8cbd

lstm.bias_ih_l0 f4 [128]
0.14990032 0.031761993 0.071895815 0.17587425 0.008054068 -0.08129342 0.063488916 -0.06590347
-0.15827219 -0.11244193 0.14144732 0.12143125 -0.1690775 -0.13217756 0.090578 0.0008053703
-0.13319854 -0.19206145 -0.07622229 0.19895999 -0.07875324 -0.12401631 0.10202732 -0.052955233
-0.048217535 -0.118724756 0.097459115 0.0051696645 -2.537636e-05 0.17450158 -0.13287792 0.17839484
0.04547026 0.17768955 -0.1085139 0.14793862 -0.08911972 -0.16506428 0.06268382 -0.00513636
-0.006075263 -0.15272975 0.07017015 0.093518056 -0.16669479 -0.15327053 -0.09623359 0.006873151
-0.12659802 0.032999296 0.15811118 0.16992709 0.049536165 0.010360503 0.15170011 -0.04686261
-0.11158683 -0.11260986 0.14914747 0.042773567 -0.059101984 0.031494744 0.0548871 0.15087435
-0.13568349 0.02099853 -0.10193863 0.0017865205 -0.032894615 -0.121864095 -0.14025061 0.02617673
0.0866779 0.1367513 0.13595434 0.051371988 -0.031409465 -0.021675808 -0.14981675 -0.14636606
0.06243904 0.010817813 -0.10190401 -0.016324734 -0.12579903 0.09571588 -0.08630217 0.10680004
0.1079257 0.109544836 0.07408472 -0.07154809 -0.0763196 -0.06842828 0.16780868 -0.051798705
0.02871786 -0.061626036 -0.073750004 0.09242932 0.06887443 0.11195909 0.1702242 -0.06683862
0.11834936 0.1400322 0.029440008 0.024606898 0.102753416 0.019113122 -0.11860863 0.1369513
-0.080363154 -0.0747119 0.067167774 -0.009646071 0.09716236 -0.08014038 0.13577108 -0.026787898
-0.055185895 0.022031773 0.005363471 -0.14753725 0.10920441 -0.084341384 -0.07647739 -0.113297224
00000000: 787f 193e dd18 023d 1d3e 933d 6118 343e
00000010: 36f5 033c 2a7d a6bd 7a06 823d 66f8 86bd
00000020: 1b12 22be f447 e6bd 91d7 103e f2b0 f83d
00000030: a722 2dbe 8e59 07be f580 b93d 7c1f 533a
00000040: 3365 08be c2ab 44be 6f1a 9cbd 2bbc 4b3e
00000050: 6149 a1bd 43fc fdbd b3f3 d03d 96e7 58bd
00000060: c07f 45bd f725 f3bd a598 c73d 4a66 a93b
00000070: 51df d4b7 8bb0 323e 2611 08be 23ad 363e
00000080: 063f 3a3d 40f4 353e 893c debd 397d 173e
00000090: 6684 b6bd 9c06 29be 6060 803d e94e a8bb
000000a0: 0013 c7bb 3065 1cbe 5eb5 8f3d 6586 bf3d
000000b0: 0ab2 2abe f3f2 1cbe 1e16 c5bd 2b38 e13b
000000c0: e9a2 01be 452a 073d e6e7 213e 5e01 2e3e
000000d0: 6fe6 4a3d 19bf 293c 4657 1b3e 02f3 3fbd
000000e0: a387 e4bd 00a0 e6bd 1dba 183e 5633 2f3d
000000f0: ec14 72bd a200 013d 4cd1 603d ce7e 1a3e
00000100: 9df0 0abe 1c05 ac3c 33c5 d0bd ae29 ea3a
00000110: 81bc 06bd e293 f9bd db9d 0fbe 9570 d63c
00000120: 2f84 b13d 8808 0c3e 9d37 0b3e 6f6b 523d
00000130: 36a7 00bd 7791 b1bc 9069 19be fce0 15be
00000140: 14c0 7f3d 323d 313c 0db3 d0bd 73bb 85bc
00000150: 76d1 00be b006 c43d 31bf b0bd fbb9 da3d
00000160: 2608 dd3d 0b59 e03d bbb9 973d ce87 92bd
00000170: 734d 9cbd 2024 8cbd 0ad6 2b3e e12a 54bd
00000180: b841 eb3c 956b 7cbd 3e0a 97bd 954b bd3d
00000190: 0a0e 8d3d cf4a e53d 414f 2e3e b0e2 88bd
000001a0: 2661 f23d 9a64 0f3e 2c2c f13c 6894 c93c
000001b0: 6270 d23d 1f93 9c3c 15e9 f2bd f63c 0c3e
000001c0: 7095 a4bd 8d02 99bd 428f 893d 8e0a 1ebc
000001d0: 0ffd c63d a420 a4bd 9307 0b3e 4b72 dbbc
000001e0: 9b0a 62bd fa7b b43c 0ec0 af3b 0114 17be
000001f0: 90a6 df3d 2dbb acbd 2ea0 9cbd 6008 e8bd

lstm.bias_hh_l0 f4 [128]
-0.05966931 0.041426007 -0.096261986 0.057919666 -0.109499484 -0.13850898 -0.066301085 0.044634003
-0.16065757 0.1474142 0.13367592 0.096285656 0.05269567 -0.0072845654 0.052859206 -0.01614097
0.13761026 -0.15676087 0.065795965 -0.016262025 -0.1095636 0.023972694 0.023076128 -0.14733364
-0.017251574 -0.15052986 0.11380328 0.12894721 -0.16444898 0.08194707 -0.015025059 -0.06002186
-0.15053532 0.070095696 0.14226681 0.13712431 0.01294875 0.08237648 -0.1672924 -0.11745314
-0.07877718 0.064851366 0.06052802 0.015372805 -0.14440304 0.09458486 -0.16253296 0.07035621
0.123385966 -0.18609205 0.04464944 -0.15158464 -0.11371321 0.033443797 -0.13328846 -0.06908179
-0.017338673 -0.026207983 -0.050357796 0.10783177 -0.018467832 -0.01681371 -0.10079849 0.06961307
0.12838878 0.060838748 0.14276472 0.03708217 -0.116033435 -0.08665715 -0.072259024 0.17183004
0.031925876 0.08762686 0.06342485 -0.1480628 0.118034005 -0.047041517 0.15152974 -0.09015653
0.12686 -0.15774511 0.04429142 -0.12661897 0.16148192 -0.048300393 0.027247194 0.010483819
0.032361872 -0.0502265 0.051763266 0.13953756 0.10317578 0.09472702 0.10414123 -0.09432415
0.17172319 -0.0008662108 0.116580985 0.079356164 -0.120178044 -0.13268484 0.17908971 -0.13142005
-0.077469364 -0.02977727 0.070351146 0.11475021 -0.0596337 -0.11363831 -0.10951105 0.028671222
-0.15762268 -0.11298659 -0.026174463 0.15142782 -0.16810574 0.19523622 -0.03448276 -0.15338872
-0.024878807 -0.066303656 0.014885499 -0.04820752 -0.12639776 -0.10090702 0.062093545 -0.07215059
00000000: ce67 74bd 51ae 293d 0125 c5bd 2c3d 6d3d
00000010: 4441 e0bd 4cd5 0dbe ddc8 87bd 25d2 363d
00000020: 6b83 24be bff3 163e 57e2 083e 6a31 c53d
00000030: 6ad7 573d 5db3 eebb e582 583d 113a 84bc
00000040: b4e9 0c3e ec85 20be 09c0 863d f037 85bc
00000050: e162 e0bd 6262 c43c 260a bd3c a1de 16be
00000060: 2c53 8dbc 8024 1abe b211 e93d bd0a 043e
00000070: 5065 28be ded3 a73d aa2b 76bc 7bd9 75bd
00000080: ee25 1abe 558e 8f3d 64ae 113e 516a 0c3e
00000090: fe26 543c 00b5 a83d b34e 2bbe 468b f0bd
000000a0: ee55 a1bd cbd0 843d 3bec 773d 38de 7b3c
000000b0: 64de 13be b5b5 c13d 0a6f 26be eb16 903d
000000c0: c8b1 fc3d ea8e 3ebe 55e2 363d 0139 1bbe
000000d0: 79e2 e8bd 5dfc 083d c57c 08be c17a 8dbd
000000e0: d509 8ebc 20b2 d6bc fa43 4ebd e7d6 dc3d
000000f0: da49 97bc e8bc 89bc 706f cebd 4c91 8e3d
00000100: 5978 033e 0d32 793d ea30 123e 79e3 173d
00000110: f0a2 edbd 4e79 b1bd 8afc 93bd 37f4 2f3e
00000120: b5c4 023d b675 b33d e3e4 813d c69d 17be
00000130: d0bb f13d 9bae 40bd 9d2a 1b3e fda3 b8bd
00000140: 96e7 013e ef87 21be ec6a 353d 67a8 01be
00000150: 845b 253e a2d6 45bd 8235 df3c 53c4 2b3c
00000160: e28d 043d 4dba 4dbd b805 543d efe2 0e3e
00000170: d34d d33d 3d00 c23d ff47 d53d 052d c1bd
00000180: 34d8 2f3e 6c12 63ba 03c2 ee3d 7c85 a23d
00000190: e81f f6bd 89de 07be 4b63 373e fa92 06be
000001a0: 42a8 9ebd 76ef f3bc 4314 903d 2802 eb3d
000001b0: 7742 74bd 34bb e8bd 5447 e0bd e9df ea3c
000001c0: d767 21be 8365 e7bd d46b d6bc e50f 1b3e
000001d0: e923 2cbe 01ec 473e cb3d 0dbd ef11 1dbe
000001e0: a4ce cbbc 36ca 87bd 4fe2 733c 4075 45bd
000001f0: 6a6e 01be 57a8 cebd cd55 7e3d b0c3 93bd

lstm.weight_ih_l0_reverse f4 [128, 7]
-0.14706817 -0.17084263 -0.030821508 0.00014515482 -0.042526316 0.12384566 -0.14773948 0.0022229988
0.016807528 -0.14975159 -0.16570519 -0.19708973 -0.07939191 -0.18437976 0.06640464 -0.1406263
0.0075394004 -0.16138996 -0.15516667 -0.054101676 0.017053062 -0.1345001 0.06578018 -0.007187269
-0.082617804 0.020215226 -0.10005538 0.035538808 0.021148924 -0.105023146 0.11779437 0.08974631
-0.0016119056 -0.071493305 -0.090796046 -0.06730354 -0.070066884 -0.049683295 0.010318243 0.12602144
-0.08648057 0.1265601 0.1212401 -0.13341449 -0.018573945 -0.15016572 -0.037809446 0.119809955
-0.08588934 -0.1326997 0.15895565 -0.14659397 -0.015089383 0.08073081 -0.10306645 0.027878977
0.05236937 0.11126913 0.12534456 -0.12446388 -0.02290155 -0.052577958 0.07770701 -0.043487556
-0.11268193 -0.0026144532 0.007004046 -0.14378135 0.16988589 -0.11557446 -0.091147386 0.0062985932
-0.12363681 0.043833245 0.099319026 -0.061003122 -0.09544107 0.0738819 0.17320915 0.031320125
-0.057110544 0.035788253 0.011685755 -0.09457411 -0.056289997 0.063141145 -0.16452381 0.19162093
-0.12665689 0.122101314 -0.15733707 -0.16876207 0.09360007 0.074326225 -0.12151482 0.11257987
0.025051313 0.15170728 0.092059426 -0.1449012 0.078841805 0.08339846 0.08769655 0.09325285
-0.028088015 0.03602755 0.010971193 -0.10829723 -0.06492524 -0.0648817 -0.09849549 0.17468524
0.1173249 0.11217762 0.058081146 0.04051714 -0.028853184 0.20780374 -0.048658162 -0.050994992
-0.08997068 0.12773567 -0.11759014 0.11828748 0.15240698 -0.16273482 0.10249707 -0.13245009
0.03369752 -0.05851436 0.1269721 -0.035387687 0.010302614 -0.12063131 -0.011132058 -0.14782916
-0.08683819 -0.12692153 0.060174 0.090323806 -0.14238216 -0.030685958 -0.09328433 0.024357151
0.17868839 0.09078977 -0.015279684 0.08458914 -0.1466628 -0.10223012 -0.052246243 0.056204036
0.015825156 -0.089919694 -0.038285486 -0.10941677 0.051341906 -0.06261872 -0.18465553 0.099282235
-0.0118906805 0.0637676 0.046305712 0.14896636 -0.07860535 -0.060193405 -0.107179165 0.057203468
-0.06934181 0.096449226 -0.12782554 -0.037071615 0.017196724 0.0383764 -0.15946405 0.17751151
-0.031235214 0.034899574 0.14309043 -0.16236064 -0.078060836 0.08569548 -0.09133449 -0.058773614
0.06109369 -0.0723192 0.114174694 -0.16091543 0.08624618 -0.073001295 0.018204888 -0.1691691
-0.16418637 -0.062057327 -0.02114705 0.049760293 -0.18065733 -0.07623948 0.051301185 -0.10757439
-0.073415376 0.046232205 0.1562261 0.062842935 0.027470356 0.13748157 -0.11246382 -0.07471353
0.1181113 0.08197526 0.0947097 -0.15096468 0.07949672 0.14194393 0.026599333 -0.19600172
-0.14060265 0.032929186 0.18944043 -0.15615407 0.010933356 0.055040583 -0.057947114 0.030481542
-0.0920967 -0.08499344 -0.09877661 -0.014415348 -0.09123519 0.11597218 -0.07865753 -0.047205467
0.03140945 0.08460524 0.015572592 -0.12356178 0.06254322 0.040872127 0.08853229 0.10262094
0.07863536 -0.1659571 -0.026972085 0.10854916 -0.054939464 -0.18052872 0.13567577 0.021461878
0.21603085 0.1505046 -0.042531665 -0.20877536 -0.0871613 0.16134098 -0.03771324 -0.122374006
00000000: 0a99 16be 5ff1 2ebe 637d fcbc b334 1839
00000010: 1330 2ebd cba2 fd3d 0549 17be bbaf 113b
00000020: f1af 893c 7b58 19be 9fae 29be e4d1 49be
00000030: 3a98 a2bd 0cce 3cbe 28ff 873d 5700 10be
00000040: 130d f73b 6943 25be 03e4 1ebe b899 5dbd
00000050: ddb2 8b3c 65ba 09be c2b7 863d 2f83 ebbb
00000060: 8633 a9bd 679a a53c d6e9 ccbd 2491 113d
00000070: 8240 ad3c 6016 d7bd 2d3e f13d eacc b73d
00000080: 9446 d3ba 156b 92bd 47f3 b9bd 70d6 89bd
00000090: 3a7f 8fbd b680 4bbd d90d 293c c40b 013e
000000a0: ba1c b1bd f998 013e bb4c f83d cf9d 08be
000000b0: 6328 98bc 0bc5 19be 14de 1abd ec5e f53d
000000c0: c0e6 afbd 6ee2 07be 45c5 223e bb1c 16be
000000d0: 7639 77bc 3256 a53d 8114 d3bd 7462 e43c
000000e0: 4481 563d 12e1 e33d 535a 003e ebe6 febd
000000f0: 089c bbbc fc5b 57bd da24 9f3d 0220 32bd
00000100: c9c5 e6bd 3f57 2bbb 3282 e53b 6b3b 13be
00000110: 91f6 2d3e 4db2 ecbd 7bab babd 6e64 ce3b
00000120: 4c35 fdbd 7d8a 333d c667 cb3d 69de 79bd
00000130: 9c76 c3bd 654f 973d bd5d 313e 8849 003d
00000140: bfec 69bd b496 123d 9c75 3f3c 12b0 c1bd
00000150: 5790 66bd 2550 813d ee78 28be 4738 443e
00000160: 58b2 01be 4110 fa3d f81c 21be f7cf 2cbe
00000170: 65b1 bf3d 5938 983d c3dc f8bd 4690 e63d
00000180: 6938 cd3c 2759 1b3e a789 bc3d fb60 14be
00000190: d077 a13d d0cc aa3d 409a b33d 5afb be3d
000001a0: d618 e6bc a091 133d 85c0 333c f0ca ddbd
000001b0: 86f7 84bd b2e0 84bd 01b8 c9bd b0e0 323e
000001c0: 0a48 f03d 61bd e53d 7fe6 6d3d 4df5 253d
000001d0: 835d ecbc 81ca 543e c84d 47bd 20e0 50bd
000001e0: 8c42 b8bd 24cd 023e 19d3 f0bd b540 f23d
000001f0: 9310 1c3e f5a3 26be fce9 d13d ffa0 07be
00000200: 6906 0a3d c1ac 6fbd f904 023e aef2 10bd
00000210: 4ccc 283c 8c0d f7bd 3c63 36bc 8760 17be
00000220: 39d8 b1bd b8f7 01be 0379 763d b0fb b83d
00000230: a1cc 11be 1e61 fbbc db0b bfbd a688 c73c
00000240: 17fa 363e fdef b93d a457 7abc 123d ad3d
00000250: c62e 16be 065e d1bd 2800 56bd 3436 663d
00000260: c2a3 813c d127 b8bd 3ed1 1cbd e615 e0bd
00000270: e44b 523d 3e3e 80bd 5716 3dbe 7c54 cb3d
00000280: 21d1 42bc 9698 823d 0fab 3d3d a38a 183e
00000290: d7fb a0bd 5c8d 76bd c080 dbbd 2f4e 6a3d
000002a0: 1403 8ebd 2c87 c53d b3e4 02be 68d8 17bd
000002b0: 25e0 8c3c 9230 1d3d 8b4a 23be 94c5 353e
000002c0: fee0 ffbc dbf2 0e3d 4c86 123e de41 26be
000002d0: 5cde 9fbd 1d81 af3d 940d bbbd 9abc 70bd
000002e0: 613d 7a3d 171c 94bd 6cd4 e93d 04c7 24be
000002f0: d6a1 b03d b481 95bd 6b22 953c aa3a 2dbe
00000300: 7920 28be d32f 7ebd 943c adbc 73d1 4b3d
00000310: 3cfe 38be 7223 9cbd 3121 523d f64f dcbd
00000320: cd5a 96bd fb5d 3d3d bcf9 1f3e ccb3 803d
00000330: 8309 e13c f8c7 0c3e 6e53 e6bd 6803 99bd
00000340: 56e4 f13d a5e2 a73d 29f7 c13d 7c96 1abe
00000350: 2dcf a23d c059 113e d8e6 d93c adb4 48be
00000360: 24fa 0fbe c1e0 063d acfc 413e dae6 1fbe
00000370: d221 333c 3c72 613d f459 6dbd 6db4 f93c
00000380: 329d bcbd 0a11 aebd 644b cabd 5a2e 6cbc
00000390: 84d9 babd d382 ed3d 3317 a1bd 855a 41bd
000003a0: 32a7 003d 8345 ad3d 2f24 7f3c f50d fdbd
000003b0: a916 803d 8869 273d 6b50 b53d ed2a d23d
000003c0: 930b a13d a8f0 29be 90f4 dcbc 064f de3d
000003d0: 3408 61bd 85dc 38be 97ee 0a3e d2d0 af3c
000003e0: 3137 5d3e e11d 1a3e af35 2ebd 35c9 55be
000003f0: a081 b2bd 9236 253e 3379 1abd 399f fabd

lstm.weight_hh_l0_reverse f4 [128, 32]
0.05021818 -0.16705728 -0.14699568 -0.05082718 -0.0125936335 -0.01127982 -0.142093 -0.1283378
0.070353955 0.09663631 0.09851812 0.06272129 0.12287753 -0.0008958 0.0719475 -0.09246176
0.1479472 -0.011557025 0.1274245 -0.022349427 0.15063745 0.078926004 0.13932261 0.007862152
-0.046285685 0.023558976 -0.00021597458 0.16572113 0.08231023 0.059059575 -0.08251302 0.10471327
-0.0054832483 0.12310194 -0.057418786 0.1261151 -0.12532955 0.023329781 -0.17805243 -0.061961055
0.11853983 -0.0892179 0.10689356 0.06844663 -0.07644613 -0.038529426 -0.09922595 0.07484098
-0.03773073 -0.08465942 -0.15050936 0.015925514 0.085366145 -0.010116389 -0.1194875 0.15352559
-0.124751806 -0.16106749 -0.08260359 -0.12510595 0.024897333 0.19300087 -0.06481345 -0.11962775
-0.106963575 0.075372025 0.15775917 -0.06526454 0.15942551 -0.14440565 0.030058324 -0.0089971395
-0.03506662 -0.13314113 0.092781186 0.035873495 -0.18613032 0.033412512 0.11406925 0.0069469744
0.09431017 0.008453885 0.06593483 0.07002893 -0.14343798 0.11280214 -0.03982464 -0.038296506
0.030192966 0.1101652 0.051596813 0.08444544 -0.067537464 0.0964426 0.16213015 -0.10181656
-0.06277196 0.15316576 0.14876972 0.14805794 -0.14987557 0.18128227 0.16645937 -0.17479658
-0.08365435 -0.00012171407 0.20452447 -0.007870963 0.18443939 0.17933883 -0.040105645 -0.1337435
0.04966521 -0.093719326 -0.19184847 0.10724486 -0.15676732 0.14158762 0.0034491892 0.19969214
-0.05990811 0.19199327 -0.055519734 0.004200816 0.013873487 0.081332505 0.08691038 -0.095169604
-0.12456086 -0.05160348 0.11732766 0.04428243 -0.02464943 -0.07162008 -0.11567376 0.05570748
-0.16566733 -0.11082586 -0.11085829 -0.016494995 -0.16128618 -0.06250567 0.10151715 -0.09520076
-0.1623347 -0.11396076 -0.046896033 -0.0033717775 -0.15004052 -0.15413067 0.12742487 -0.0010388326
0.06207693 -0.090652 -0.041156065 -0.13021284 0.066684574 0.09306912 0.084284656 -0.09248257
-0.056142125 -0.11478628 0.13804436 -0.06281531 0.033610936 -0.021142604 -0.016761918 -0.10079143
-0.08597697 0.16250317 -0.12119746 0.030675827 0.06504376 -0.06799802 0.1498437 -0.14434122
0.021350961 0.11190109 -0.13500814 0.01649407 0.06697941 0.15324105 0.0053816224 -0.14925681
0.029614719 -0.1308493 0.099906236 -0.007922879 -0.17069733 -0.036168072 -0.16589588 -0.14139545
0.051410057 -0.08121322 -0.031444207 0.13426158 -0.11775256 0.11460872 -0.104180075 0.17260206
-0.19245668 0.0050377324 -0.03410647 0.0705392 -0.06472224 -0.03314676 -0.15866849 -0.17417465
0.08339821 0.07883087 -0.12918371 -0.18439373 0.111715645 0.13654195 0.018854583 0.059095226
0.04489676 0.16777836 0.11281954 -0.045604073 0.12752688 0.036421392 0.01993466 -0.104675986
-0.1425461 0.08340909 -0.0815161 0.044102613 0.0055557904 -0.09716288 -0.1819875 -0.12856384
-0.07731091 -0.08305087 0.09430979 0.04441233 0.16601919 -0.10660267 -0.094328284 0.11842307
0.054517087 -0.066671036 -0.06727829 -0.15865295 0.06112118 -0.16801836 0.010806002 -0.1696754
-0.08009051 -0.15394677 -0.13537635 0.09561711 0.017010512 -0.029721193 -0.02837366 -0.019799959
00000000: 94b1 4d3d 1011 2bbe 0986 16be 2930 50bd
00000010: 8755 4ebc ffce 38bc d480 11be fc6a 03be
00000020: bc15 903d 42e9 c53d dec3 c93d 0574 803d
00000030: 37a7 fb3d 1fd4 6aba 3659 933d 975c bdbd
00000040: 797f 173e ad59 3dbc 917b 023e 2516 b7bc
00000050: b440 1a3e f5a3 a13d 96aa 0e3e 41d0 003c
00000060: 0f96 3dbd c1fe c03c 3c77 62b9 cdb2 293e
00000070: 4492 a83d 74e8 713d 96fc a8bd e973 d63d
00000080: d2ac b3bb df1c fc3d f62f 6bbd 5124 013e
00000090: 6456 00be 191e bf3c 6053 36be e0ca 7dbd
000000a0: 03c5 f23d e0b7 b6bd 03eb da3d bf2d 8c3d
000000b0: ca8f 9cbd 08d1 1dbd fa36 cbbd 3a46 993d
000000c0: 8a8b 1abd eb61 adbd 201f 1abe 3976 823c
000000d0: 72d4 ae3d 36bf 25bc ddb5 f4bd d035 1d3e
000000e0: e07d ffbd e0ee 24be 122c a9bd c61b 00be
000000f0: 7ef5 cb3c 05a2 453e eabc 84bd 65ff f4bd
00000100: b80f dbbd a65c 9a3d 9f8b 213e 6aa9 85bd
00000110: 7140 233e 13df 13be e03c f63c bd68 13bc
00000120: 04a2 0fbd 2656 08be 1004 be3d 16f0 123d
00000130: f298 3ebe 8fdb 083d 249d e93d 72a3 e33b
00000140: b125 c13d 2a82 0a3c d708 873d 546b 8f3d
00000150: 68e1 12be cf04 e73d 291f 23bd ccdc 1cbd
00000160: 3d57 f73c 4b9e e13d 2e57 533d bbf1 ac3d
00000170: 1551 8abd b383 c53d 7205 263e 3385 d0bd
00000180: 968e 80bd 7cd7 1c3e 1757 183e 809c 173e
00000190: fb78 19be 0fa2 393e 5374 2a3e e0fd 32be
000001a0: f952 abbd be40 ffb8 dd6e 513e 36f5 00bc
000001b0: aedd 3c3e 99a4 373e d145 24bd 0ef4 08be
000001c0: bf6d 4b3d ebef bfbd ed73 44be 31a3 db3d
000001d0: 9d87 20be 58fc 103e cb0b 623b 197c 4c3e
000001e0: 3562 75bd e299 443e a968 63bd 00a7 893b
000001f0: 9f4d 633c a891 a63d 12fe b13d 48e8 c2bd
00000200: c419 ffbd 2c5e 53bd 7c49 f03d 7e61 353d
00000210: 9aed c9bc 8cad 92bd 5de6 ecbd 872d 643d
00000220: b2a4 29be abf8 e2bd ac09 e3bd 8320 87bc
00000230: 3428 25be f902 80bd 39e8 cf3d 9ef8 c2bd
00000240: 113b 26be 4264 e9bd 0e16 40bd 0af9 5cbb
00000250: 39a4 19be 6ed4 1dbe aa7b 023e 7029 88ba
00000260: 6144 7e3d c1a7 b9bd 4393 28bd 8456 05be
00000270: ec91 883d 069b be3d 6f9d ac3d 8067 bdbd
00000280: 49f5 65bd 1215 ebbd 805b 0d3e 50a5 80bd
00000290: 9fab 093d 4133 adbc 4a50 89bc bd6b cebd
000002a0: b214 b0bd 3b67 263e 6036 f8bd df4b fb3c
000002b0: aa35 853d 8c42 8bbd a070 193e 2fce 13be
000002c0: 36e8 ae3c 662c e53d 933f 0abe 921e 873c
000002d0: 802c 893d 39eb 1c3e 5258 b03b c7d6 18be
000002e0: 919a f23c 5cfd 05be a49b cc3d f7ce 01bc
000002f0: 48cb 2ebe f924 14bd 9ce0 29be f8c9 10be
00000300: 5a93 523d 1e53 a6bd a4cb 00bd de7b 093e
00000310: 4128 f1bd fab7 ea3d 5d5c d5bd 98be 303e
00000320: 5d13 45be 9013 a53b 3ab3 0bbd db76 903d
00000330: 188d 84bd e6c4 07bd fe79 22be d75a 32be
00000340: aecc aa3d 1472 a13d bc48 04be b6d1 3cbe
00000350: 2ccb e43d a7d1 0b3e ed74 9a3c d60d 723d
00000360: aae5 373d 17ce 2b3e ee0d e73d 56cb 3abd
00000370: 6896 023e 992e 153d 034e a33c 5d60 d6bd
00000380: 9bf7 11be 63d2 aa3d eaf1 a6bd f1a4 343d
00000390: 590d b63b 55fd c6bd ee5a 3abe 3da6 03be
000003a0: 2f55 9ebd 9316 aabd 7e25 c13d b4e9 353d
000003b0: ef00 2a3e 8052 dabd 302f c1bd cb87 f23d
000003c0: 4f4d 5f3d d38a 88bd 33c9 89bd eb75 22be
000003d0: 345a 7a3d 010d 2cbe a80b 313c 63bf 2dbe
000003e0: 7e06 a4bd 39a4 1dbe 19a0 0abe e7d2 c33d
000003f0: a159 8b3c dc79 f3bc e16f e8bc 8633 a2bc

lstm.bias_ih_l0_reverse f4 [128]
0.050346345 -0.12752871 0.110689074 -0.030503955 -0.0036560823 -0.11203201 -0.017382547 0.03269286
-0.113433816 0.17650706 -0.08981593 0.036867622 0.1562665 0.12750407 0.0538428 -0.07408226
-0.10645343 -0.12399065 -0.15255897 0.10629702 -0.010144019 -0.07907789 0.06295865 -0.0042305887
0.116271235 -0.10132822 0.09029342 -0.15814634 0.1053812 -0.035397872 -0.059443727 0.08836184
-0.047185436 0.0071851476 0.06384997 0.17712177 -0.123931 -0.13513169 0.022643607 0.023395827
0.13229525 0.117392726 -0.08633035 0.15571643 0.072721474 -0.040770825 -0.10375976 -0.15172048
-0.021952095 0.17016226 0.09360964 0.0707051 0.05349158 0.15557136 0.090151615 0.12015695
-0.13686386 -0.12116513 -0.091704234 0.02486292 0.03750557 0.17780104 -0.07320381 0.041461725
0.03905401 -0.027112922 0.036789242 0.04185717 -0.17317215 -0.069455884 0.058152724 0.1780183
0.1751656 -0.068314575 -0.031108258 -0.114514105 0.057766672 0.09286916 0.03426944 -0.15454662
0.10495392 -0.08854553 -0.08874979 0.028697263 0.008415415 0.09885174 0.04787046 0.12605444
0.11446972 0.12629434 -0.15499745 -0.104585245 -0.1514921 0.07821125 0.08019096 -0.030021507
0.09230949 0.16380525 -0.059663955 -0.056840934 -0.09563133 0.1048228 -0.04678526 -0.044867806
0.1409799 0.030819317 0.13718964 0.17019577 -0.06654412 0.088693105 0.08972929 0.112516254
-0.13345559 0.11981799 0.03984125 -0.08204541 0.019058604 -0.027173439 -0.16292553 -0.1257375
-0.1541238 -0.13802268 0.007873396 0.1075007 0.011248122 -0.015124407 -0.11157288 -0.121246815
00000000: f837 4e3d e396 02be f4b0 e23d 6ee3 f9bc
00000010: e29a 6fbb 0a71 e5bd d865 8ebc f3e8 053d
00000020: fd4f e8bd 44be 343e 6af1 b7bd 8102 173d
00000030: 5304 203e 6d90 023e 458a 5c3d 71b8 97bd
00000040: 4204 dabd cfee fdbd 6b38 1cbe 41b2 d93d
00000050: 1933 26bc 97f3 a1bd 77f0 803d c0a0 8abb
00000060: 9d1f ee3d 2b85 cfbd c2eb b83d 1df1 21be
00000070: 19d2 d73d 5cfd 10bd 447b 73bd 0df7 b43d
00000080: 8445 41bd 6371 eb3b c6c3 823d 695f 353e
00000090: 89cf fdbd f65f 0abe 167f b93c 9ba8 bf3c
000000a0: 6878 073e 996b f03d f7cd b0bd 2174 1f3e
000000b0: ffee 943d 4fff 26bd ff7f d4bd 9d5c 1bbe
000000c0: e1d4 b3bc 043f 2e3e 69b6 bf3d d6cd 903d
000000d0: fd19 5b3d 194e 1f3e 69a1 b83d d914 f63d
000000e0: 0a26 0cbe 6c25 f8bd 6ecf bbbd 53ad cb3c
000000f0: 719f 193d 7a11 363e e1eb 95bd c5d3 293d
00000100: 19f7 1f3d eb1b debc 51b0 163d 6d72 2b3d
00000110: 0a54 31be e33e 8ebd 8d31 6e3d 6e4a 363e
00000120: 9c5e 333e 83e8 8bbd bfd6 febc 5f86 eabd
00000130: bf9c 6c3d 3032 be3d 1d5e 0c3d 7841 1ebe
00000140: 15f2 d63d 5c57 b5bd 73c2 b5bd 8616 eb3c
00000150: cfe0 093c c872 ca3d d113 443d 6a14 013e
00000160: 1a6f ea3d 4e53 013e a7b7 1ebe ca30 d6bd
00000170: bf20 1bbe 382d a03d 283b a43d aaef f5bc
00000180: c20c bd3d 90bc 273e 3162 74bd 0ad2 68bd
00000190: 5cda c3bd 56ad d63d e7a1 3fbd 4ec7 37bd
000001a0: 095d 103e cb78 fc3c 717b 0c3e cd47 2e3e
000001b0: 4948 88bd bba4 b53d fdc3 b73d ec6e e63d
000001c0: 95a8 08be 2263 f53d 9430 233d 6d07 a8bd
000001d0: ca20 9c3c d59a debc f3d5 26be 55c1 00be
000001e0: a1d2 1dbe d155 0dbe 6bff 003c 5429 dc3d
000001f0: 0b4a 383c 5ccc 77bc 5280 e4bd 4050 f8bd

lstm.bias_hh_l0_reverse f4 [128]
-0.06553608 -0.06364345 0.14196372 -0.11573107 -0.17720811 0.046117123 -0.047693595 -0.13424905
0.03519271 -0.031093251 -0.10494527 0.12423187 -0.07037077 0.063056 0.15915066 0.042692024
-0.028161088 -0.11966018 0.13407272 -0.11391484 0.022832902 0.07024984 -0.03108738 0.09126919
-0.16056263 0.1386247 0.05741054 -0.0016657647 -0.10374308 -0.11374853 0.018478885 0.08047386
0.069262825 0.091460414 -0.008697783 -0.044990588 0.114498794 -0.03270336 -0.037236538 -0.17389762
0.13583378 0.1128102 -0.02551169 0.12242413 0.106747426 -0.13858311 0.1381361 0.046307184
0.008909434 0.021758854 0.091885835 0.11947007 -0.15204646 -0.07333134 -0.06898299 0.033347532
-0.0030161669 0.07973987 -0.042635657 0.032842547 0.008650995 0.07460883 -0.104796894 0.1411143
0.0036470091 0.089368924 -0.15416999 0.18393856 -0.014686526 -0.019008845 0.036218718 0.0020667987
-0.1651777 0.07213511 0.12924805 0.049054146 0.1510855 0.117543034 0.024933396 -0.16708873
-0.007872098 -0.091470696 0.10320177 -0.07284672 -0.112464875 0.10140807 -0.12703456 0.16868256
0.09941601 0.13348109 -0.030824982 0.16692759 0.066131264 -0.036500692 -0.17590947 0.13366501
-0.086875476 0.06791797 -0.005661143 0.0514441 -0.061358374 0.019749874 -0.09152668 -0.17054115
0.1027066 0.008273065 -0.1071069 -0.06296986 0.18105972 0.0720755 0.0069674808 0.04185857
-0.14000745 0.1452001 -0.08634811 -0.16393325 -0.06844476 -0.12538268 0.15356956 0.031527843
-0.11893925 -0.023765491 -0.19336097 0.045097593 0.15314575 -0.065386556 0.17991404 0.15147102
00000000: c837 86bd 7f57 82bd f05e 113e 6904 edbd
00000010: 0b76 35be 4fe5 3c3d 5c5a 43bd 9578 09be
00000020: 3b26 103d 46b7 febc 8ced d6bd 476d fe3d
00000030: 8d1e 90bd 8123 813d 64f8 223e d5dd 2e3d
00000040: 15b2 e6bc 6510 f5bd 5c4a 093e 2f4c e9bd
00000050: 110c bb3c 26df 8f3d f6aa febc 57eb ba3d
00000060: 886a 24be a2f3 0d3e 5027 6b3d ca55 daba
00000070: 4077 d4bd fdf4 e8bd 0861 973c 7bcf a43d
00000080: abd9 8d3d 994f bb3d 2581 0ebc 0d48 38bd
00000090: 587e ea3d f5f3 05bd 5785 18bd 3812 32be
000000a0: 0318 0b3e 0909 e73d e4fd d0bc 81b9 fa3d
000000b0: 659e da3d bbe8 0dbe 8d73 0d3e 9aac 3d3d
000000c0: e0f8 113c a03f b23c a42e bc3d b9ac f43d
000000d0: 11b2 1bbe be2e 96bd f446 8dbd 6c97 083d
000000e0: e2aa 45bb a84e a33d baa2 2ebd e885 063d
000000f0: e7bc 0d3c 84cc 983d c19f d6bd 4480 103e
00000100: a902 6f3b 0e07 b73d bdde 1dbe 645a 3c3e
00000110: c19f 70bc 70b8 9bbc 145a 143d 2173 073b
00000120: 5824 29be 93bb 933d 9a59 043e 00ed 483d
00000130: 28b6 1a3e 67ba f03d 1f41 cc3c 4f19 2bbe
00000140: f9f9 00bc fd54 bbbd 735b d33d a930 95bd
00000150: fc53 e6bd 09af cf3d 5915 02be 1fbb 2c3e
00000160: 9f9a cb3d 44af 083e ac84 fcbc 11ef 2a3e
00000170: d46f 873d c081 15bd 9d21 34be 7bdf 083e
00000180: c5eb b1bd 9418 8b3d 1c81 b9bb 0cb7 523d
00000190: eb52 7bbd 7dca a13c 5772 bbbd 57a2 2ebe
000001a0: d757 d23d c08b 073c dd5a dbbd 58f6 80bd
000001b0: b867 393e 529c 933d 774f e43b e473 2b3d
000001c0: 1d5e 0fbe 56af 143e 47d7 b0bd 1ede 27be
000001d0: c42c 8cbd 5164 00be 5741 1d3e 5723 013d
000001e0: 6c96 f3bd d9af c2bc 6b00 46be 41b8 383d
000001f0: 3dd2 1c3e 63e9 85bd 633b 383e 381b 1b3e

lstm.weight_ih_l1 f4 [128, 64]
0.10033693 -0.15472837 0.020771356 0.05644277 0.11622326 -0.11341174 0.13981143 0.12789252
0.17995231 0.09628544 -0.052486207 -0.099849366 0.09978274 0.008165966 0.027300257 -0.09140435
-0.016658098 -0.0901046 0.19752 0.01750178 -0.055707756 -0.059251398 -0.09336561 -0.09628994
-0.10367505 -0.07829868 -0.11924888 0.071370244 0.1701728 -0.05399909 0.07306231 0.14325128
-0.18644068 -0.12885925 0.13297385 0.014080161 0.012068826 0.1875377 0.13350524 0.11337434
0.11873578 0.03232472 -0.06534315 0.0063961647 -0.0861486 0.036680225 -0.14089154 0.15051806
-0.10149801 -0.08007156 -0.10956275 0.12082257 -0.012946515 0.10720508 0.100942835 -0.054264847
0.070763305 -0.06910559 -0.08230723 -0.10073119 -0.05681989 -0.05319018 -0.1499871 -0.03522859
0.015976107 -0.04129837 0.034819532 0.066049494 -0.012865071 -0.0077772825 -0.037623964 0.11544411
0.021835769 0.10053485 -0.07203914 0.06368259 0.0849743 0.093074225 0.07702342 -0.15061004
-0.022620924 -0.06799154 0.06220394 -0.020395258 -0.08100762 -0.05249048 -0.07571189 0.07472435
0.11374917 0.01237802 0.119479306 0.1834376 0.036871247 0.10324528 0.118546166 0.12082796
-0.15987606 -0.007161652 -0.13747205 0.010959128 -0.10167709 -0.06904273 -0.07778949 -0.06939193
-0.0027037093 -0.03879425 -0.076931514 -0.02178052 -0.12504874 -0.03191652 -0.054219246 -0.031738076
0.11467325 0.005250026 -0.12017388 0.14759925 -0.12908423 -0.14264657 -0.020446075 0.09735089
-0.10910963 0.112816095 -0.12678836 0.046508953 -0.030279133 0.1934279 0.0816166 0.07175963
-0.012866487 -0.05202576 -0.12972403 0.15961437 0.039863784 -0.12002389 -0.1668189 0.03138799
-0.03558791 0.048064638 0.06139712 -0.108742826 0.06263595 0.13991073 -0.15860228 -0.09932747
-0.12703697 0.0127977785 0.15959762 -0.13285504 0.1004131 -0.07712805 0.06025111 0.067025095
0.13016368 0.073034525 -0.050636258 -0.008061914 -0.15645966 0.059494022 -0.108009376 -0.026170425
0.120225795 0.06468728 -0.12769236 0.15417783 0.15744604 -0.14388944 0.018496107 -0.0220897
-0.12542452 0.10542818 -0.03418987 0.05766087 -0.16091229 -0.12764487 0.02604854 -0.028227126
-0.15295826 0.038074493 0.094860636 0.1077813 0.050694235 -0.04003608 0.15820345 -0.14714012
-0.066697 0.19295695 0.15260524 0.13610253 0.10616774 -0.046569824 0.1117045 0.10793708
-0.0025140573 -0.0013195503 -0.04488569 0.17820908 0.0014642833 -0.0931701 0.06227289 0.124391496
-0.13791259 0.033057556 -0.044940203 -0.08662611 0.0032866774 -0.10393023 0.116692856 -0.1756688
0.17855778 -0.023288714 0.077263735 0.08327057 -0.09037417 -0.107231595 -0.029587682 -0.044714097
0.13013582 0.085973315 -0.0045001907 0.16833107 0.10911573 -0.016583662 0.03885038 -0.116760835
0.055956405 0.13224405 -0.068932466 0.004241554 0.10171577 0.13192502 -0.19289356 -0.13613766
-0.014001853 0.14572413 -0.14214122 0.028046219 -0.13406871 -0.0075668762 -0.054208655 -0.11003756
-0.1031341 -0.13292427 0.0979708 -0.019201024 -0.13543947 -0.035817094 -0.116481744 -0.13756926
0.09454155 -0.062446978 -0.15097666 -0.124313824 -0.02864383 -0.038503602 -0.13050002 0.063233584
00000000: 737d cd3d 1d71 1ebe b128 aa3c 8930 673d
00000010: 7606 ee3d 6a44 e8bd ba2a 0f3e 42f6 023e
00000020: 6b45 383e 4d31 c53d c7fb 56bd d37d ccbd
00000030: e55a cc3d 8bca 053c caa4 df3c 3432 bbbd
00000040: 9076 88bc c388 b8bd af42 4a3e e55f 8f3c
00000050: d12d 64bd 98b1 72bd 7836 bfbd a933 c5bd
00000060: 9653 d4bd 0f5b a0bd c238 f4bd 902a 923d
00000070: c741 2e3e 262e 5dbd b1a1 953d 77b0 123e
00000080: 4eea 3ebe aef3 03be 4c2a 083e 7ab0 663c
00000090: 53bc 453c e209 403e 99b5 083e ce30 e83d
000000a0: bf2b f33d ed66 043d a1d2 85bd eb96 d13b
000000b0: ad6e b0bd 013e 163d df45 10be 6821 1a3e
000000c0: 30de cfbd 8ffc a3bd 6f62 e0bd d371 f73d
000000d0: 9f1d 54bc 568e db3d 1ebb ce3d d144 5ebd
000000e0: 5aec 903d 3b87 8dbd b190 a8bd 274c cebd
000000f0: f9bb 68bd f2dd 59bd 3896 19be db4b 10bd
00000100: 53e0 823c 7b28 29bd ed9e 0e3d f544 873d
00000110: 05c8 52bc 93d8 febb 961b 1abd f66d ec3d
00000120: ede0 b23c 37e5 cd3d 4289 93bd 056c 823d
00000130: 0107 ae3d b39d be3d 74be 9d3d 8539 1abe
00000140: 844f b9bc 263f 8bbd 8fc9 7e3d f513 a7bc
00000150: 53e7 a5bd 4200 57bd d60e 9bbd 1409 993d
00000160: 53f5 e83d 2ecd 4a3c 91b1 f43d 11d7 3b3e
00000170: 4e06 173d 4372 d33d 55c8 f23d a674 f73d
00000180: 8db6 23be 4bac eabb 79c5 0cbe ea8d 333c
00000190: 143c d0bd 4666 8dbd 1950 9fbd 5b1d 8ebd
000001a0: b730 31bb b8e6 1ebd 458e 9dbd 106d b2bc
000001b0: c70c 00be e6ba 02bd 0015 5ebd c9ff 01bd
000001c0: cfd9 ea3d 6908 ac3b b91d f6bd 4224 173e
000001d0: a82e 04be f111 12be 877e a7bc e75f c73d
000001e0: df74 dfbd 200c e73d cfd4 01be 2c80 3e3d
000001f0: f20b f8bc f711 463e 9b26 a73d b7f6 923d
00000200: f5cd 52bc f718 55bd 60d6 04be f371 233e
00000210: 3548 233d 16cf f5bd 93d2 2abe b190 003d
00000220: a1c4 11bd 6ddf 443d 8c7b 7b3d 8fb4 debd
00000230: 4747 803d c244 0f3e a368 22be 336c cbbd
00000240: fb15 02be c6ad 513c 8f6d 233e 270b 08be
00000250: 62a5 cd3d 50f5 9dbd dec9 763d 7444 893d
00000260: a149 053e 2093 953d f767 4fbd 1e16 04bc
00000270: f636 20be 01b0 733d 0534 ddbd 5c63 d6bc
00000280: f138 f63d c47a 843d c9c1 02be cbe0 1d3e
00000290: 8939 213e c157 13be 2685 973c 75f5 b4bc
000002a0: 496f 00be bbea d73d ad0a 0cbd ce2d 6c3d
000002b0: 31c6 24be 56b5 02be bf63 d53c 933c e7bc
000002c0: 17a1 1cbe 00f4 1b3d 4b46 c23d 71bc dc3d
000002d0: c2a4 4f3d dffc 23bd 1600 223e e6ab 16be
000002e0: 7098 88bd 8296 453e 8c44 1c3e 765e 0b3e
000002f0: 796e d93d 00c0 3ebd 54c5 e43d 1e0e dd3d
00000300: e2c2 24bb c3f4 acba 0fda 37bd 717c 363e
00000310: 32ed bf3a f7cf bebd dc11 7f3d f8c0 fe3d
00000320: f538 0dbe 5c67 073d 3813 38bd 0869 b1bd
00000330: 4c65 573b 5fd9 d4bd aafc ee3d 86e2 33be
00000340: dad7 363e f9c7 bebc 733c 9e3d c389 aa3d
00000350: 1816 b9bd 3d9c dbbd de61 f2bc 2126 37bd
00000360: 5342 053e c712 b03d 5676 93bb fb5e 2c3e
00000370: 1178 df3d 76da 87bc 9321 1f3d 4e20 efbd
00000380: 8b32 653d fc6a 073e 772c 8dbd bcfc 8a3b
00000390: 5c50 d03d 5a17 073e e485 45be ac67 0bbe
000003a0: 0768 65bc b538 153e 788d 11be 2fc1 e53c
000003b0: 4f49 09be 8ff3 f7bb e509 5ebd 5f5b e1bd
000003c0: f937 d3bd 4d1d 08be eaa4 c83d 774b 9dbc
000003d0: a5b0 0abe f2b4 12bd fb8d eebd f5de 0cbe
000003e0: 009f c13d 67c8 7fbd a099 1abe 3f98 febd
000003f0: 77a6 eabc f4b5 1dbd cca1 05be 9c80 813d

lstm.weight_hh_l1 f4 [128, 32]
0.14578742 0.14952722 -0.03711923 0.1048729 0.030613538 -0.08011213 0.11859771 -0.08748719
0.14328776 -0.10943193 -0.049862597 -0.119867556 0.15225643 0.1788706 -0.08408459 0.024673497
0.15312828 0.044296946 -0.072165266 0.10296154 0.035769843 0.005136895 0.071302444 0.12942588
0.17839547 -0.14813127 0.02934456 0.17062679 -0.17357886 0.023694769 0.050946426 -0.0350636
-0.1574117 0.07581823 0.09850084 0.179306 0.13920835 -0.1009067 0.09430345 -0.06871175
0.028526926 -0.09261465 0.024385422 0.08212775 0.120409146 0.07584359 -0.1036498 0.12995744
0.10908004 0.06992324 0.018453116 0.10835407 -0.0053530294 0.09369408 -0.08118583 0.00036472705
0.0872115 0.09384947 0.08101297 0.08601256 -0.07739968 0.013305133 -0.071470425 -0.16671722
0.048803493 0.07980754 0.18610018 -0.070313066 0.02267675 0.100639045 -0.01506767 -0.10865557
0.09948865 -0.046479117 -0.031058004 0.04193079 0.034353267 0.060247745 0.050138734 0.10089234
0.07287304 0.050800037 -0.14487718 0.118098386 0.018684208 0.14383717 0.10969325 0.1422901
0.14670222 0.022379294 -0.040001422 0.10732618 -0.13068308 0.114070475 -0.08437366 -0.037119124
0.16660175 0.019595535 0.033891972 0.020339245 0.072943054 -0.03440593 -0.06869856 -0.068497844
-0.12287834 -0.0031027098 -0.14486688 -0.009468008 -0.08851556 -0.16213334 -0.107781336 -0.007291483
-0.08614367 -0.028382592 0.1408174 -0.018866025 0.116063535 -0.15859759 0.12765822 -0.080307096
0.06742978 -0.057834692 0.1076186 -0.13602374 0.02893145 0.050847746 0.096164025 0.062883995
-0.12028352 0.051141277 -0.14001994 0.0409427 -0.0131580755 -0.09083039 -0.056721944 0.10020488
-0.086328305 0.012746793 0.09911299 -0.0064056455 0.14142063 0.032608513 0.11071822 -0.0074995207
0.06346451 -0.023974067 0.08017793 0.015493923 0.040694233 -0.14520563 0.17444378 0.03702426
0.034643378 0.02025266 0.026985757 0.12487532 -0.102170765 0.11176121 0.034842674 -0.050407182
-0.14690752 0.05308942 0.088767275 -0.013716694 -0.106703304 -0.13735436 -0.1809883 0.12693065
-0.16839527 -0.030380676 -0.13132599 -0.07862529 -0.08740701 0.1193835 -0.08577962 0.12807058
-0.034603424 -0.1811535 -0.09379367 -0.0804563 0.178888 0.0041573276 0.029000094 0.10129149
-0.122734934 0.18957375 0.15589723 0.09568291 -0.043380488 0.040252764 0.15922636 -0.031402316
0.02203824 0.12725648 -0.111679636 0.16031726 0.07255544 0.06681574 -0.15248196 0.117404096
-0.07388371 -0.12301809 0.047189534 -0.11540795 -0.17212471 -0.15850797 0.08454407 -0.14146632
-0.03695167 0.18374282 -0.1093635 -0.09834661 0.015925217 0.12946053 0.036502827 -0.004927448
-0.16497889 -0.1236036 -0.05118625 0.0075559504 -0.12078158 0.07186017 0.08905263 0.08244519
-0.15331855 0.12096316 -0.0031549477 0.12953478 -0.011880878 -0.005998416 0.18077116 -0.07499334
0.068078965 0.026973851 -0.049500037 -0.03580209 0.021289462 -0.09941566 -0.07437416 -0.078416914
-0.1876045 0.02219989 -0.098363034 -0.13549575 -0.114164874 0.09051823 -0.12853095 0.14270277
-0.09123103 -0.0003317067 -0.08141655 0.06698837 0.103238046 0.078107156 -0.09361194 -0.07382388
00000000: 4c49 153e aa1d 193e 550a 18bd 9ac7 d63d
00000010: 3ec9 fa3c d411 a4bd 5be3 f23d 7c2c b3bd
00000020: 07ba 123e d91d e0bd b93c 4cbd 1f7d f5bd
00000030: 1ce9 1b3e db29 373e 8b34 acbd 1320 ca3c
00000040: a9cd 1c3e b770 353d 62cb 93bd 80dd d23d
00000050: 6683 123d 6653 a83b 0407 923d 3888 043e
00000060: 4dad 363e b9af 17be 0164 f03c cab8 2e3e
00000070: a8be 31be 881b c23c 33ad 503d d99e 0fbd
00000080: 8830 21be 9746 9b3d cfba c93d fe9b 373e
00000090: a28c 0e3e 2ca8 cebd 2b22 c13d bfb8 8cbd
000000a0: 4db1 e93c c0ac bdbd f0c3 c73c 9832 a83d
000000b0: 1299 f63d e253 9b3d 5946 d4bd 9013 053e
000000c0: 5b65 df3d ea33 8f3d fd2a 973c bde8 dd3d
000000d0: 7768 afbb afe2 bf3d c244 a6bd d638 bf39
000000e0: f19b b23d 2734 c03d 21ea a53d 5a27 b03d
000000f0: b983 9ebd c6fd 593c 165f 92bd ebb7 2abe
00000100: 2ce6 473d 2372 a33d 0c91 3e3e 4c00 90bd
00000110: 97c4 b93c d81b ce3d 63de 76bc d086 debd
00000120: b5c0 cb3d e360 3ebd 5b6d febc 9fbf 2b3d
00000130: 03b6 0c3d 57c6 763d 465e 4d3d a5a0 ce3d
00000140: 763e 953d b313 503d af5a 14be 91dd f13d
00000150: a00f 993c 0d4a 133e dba6 e03d 7fb4 113e
00000160: 1b39 163e c854 b73c 88d8 23bd d4cd db3d
00000170: c9d1 05be c89d e93d 19cc acbd 390a 18bd
00000180: a699 2a3e d186 a03c 4fd2 0a3d 7d9e a63c
00000190: 2b63 953d 3ced 0cbd d5b1 8cbd 9948 8cbd
000001a0: a4a7 fbbd d556 4bbb fc57 14be b41f 1bbc
000001b0: a547 b5bd 4806 26be 76bc dcbd 65ed eebb
000001c0: 186c b0bd 9c82 e8bc 7032 103e ec8c 9abc
000001d0: b8b2 ed3d 6867 22be d6b8 023e 0c78 a4bd
000001e0: a018 8a3d 12e4 6cbd 2467 dc3d cf49 0bbe
000001f0: a601 ed3c ba45 503d a5f1 c43d 53c9 803d
00000200: 3557 f6bd 8479 513d 6361 0fbe 88b3 273d
00000210: f894 57bc 4905 babd 4555 68bd 3738 cd3d
00000220: e5cc b0bd edd7 503c c0fb ca3d 73e6 d1bb
00000230: 92d0 103e 8190 053d 3cc0 e23d 8abe f5bb
00000240: aef9 813d 4365 c4bc 5434 a43d 39da 7d3c
00000250: ffae 263d c9b0 14be 64a1 323e c0a6 173d
00000260: 37e6 0d3d e8e8 a53c 3c11 dd3c a2be ff3d
00000270: e83e d1bd 10e3 e43d 31b7 0e3d c377 4ebd
00000280: ed6e 16be 4b74 593d 9ecb b53d fcbb 60bc
00000290: 4387 dabd 9fa6 0cbe ff54 39be 1cfa 013e
000002a0: cf6f 2cbe e5e0 f8bc 527a 06be 4c06 a1bd
000002b0: 7202 b3bd 567f f43d 3aad afbd ef24 033e
000002c0: 52bc 0dbd 4e80 39be e516 c0bd 46c6 a4bd
000002d0: 6a2e 373e 313a 883b 9b91 ed3c ea71 cf3d
000002e0: 745c fbbd 9f1f 423e 86a3 1f3e 67f5 c33d
000002f0: bdaf 31bd 15e0 243d 3c0c 233e b79f 00bd
00000300: 8a89 b43c 864f 023e 4bb8 e4bd 352a 243e
00000310: f297 943d b1d6 883d 3b24 1cbe 8f71 f03d
00000320: 5850 97bd e9f0 fbbd d049 413d 015b ecbd
00000330: 7641 30be ea4f 22be 7125 ad3d 8cdc 10be
00000340: a25a 17bd 1427 3c3e f8f9 dfbd f369 c9bd
00000350: 9a75 823c 4d91 043e fd83 153d 6e76 a1bb
00000360: 3af0 28be e223 fdbd aca8 51bd e897 f73b
00000370: 555c f7bd 6d2b 933d 3a61 b63d 06d9 a83d
00000380: 8aff 1cbe 89bb f73d 3dc3 4ebb c4a4 043e
00000390: 04a8 42bc 5c8e c4bb 131c 393e 1c96 99bd
000003a0: fc6c 8b3d 44f8 dc3c 8dc0 4abd 36a5 12bd
000003b0: 3d67 ae3c 709a cbbd 7b51 98bd 0c99 a0bd
000003c0: 651b 40be 8bdc b53c 8f72 c9bd 66bf 0abe
000003d0: 46cf e9bd 9f61 b93d 9e9d 03be ad20 123e
000003e0: 56d7 babd ebe8 adb9 b8bd a6bd 3331 893d
000003f0: 786e d33d a5f6 9f3d 9eb7 bfbd f930 97bd
