result_train/seqmodel_ep15.pth (torch, 390389 bytes, 44 tensors)

lstm.weight_ih_l0 f4 [128, 7]
00000000: e8cb 093e 03b8 953d 823c d23d 8b26 18be
00000010: 8c12 27be 13ac ec3d 1013 12be c109 243e
00000020: fb56 83bc 7fdc 23bd 5df2 02bd 06e1 ea3d
00000030: 01a2 103e 96ea 8e3d 8166 253e ea16 97bd
00000040: ad2b b43d 2c2c a73d 7eea 043d 4066 08bd
00000050: 8797 423d 0fb5 9b3d 03ed 82bd d41e 72bd
00000060: 5a17 93bd a10f 55ba 7177 b2bd 27f6 33bd
00000070: 9285 0cbc 290f e83c b539 333e f280 1b3e
00000080: c048 bebd 896d f7bd 7cf6 da3d da2d 2e3e
00000090: cd45 12be 2e9b bf3c bd8a 51bd ec89 27bd
000000a0: f719 a63c 7118 063d 009e 96bd 59e5 a5bd
000000b0: ac0d ee3d 0be1 493e f861 a73d 64d7 2dbd
000000c0: ca1c 25be ffe4 313e a69b e73d ce8a 683d
000000d0: c8c3 8cbd d077 653d 2b4e 53bd ce7c 07bd
000000e0: aa11 8ebd c8a7 453d cb37 06be 4077 083e
000000f0: 228a f33a 0bf6 86bd 616e 60bd d47d fd3c
00000100: 514f 563d ae15 a6bc 1c31 87bd 768d 013d
00000110: 2f48 1f3d 93c6 d8bd 0434 1e3e 2e33 0bbe
00000120: 5769 73bc af5a 753c f60f a33b d178 3e3d
00000130: 1d40 c53d c687 20be 6761 263d cc45 cc3d
00000140: 50eb 4f3e de33 14bd 2628 a53b d0f0 2cbe
00000150: 039e cb3c 6276 2fbe c495 36be d3f3 773d
00000160: 02d5 29bd c1d9 ac3d d97f 29bc d597 bcbd
00000170: 5fe3 063e 23d1 993d b339 fc3d e7cf 2cbe
00000180: 14db d8bd 74fd 05bd 0c7d b53c 1275 3ebe
00000190: 67bc 2e3e 18ab bcbb 7347 adbd 051a 2dbe
000001a0: 10d1 47bd 9330 093d a3ae c0bd 0293 8fbd
000001b0: 5773 e8bc 64db 093e 2b2c 1a3e e854 33be
000001c0: 80d9 d33c d057 6a3d 7552 0bbd d321 2a3d
000001d0: 766d 0cbe 84ff 9bbb ab19 3c3d cfa1 1f3e
000001e0: 86fd 653c 49b4 44bd ed16 8ebd 348b 043e
000001f0: 43b2 393e 1197 1dbe d5d9 a9bd d4c3 e83d
00000200: bc4f e33d 8468 ccbb a15b 2a3e aed3 6dbd
00000210: 43eb b73d 0e75 2a3d baf1 ee3d 9705 46be
00000220: 891b 093e 52f2 a13c 4fa9 8ebd a34b 70bd
00000230: 2dde cd3d 33b0 5bbd 35e2 2b3e 8a4d 983d
00000240: f30e e23d 9811 613d 8b95 a43d fe4d d53c
00000250: 358a 213d de81 90bd e22c 593d bdce c93c
00000260: 4b4e 8cbd 4b27 38bc 5912 1bbe f5a5 0ebe
00000270: cafd bcbd 9efe d63c 7444 ccbd d4be 29bd
00000280: 686e 243e 4a75 ac3c 1455 dabd a0e6 b03c
00000290: 4f9b 2c3e ea92 0bbe b139 20be ae7d 603d
000002a0: 8298 7dbd 4c93 29bd 87d2 d43c 3c24 81bd
000002b0: 55f2 0ebe 8d9a fdbc 9b8b 0dbe f9be 08be
000002c0: 5bf8 0dbe 6bcc b63d 1420 edbd bc30 433d
000002d0: d8ee e0bd 22f7 37bc fec1 163e 830e ad3d
000002e0: 8d57 e13d d42d a93d e920 4bbd 323b 6dbb
000002f0: 7433 abbc 4f79 913c 736a 043e 6716 3a3e
00000300: e0cf 92bd 5c94 003e 895f 183e f536 bc3d
00000310: a336 1d3c fa92 3cbe 0df7 a2bd ec94 13be
00000320: 6ad0 353e d295 72bd 1efe a2bd f805 96bd
00000330: e240 a2bd d80e 02bc 9f3a 02be de40 693d
00000340: cdf1 24be 3701 b53d 8341 62bd 7079 0cbd
00000350: b648 a1bd 4a47 d53d eb27 1e3e bcfd cebd
00000360: a58d 82bd d68b 033e 67d7 c53d ad04 9fbd
00000370: 64ca c0bd a32e 39be b37d 033e c909 d6bd
00000380: b634 383d aeb7 6ebd 381e 3c3d 44d4 6e3d
00000390: 7d7b 2cbb 42b0 f03c 7633 83bd d027 d1bd
000003a0: cf6b 14be f79d 6abb 2447 06be 31cc 93bc
000003b0: e940 27be 2281 3bbb eee8 f6bc 9b87 31be
000003c0: 8392 24bd afa8 113e 0014 cebd d8a3 cabd
000003d0: 37f4 e8bd 78f9 11be 3aab 6abd 6e0b 513d
000003e0: 7711 2abe fff0 2dbe eebb 9abc 8fcd 253e
000003f0: 40ff 14be ce1f dc3d d49f 2f3e 841e 3bbe
0.1345669 0.07310488 0.10265447 -0.14858453 -0.16315669 0.11556258 -0.14265084 0.16019346
-0.016032686 -0.040005203 -0.031969417 0.11468701 0.141243 0.069783375 0.16152383 -0.073774174
0.08797393 0.08162722 0.03245019 -0.03330064 0.04750779 0.076028936 -0.06392863 -0.05911143
-0.07182188 -0.0008127634 -0.08714188 -0.04393592 -0.0085767675 0.028327541 0.17502482 0.15185907
-0.0929122 -0.12081439 0.106915444 0.17009678 -0.1428444 0.023389425 -0.0511577 -0.040903017
0.020276053 0.032738153 -0.07354355 -0.08100385 0.116237015 0.19714753 0.08172983 -0.04244174
-0.16124263 0.17372511 0.113089845 0.056773 -0.0687328 0.056022465 -0.05158822 -0.033078007
-0.06936963 0.04825571 -0.13107221 0.1332674 0.0018580595 -0.06589898 -0.054792766 0.030943789
0.052321736 -0.02027401 -0.06601164 0.03162905 0.0388872 -0.1058475 0.1544953 -0.13593742
-0.014856658 0.014975234 0.004976268 0.04650194 0.09631369 -0.15676793 0.040620234 0.0997425
0.20304608 -0.036182277 0.0050401865 -0.16888738 0.02485562 -0.17135003 -0.17830569 0.060535263
-0.041462906 0.08439971 -0.010345423 -0.09208647 0.13172673 0.07510593 0.12315693 -0.16876183
-0.10588661 -0.032712415 0.022154354 -0.18599346 0.17064057 -0.0057577007 -0.084608935 -0.16904457
-0.048783362 0.03349359 -0.09408309 -0.070104614 -0.02837531 0.13462597 0.15055911 -0.17512858
0.025860548 0.05721265 -0.034014184 0.041536164 -0.13713631 -0.0047606844 0.045922916 0.15589069
0.0140374955 -0.048023496 -0.069379665 0.12943727 0.18134408 -0.15389659 -0.08293501 0.11365476
0.110991925 -0.006238045 0.16636516 -0.0580632 0.089804195 0.04161554 0.116671994 -0.1933807
0.1338941 0.019768868 -0.06965887 -0.058665883 0.10052142 -0.053634834 0.1678551 0.074366644
0.110380076 0.05494842 0.080363356 0.026038166 0.039438445 -0.0705602 0.05302132 0.024634713
-0.06850871 -0.011239837 -0.15143718 -0.13930495 -0.09228094 0.026244458 -0.09973994 -0.041441754
0.16057742 0.021052022 -0.106607586 0.021594346 0.1685612 -0.13630262 -0.15647008 0.054807357
-0.06191302 -0.04140024 0.025979294 -0.06305739 -0.1395963 -0.030957485 -0.13822787 -0.133541
-0.13864271 0.089257084 -0.11578384 0.0476539 -0.10983056 -0.011228355 0.1472244 0.084500335
0.11003027 0.08260694 -0.049591932 -0.0036198613 -0.020898558 0.01775804 0.12931232 0.18172608
-0.07168555 0.12556595 0.14880194 0.0919017 0.009595546 -0.18415442 -0.079572774 -0.14412278
0.17755285 -0.05922491 -0.07958625 -0.07325357 -0.07922532 -0.007938109 -0.12717675 0.056946628
-0.16107865 0.08838122 -0.055238258 -0.0342955 -0.07875197 0.10413988 0.15444915 -0.1010699
-0.06374673 0.12846312 0.09660225 -0.07764564 -0.09413603 -0.18084197 0.12840919 -0.10451085
0.044972144 -0.05828064 0.045927256 0.0583079 -0.0026318722 0.029380921 -0.064063 -0.10212672
-0.1449425 -0.003579972 -0.13113075 -0.018041702 -0.16333355 -0.0028610905 -0.030140366 -0.17336886
-0.040178787 0.14224504 -0.100624084 -0.09894532 -0.11374705 -0.14255321 -0.0572922 0.05103629
-0.16608225 -0.16986464 -0.01888844 0.16191696 -0.14550495 0.10748254 0.17150813 -0.1827336

lstm.weight_hh_l0 f4 [128, 32]
00000000: afa5 a3bd cce1 2d3e 508e dabd 6a12 80bd
00000010: d80c 45be efed 2fbe 55cc 0cbe 9061 db3d
00000020: 8ac9 c83d 7f61 2dbe c740 0fbe 956b ba3d
00000030: fc46 5e3d 26f5 03be 4edb ee3b ae43 3ebe
00000040: 0e45 27be 1916 dd3d 70cb 1c3e 351f 943d
00000050: d5ac bd3d 8bc8 cabd e3b9 a8bd 490e 1f3e
00000060: 60f7 fcbd 6f57 1dbe 588e 153e 0725 453d
00000070: f0db 193d fdfb ccbc 366a ce3d 669b 2a3e
00000080: 7984 363e d9c4 14bd 0b9b 0abd 08d8 e4bd
00000090: 8c50 903d 4fe9 80bd e3f0 a03c ac58 c13d
000000a0: 065d 06be 5d6b e83d 02bb 1bbe 2438 01be
000000b0: 8982 debc 1f48 5fbd 4edd 503d 8eb4 c9bd
000000c0: a36b 13bd d6e6 0dbe ebbb 25bd 5627 ca3d
000000d0: 2ddc fb3d 8895 cb3d ae2d eebd b04e b13d
000000e0: 04ba 233e 9955 3bbd bb88 acbd 9e04 15bd
000000f0: a300 09be ae42 0ebe c3b2 09be c7ed 3ebc
00000100: 03bd 403d 982e 3cbb 10ef 88bd d27f bcbc
00000110: 0aa5 333d 5c4d 1f3d 562b 19be 6409 f43d
00000120: e72a 3bbe dd54 48bc 5606 3e3b 7743 c5bd
00000130: 1de7 1c3e d01c cfba c819 71bb 3812 03be
00000140: d7db 3d3e b5af 59bd 54a7 f43d fca5 14be
00000150: b707 be3d 45b8 e63d 4307 14be 2afc 3abc
00000160: f098 913d 8dc7 ea3d 9c2d 03be 573e 6bbc
00000170: 62a7 e93d ebca e53c d4eb 3d3e 8a33 963c
00000180: 43ff 2dbd bd25 0e3e 55bb 143e 1df7 243e
00000190: a698 4cbd 1095 8ebd 62a7 8abd fb8e a53d
000001a0: 91c3 2a3e 4511 f73d 58c3 50bd 3f40 01bd
000001b0: 53a8 3c3d 885a d13d 32b9 24bd 4c99 e43d
000001c0: 0887 12be 9db2 c2bd 2907 17bc 3e54 d3bd
000001d0: 3f4d 8abd c239 f6bd 4471 7b3d b96a e1bd
000001e0: cea1 163e 668e f73c 3d3e 753c 8a4f 2dbe
000001f0: 3539 be3d ffe4 38be 35f2 07be 0563 4f3c
00000200: f3f0 cfbc b01e 033e 28d1 96bd 17ef 523d
00000210: 2d74 d7bd 17a3 31be 3c85 393d 86bc 31be
00000220: d169 e83b 5d5b efbd dd07 133e 19de 113e
00000230: f625 f4bc 71fc c13c d987 d63c 366a ccbd
00000240: 7fd1 10bd 21c0 1fbe 1c27 c4bd 7e26 0bbe
00000250: 05e9 cabd 6b3a 343d 9522 e1bd f5ae 8dbd
00000260: d53b 12be a867 f5bd dd6d 4b3d 061b d03d
00000270: baba b5bd 4eb6 c33d 4c6c da3d 4d5c b7bd
00000280: c811 30bc b209 8b3d 0e55 84bd 8dfd 03be
00000290: 72fc 3d3e a9a2 89bd 5293 e83c 3caa 143e
000002a0: 43cf c03d d823 f73d b5a8 933d 479f d33d
000002b0: 12c6 093e 5b69 293e f5d5 18bd 67f5 a83d
000002c0: da28 fcbc d43d 153d a2dd 38be 74a0 d93d
000002d0: e9b5 263e d9d5 f83d da11 1fbe f015 4b3d
000002e0: 77be 113c 2e18 17be b061 fbbd 7809 2abe
000002f0: f12b 443c 9097 253e 838e 47bd c387 e33d
00000300: 891f 4e3d eaf9 3c3e b592 04be f1fd edbb
00000310: fff0 0d3e 384e 083e bc30 15be be94 64bd
00000320: 8902 51bd 1146 05bc 229f 2e3e 92be 8a3d
00000330: 5773 47bd 459f 353d c540 18be 44ba c9bd
00000340: c61e 91bd e5d4 81bc e271 9c3d f035 003e
00000350: 462d 9e3d bafa 2fbe a53e 96bd 5774 07be
00000360: e51d 1cbd 977f 25be c065 9f3d 9aa6 b1bd
00000370: 4175 e63d dc8f 70bd a0b9 1b3e d86e 833c
00000380: 6826 26be 2cf1 2e3e 167e 7fbd c31d 28be
00000390: 2a9d 8bbd 8d16 87bc 0bb3 6bbd 2cef 5a3c
000003a0: aba5 a9bd f837 dabd 94d0 9abd c5d7 d93d
000003b0: 174b 643d 4b9f 17be 752c 2d3e d899 b23d
000003c0: 2f87 cbbd 1b3e c43c 39b4 5b3d fa59 693d
000003d0: 795f f73d 404e 133d 477d de3c b5bc e2bd
000003e0: d435 863d 74b7 97bd a4e0 053d f4c7 2abe
000003f0: 2319 df3d ae22 443d cdef ddbd 4e7c 92bd
-0.07990586 0.16980666 -0.10671675 -0.06253512 -0.19243181 -0.17180608 -0.13749821 0.10711968
0.098040655 -0.16931723 -0.13989554 0.09102551 0.054266915 -0.12886485 0.0072893267 -0.18580505
-0.16334936 0.107952304 0.1531198 0.07232515 0.09261481 -0.09901532 -0.0823858 0.15532793
-0.123518705 -0.15365385 0.14605081 0.048131015 0.037563264 -0.025022501 0.10078852 0.16660842
0.17823972 -0.03632054 -0.033839267 -0.11174017 0.07046613 -0.062945 0.019646114 0.09440741
-0.13121423 0.11348603 -0.15208057 -0.12619072 -0.027161853 -0.05451214 0.050992303 -0.09848891
-0.035991322 -0.13857588 -0.040462416 0.09870784 0.122978546 0.0994063 -0.116298065 0.086575866
0.15988928 -0.04573593 -0.08424517 -0.036381356 -0.13379149 -0.13892624 -0.13447098 -0.01165337
0.047055256 -0.0028714295 -0.066862226 -0.023010168 0.043858565 0.038892135 -0.14957938 0.119158536
-0.18278085 -0.012227264 0.0028995476 -0.096320085 0.15322538 -0.0015801433 -0.0036789048 -0.12799919
0.18540893 -0.053146083 0.11945978 -0.14516443 0.09278815 0.112656154 -0.14455895 -0.01141266
0.07109249 0.114638425 -0.12810367 -0.014358125 0.11408879 0.02805086 0.18546993 0.018335123
-0.042479765 0.13881584 0.14524586 0.16109891 -0.049950264 -0.06962025 -0.06770207 0.08083912
0.16676165 0.12063841 -0.050967544 -0.03155541 0.046058964 0.102223456 -0.04021568 0.111620516
-0.14309323 -0.09506724 -0.009218016 -0.10318802 -0.06753015 -0.12022735 0.061387315 -0.11006684
0.14710161 0.030219268 0.014968452 -0.16924873 0.09288255 -0.18056105 -0.13275988 0.012657885
-0.025383448 0.12804675 -0.07364112 0.051497545 -0.10520206 -0.1734737 0.045293078 -0.17357072
0.0070926924 -0.11687348 0.14358468 0.1424488 -0.029803257 0.023679944 0.026187824 -0.09981196
-0.03535604 -0.15600635 -0.09577772 -0.13588902 -0.09907726 0.044001024 -0.10992924 -0.06918136
-0.14280637 -0.119826615 0.04966532 0.10161404 -0.08873506 0.09556256 0.10665187 -0.08953152
-0.010746427 0.067889586 -0.064615354 -0.1288969 0.18553331 -0.06720478 0.02839056 0.14518064
0.09414532 0.120673835 0.07209913 0.10333114 0.13454464 0.16544096 -0.03731342 0.08249932
-0.030781198 0.036435917 -0.18053296 0.10626307 0.1628033 0.12150163 -0.15534154 0.049581468
0.008895508 -0.14755318 -0.12274492 -0.16605175 0.011973367 0.16171098 -0.048719894 0.11109879
0.050323043 0.1845471 -0.1294659 -0.007262938 0.13861464 0.13311088 -0.14569372 -0.055805914
-0.05102781 -0.008134381 0.17052892 0.0677463 -0.04869398 0.044341344 -0.14868458 -0.098499805
-0.07085948 -0.015848586 0.07638909 0.12520576 0.07723479 -0.17185488 -0.07336167 -0.13227974
-0.038114447 -0.16161953 0.07783079 -0.08674355 0.11252833 -0.058730945 0.15207529 0.016044065
-0.16225588 0.17084187 -0.062376104 -0.16417603 -0.06817086 -0.016490245 -0.057543796 0.013362687
-0.08283552 -0.106552064 -0.07559314 0.10636858 0.055735674 -0.14806859 0.1691149 0.087207496
-0.099378936 0.023955395 0.05363867 0.056970574 0.12078757 0.035963297 0.027159346 -0.11071149
0.06553236 -0.07408038 0.032684937 -0.16677839 0.10893466 0.047884636 -0.10836754 -0.071526155

lstm.bias_ih_l0 f4 [128]
00000000: fdde 183e 6989 093d 648a 903d 92ae 2f3e
00000010: 79af e93b 02da a4bd fab7 7d3d 7526 8cbd
00000020: 5e75 23be 6351 ebbd 9acc 0e3e 9e81 f43d
00000030: d727 2bbe a11b 0cbe 3f8a b03d acb5 ed3a
00000040: a8e9 08be 3453 46be 0ad6 9dbd 3809 463e
00000050: 64b0 a4bd d49f 06be 4e6a c53d f120 63bd
00000060: 41e3 4fbd e112 f5bd a830 bf3d 4092 6b3b
00000070: 8730 1dbb d3de 2e3e 00f4 06be 2b59 313e
00000080: 6049 513d 205c 383e 6038 d7bd 4090 153e
00000090: 2f9b aabd 836c 26be be36 863d 4e1a e9bb
000000a0: 7a4b c1bb 9afb 1bbe df23 943d c5c9 c43d
000000b0: 8026 27be e514 1cbe 0b33 b8bd 8469 573c
000000c0: 4279 ffbd 4a22 003d e8f7 203e a5cb 283e
000000d0: 18d2 573d 9371 4f3b 9724 193e 9aaf 35bd
000000e0: 7939 e2bd 086f e1bd 0171 163e 4717 363d
000000f0: 03e9 69bd 17a9 033d d4d8 643d 6b15 1f3e
00000100: eb16 0abe 93c4 ac3c f8b2 d1bd 3b5e c03b
00000110: ebd9 09bd 74b5 fdbd 0b9f 11be 3764 ce3c
00000120: dc18 b23d a3b5 0e3e 4834 0a3e 6be0 493d
00000130: 762c e6bc 0987 c7bc 73db 1abe a0a8 15be
00000140: ea13 853d 04bb 443c aebd cdbd f325 76bc
00000150: 52d7 febd 6d9d c83d 82cb aebd dd5a d93d
00000160: ba47 dc3d cd8b dc3d bdcd 963d e718 95bd
00000170: 7897 9abd 85fe 94bd 0da2 2a3e 3424 5dbd
00000180: 1498 e23c df90 78bd 856a 99bd d574 b43d
00000190: f665 8c3d d467 e73d 06b8 2b3e c50e 8ebd
000001a0: d70a f03d 6dbf 0c3e 1398 de3c 7b72 b33c
000001b0: 11b9 d43d 6023 6f3c 79b0 fabd b43f 0f3e
000001c0: 2ac2 a5bd d901 9cbd 14c4 873d 9449 75bc
000001d0: 6323 c53d bdf2 b3bd 3ef1 043e 5ad7 f3bc
000001e0: 7f1c 69bd de37 ae3c 654e 503a 70fa 18be
000001f0: 0833 db3d 56ef b3bd 4576 9bbd 17cd f1bd
0.14928813 0.03357831 0.07057646 0.17156437 0.0071315137 -0.08049394 0.06194303 -0.068432726
-0.15962741 -0.11490133 0.13945237 0.11938785 -0.16714416 -0.13682415 0.08620118 0.0018135807
-0.13370383 -0.19367677 -0.0770684 0.19339454 -0.08041456 -0.13146907 0.09639417 -0.055451337
-0.050753836 -0.119664915 0.09335452 0.0035945326 -0.0023985223 0.17077188 -0.13179016 0.17319171
0.051095366 0.18003893 -0.105087996 0.14605808 -0.0833038 -0.16252331 0.0655341 -0.0071137315
-0.00589889 -0.15232697 0.07233404 0.09608797 -0.1632328 -0.15242346 -0.08994111 0.0131477155
-0.124743 0.0312827 0.15719569 0.16483934 0.052690595 0.003165339 0.14955364 -0.04435692
-0.11046118 -0.11007506 0.14691545 0.044455793 -0.057106983 0.03214368 0.055870846 0.15535514
-0.13485305 0.021089828 -0.10239214 0.005870608 -0.03365509 -0.12388125 -0.14220826 0.02519427
0.08696148 0.13936476 0.13496506 0.049286287 -0.028097373 -0.024356382 -0.15122776 -0.14615107
0.06497939 0.012007479 -0.10045944 -0.015023696 -0.12443413 0.097956516 -0.0853491 0.10613034
0.10755868 0.107688524 0.0736346 -0.0728014 -0.075484216 -0.07275108 0.1666338 -0.053989604
0.027660407 -0.060685035 -0.0749102 0.088113464 0.06855385 0.112991005 0.16769418 -0.06936411
0.117208175 0.13744898 0.027172124 0.021905174 0.10386861 0.014595836 -0.12240691 0.13989145
-0.080936745 -0.0761754 0.06629196 -0.014971156 0.0962589 -0.08786533 0.12982652 -0.029765774
-0.05691194 0.021266874 0.0007946252 -0.14939284 0.10703093 -0.08785884 -0.075909175 -0.11806696

lstm.bias_hh_l0 f4 [128]
00000000: b2e9 76bd dd1e 313d bad8 c7bd f495 5b3d
00000010: ef24 e2bd b603 0dbe 53f3 8abd ff75 2c3d
00000020: aee6 25be 0e6f 143e 60d7 063e 1602 c13d
00000030: a4c2 5f3d 037b 43bc 7c95 463d 63ef 77bc
00000040: 3f65 0c3e 5e2d 22be 6e04 853d 82cf b2bc
00000050: e4c9 e3bd f354 873c b7e4 8e3c f66c 19be
00000060: 291a a2bc ed1a 1bbe b5a9 e03d d56d 023e
00000070: 6dd3 2abe 6b30 a03d 4759 64bc b694 85bd
00000080: 5c63 14be 0f5e 943d 7930 153e 587d 0a3e
00000090: 3eb8 993c 36e9 ad3d 8363 28be 0098 f4bd
000000a0: 70f9 a0bd f1a3 853d 9d64 803d 97fc 923c
000000b0: da52 10be ce71 c33d 87fd 1fbe 9df0 9c3d
000000c0: 2d3f 003e e950 40be 6822 333d ba6e 20be
000000d0: a46c e2bd 6607 d73c 74af 0abe 0d59 88bd
000000e0: 2bd1 84bc 40ee c1bc 6768 57bd e048 e03d
000000f0: f9f1 86bc ff6b 84bc a96b ccbd 8bbe 973d
00000100: 0b52 043e c891 793d 04ba 113e f19d 283d
00000110: ab31 efbd e09a b5bd e7fe 97bd b0f2 2e3e
00000120: 0eee 033d f9cf b83d 70bc 7f3d 89c0 19be
00000130: 4a84 f83d 64a9 4bbd bab8 193e 4133 b8bd
00000140: 8881 043e 1650 20be a455 3b3d 5753 00be
00000150: 51c1 263e 1fa9 3cbd 4804 e73c 72cb 203c
00000160: 020d 033d d154 55bd bc2d 523d 649a 0d3e
00000170: ce03 d53d d825 b93d fddf d23d afa9 c5bd
00000180: fec2 2e3e b6de 9c38 bc61 ec3d bcae 993d
00000190: fbc7 f6bd 09d0 06be 10cc 343e 0b29 09be
000001a0: 91fe a0bd 6c8c 04bd 396f 8b3d ac79 e53d
000001b0: 11b1 6fbd 8efb f1bd b80e e8bd e97a 013d
000001c0: 37fe 21be cf64 eabd 8998 ddbc f49b 153e
000001d0: be10 2dbe f302 403e 2897 25bd 8e1e 20be
000001e0: 6af2 d9bc 415b 89bd 2c07 293c ff0e 4dbd
000001f0: 2ea8 03be 80dc d5bd d154 803d 6788 9dbd
-0.060281463 0.043242324 -0.09758134 0.053609803 -0.11042201 -0.13770947 -0.06784692 0.042104717
-0.16201279 0.14495489 0.13168097 0.09424226 0.054628983 -0.011931184 0.048482403 -0.015132758
0.13710497 -0.15837619 0.064949855 -0.021827463 -0.11122492 0.01652 0.017443044 -0.14982972
-0.019787865 -0.1514699 0.10969869 0.1273721 -0.16682215 0.07821735 -0.013937301 -0.06522505
-0.14491028 0.07244503 0.14569272 0.13524377 0.018764611 0.08491747 -0.1644421 -0.11943054
-0.078600764 0.0652541 0.062691905 0.01794271 -0.14094105 0.09543191 -0.15624057 0.07663081
0.125241 -0.18780865 0.043733984 -0.15667239 -0.11055878 0.026248645 -0.13543493 -0.0665761
-0.01621302 -0.023673177 -0.0525898 0.109514 -0.016472803 -0.016164778 -0.09981472 0.0740939
0.12921922 0.060930043 0.14231116 0.04116625 -0.11679395 -0.08867431 -0.07421666 0.17084765
0.03220945 0.09024043 0.062435567 -0.15014853 0.12134607 -0.04972209 0.15011874 -0.08994151
0.12940037 -0.1565555 0.04573597 -0.12531792 0.16284682 -0.046059724 0.028200284 0.00981413
0.031994827 -0.05208284 0.051313147 0.13828427 0.10401116 0.09040421 0.102966286 -0.09651505
0.17066571 7.480143e-05 0.11542079 0.07504031 -0.12049862 -0.13165297 0.17655969 -0.13394563
-0.07861055 -0.03236048 0.068083234 0.11204848 -0.058518473 -0.118155584 -0.113309324 0.031611357
-0.15819632 -0.11445009 -0.027050273 0.14610273 -0.16900918 0.18751125 -0.040427357 -0.15636656
-0.02660485 -0.067068584 0.010316651 -0.05006313 -0.12857124 -0.10442448 0.062661774 -0.07692032

lstm.weight_ih_l0_reverse f4 [128, 7]
00000000: ad55 14be 05ae 2ebe b80f 10bd 0740 98bb
00000010: 842a 24bd d6aa 003e 8287 18be e414 c63b
00000020: 2c5e 5d3c 185f 16be 201a 2fbe 27f9 43be
00000030: 3c1a a9bd 1625 3fbe ba86 8d3d ede1 0fbe
00000040: 46ae ee3b 0717 29be e8b4 1fbe e812 72bd
00000050: c9a1 983c a335 07be 1ddf 873d 3dcb 0ebc
00000060: 0970 b4bd 6345 a23c ee08 c9bd df6d 2a3d
00000070: 7cb6 c43c 6d43 dabd 49d0 f33d b043 b43d
00000080: b016 1abb 7eb1 8dbd fd63 afbd ffff 90bd
00000090: 696d 99bd 5b68 58bd 0aec 6b3c 20e7 033e
000000a0: df1b b9bd 7978 fd3d 2b5d f53d 68f9 08be
000000b0: e11e 8cbc b9fe 14be 4046 22bd 85c9 ec3d
000000c0: 28e1 abbd d510 05be 3226 213e 83f7 14be
000000d0: ea39 7dbc ab4a a33d 332c d0bd 5ed5 e93c
000000e0: 29a5 5b3d 2de7 e53d 0d42 fe3d 9317 f7bd
000000f0: 7404 e2bc cc3a 65bd 285b a43d a4cf 3bbd
00000100: c4cc e5bd 397d c8b9 11a9 403b 77d7 10be
00000110: 0c48 2d3e adc4 efbd 8e0b b1bd 8614 a33b
00000120: 1aff 03be 6a0d 2d3d 3097 ca3d a845 83bd
00000130: 232c b6bd ca82 943d 987a 2d3e d1c3 0a3d
00000140: 5100 75bd bb11 163d 28c1 663c 7df6 bfbd
00000150: bcf2 63bd 1154 7d3d 9a40 24be 3a83 413e
00000160: 8629 02be fcd3 003e 69d0 1fbe 1cfd 2abe
00000170: c96b be3d f4b0 993d fd2e fdbd ecb1 e43d
00000180: dbda dc3c fd6d 1e3e 1fad bd3d 07d8 13be
00000190: 577b a53d 82aa a53d 4f62 b63d 047f b23d
000001a0: 2407 eabc fa9f 1a3d b07a 223c 3361 e7bd
000001b0: 299d 77bd 840e 82bd b466 d2bd c2f2 2e3e
000001c0: 9a3e f23d c3a3 e73d 00ac 793d d451 353d
000001d0: c928 fcbc b66c 513e e3fc 3abd eee6 57bd
000001e0: 1251 b4bd b361 033e eb9b f5bd 21db f43d
000001f0: a098 183e 4aca 24be 1748 d63d 25d7 07be
00000200: 34a5 033d 2998 75bd 9160 003e 9af6 26bd
00000210: 94f4 823c 3480 eebd 97b0 53bc ee0b 19be
00000220: 9b17 b3bd 1a3e 06be cc8b 673d 0b6e b73d
00000230: a92b 0ebe 0067 0bbd 0437 c7bd 0ac6 b63c
00000240: ddc8 3a3e 0304 c23d 54a5 86bc d72a b33d
00000250: 01a7 18be 23d8 e3bd 346d 73bd 9916 633d
00000260: 2a98 333c 5c1f b2bd f99f 11bd 9ee0 eebd
00000270: e7b6 573d df21 8cbd 2d43 37be 6942 c53d
00000280: 6d61 f2bb 6d97 803d 656e 433d cbfd 153e
00000290: 2128 9dbd 012f 7abd 0a98 e1bd 4ff6 663d
000002a0: 4911 91bd 1186 c43d bf09 05be 264e 1bbd
000002b0: 3957 923c 7ce7 173d eb6b 20be 21ac 363e
000002c0: cc72 02bd 2650 123d bd09 123e 9ace 25be
000002d0: 8d25 a4bd 804f ab3d f9cb bdbd 9aa4 83bd
000002e0: 65e1 693d 9c43 8ebd 3312 f03d 1443 25be
000002f0: c3fd bc3d fffd 94bd 8912 a13c 8e2f 2dbe
00000300: b904 24be 1f9d 85bd e69a c8bc 390a 5b3d
00000310: c29c 34be e018 a1bd bee3 533d 0125 e5bd
00000320: 5f5c 95bd a999 3f3d 10a9 233e 0c13 893d
00000330: 3828 ea3c 4cd2 0d3e 7587 f0bd 7265 96bd
00000340: 107a f13d df2c aa3d 35d2 c93d 250a 1dbe
00000350: 104e 9e3d 6f2c 0f3e 4b79 ea3c 2e9a 45be
00000360: 5a1c 0bbe ef82 113d 7c28 3e3e 4efe 22be
00000370: befc f93b 6689 6d3d d889 78bd 9479 013d
00000380: 8e06 c5bd e4d2 acbd 32c5 c7bd ef98 21bc
00000390: 5386 bcbd 4845 ef3d f4ad adbd b8fb 58bd
000003a0: 9065 d33c fce9 be3d eb57 b93c e8ac 00be
000003b0: fac2 823d 77f8 0b3d 3d79 bb3d ed17 d03d
000003c0: 956d a13d c09a 25be 5390 f0bc 402b d53d
000003d0: 7ef5 56bd 287e 37be 1d99 0b3e 1aca a83c
000003e0: 8506 583e 39de 183e 3fa2 23bd 2ef4 4fbe
000003f0: fe2e aebd b9d4 233e 3c37 13bd ca77 fdbd
-0.14485808 -0.1705857 -0.03517124 -0.0046463045 -0.04007961 0.12565169 -0.14895442 0.006044971
0.013511222 -0.14684713 -0.1709981 -0.19138013 -0.08256957 -0.18666491 0.06910463 -0.14051028
0.0072839586 -0.1651269 -0.15596354 -0.05910006 0.018631833 -0.13204055 0.06634352 -0.008715448
-0.088104315 0.019808477 -0.09816156 0.041608687 0.024012797 -0.10657392 0.119049616 0.08801973
-0.0023512058 -0.069186196 -0.08563993 -0.070800774 -0.074915715 -0.052833896 0.014399538 0.12881136
-0.09038519 0.12376494 0.11980661 -0.13376391 -0.017104568 -0.14550294 -0.039617777 0.11561874
-0.083925545 -0.12994702 0.15737227 -0.14547543 -0.015455702 0.07973226 -0.1016468 0.028544124
0.053624306 0.11225734 0.12414942 -0.12065043 -0.027590014 -0.055964276 0.08025199 -0.04585232
-0.112206966 -0.0003824027 0.0029397646 -0.14144693 0.16922015 -0.11707435 -0.08644782 0.004976812
-0.12890282 0.04224912 0.09892118 -0.0640977 -0.08895137 0.072515085 0.16941297 0.03387815
-0.059814755 0.036638003 0.014084138 -0.09373186 -0.05565141 0.06184775 -0.16040269 0.18897715
-0.12711152 0.12580866 -0.15606846 -0.16698116 0.09297902 0.07504454 -0.12362478 0.111667484
0.026959827 0.15471645 0.09261536 -0.14437877 0.08080166 0.080891624 0.089054696 0.087156326
-0.028567858 0.03775022 0.009916946 -0.11297836 -0.060452614 -0.06350425 -0.10273495 0.17084792
0.118283466 0.11310532 0.060955048 0.04426749 -0.030781167 0.20451626 -0.045651328 -0.052710466
-0.088045254 0.12830238 -0.119926296 0.11955858 0.14901972 -0.16092792 0.10462969 -0.13265665
0.03213997 -0.059959564 0.12536837 -0.04076252 0.015985765 -0.116455466 -0.01292052 -0.14945957
-0.08744737 -0.13109627 0.056529805 0.08956536 -0.13883843 -0.034033775 -0.0972729 0.02231123
0.18240686 0.094734214 -0.016436256 0.087484054 -0.14907457 -0.11125209 -0.059430316 0.055441473
0.010961572 -0.086973876 -0.035552952 -0.11663936 0.052664664 -0.06842398 -0.1789672 0.09631807
-0.007396868 0.06278882 0.047712702 0.14647596 -0.076736696 -0.061079983 -0.11015327 0.056387242
-0.07083375 0.09595884 -0.12991999 -0.037916325 0.017863857 0.037085995 -0.15666167 0.178391
-0.03184776 0.035720967 0.14261527 -0.16192093 -0.08014975 0.08364773 -0.0926742 -0.0642788
0.05709972 -0.06946489 0.11722221 -0.1613887 0.09228089 -0.072750084 0.019662159 -0.16912672
-0.16017427 -0.06524109 -0.024487924 0.053476546 -0.17637923 -0.07866073 0.051730864 -0.111886986
-0.07293009 0.0467774 0.15982461 0.06693086 0.02858363 0.13849753 -0.117445864 -0.07343568
0.1179086 0.0830934 0.09854547 -0.15335901 0.07729733 0.13981794 0.02862229 -0.19297096
-0.13585034 0.03552526 0.18570131 -0.15917322 0.007629006 0.05799236 -0.060678333 0.031610087
-0.09620391 -0.08438662 -0.09754409 -0.009863122 -0.09205308 0.11683136 -0.084804446 -0.052974433
0.025805265 0.09321973 0.02262493 -0.12565958 0.06384845 0.0341725 0.09153984 0.101608135
0.07882229 -0.16172314 -0.029365694 0.1040864 -0.052480213 -0.17919219 0.13632627 0.020604182
0.21096237 0.14928521 -0.03994965 -0.20307991 -0.08505057 0.15999116 -0.035941347 -0.123763636

lstm.weight_hh_l0_reverse f4 [128, 32]
00000000: a09b 503d ecc5 26be 54ff 11be 5fe7 61bd
00000010: 17be fbbb aecd 98bb d1c7 16be e744 09be
00000020: 04b8 8e3d 2ea6 be3d 6f09 c13d 32bd 8c3d
00000030: 1283 f03d 02e3 bebb a913 9d3d 6ab6 b3bd
00000040: ebef 163e 37b0 f2bb 085c 073e 859c 8fbc
00000050: a560 1e3e b65b 973d 20bb 0d3e 57cc 153b
00000060: 05ff 4ebd 7142 943c 0977 a63b 6e89 2b3e
00000070: 58d7 b23d 54ac 5e3d 38b6 9dbd c8ad d33d
00000080: 288b 01bc 9c87 073e 61f8 50bd 6dd2 f73d
00000090: bcb2 f0bd 4580 ff3c 6b1a 36be ca6a 8fbd
000000a0: 830e ee3d b3c9 c6bd 12a8 cd3d d600 923d
000000b0: 16a0 aabd c522 2fbd b9c8 babd 6b62 9d3d
000000c0: 45aa 1abd 1048 a4bd 00a0 1ebe f8e7 c43c
000000d0: 5cba b03d 8817 3abc 0709 fbbd 764e 163e
000000e0: d275 05be 0e86 2bbe e6ad a5bd ce75 f5bd
000000f0: 2178 fe3c 692e 3e3e cd0b 66bd ee35 f3bd
00000100: 6e20 e5bd df88 9d3d c1b8 213e 50ae 8abd
00000110: 9a20 273e 97db 10be d0f2 0d3d 3b6c 2cbc
00000120: 595e 11bd 1d72 0bbe 22da b83d 7e49 083d
00000130: 6aab 3fbe dbd1 003d 3c0a eb3d c7d4 d73b
00000140: 2b62 bc3d 7351 013c af68 763d 7917 913d
00000150: 7ecf 14be b197 e93d 8f3c 27bd 7e79 21bd
00000160: 6862 e03c 139c dd3d 12c4 4e3d 7673 b43d
00000170: f49a 86bd 865c bf3d 6a5e 283e d54c d1bd
00000180: c56a 67bd 0779 173e c79a 183e aa3e 123e
00000190: 10a4 17be 41d4 363e cd5f 293e 6489 36be
000001a0: 8c79 acbd ba09 e339 2178 4d3e 40cd fdba
000001b0: c5a8 363e fa84 323e 564c 24bd 063d 07be
000001c0: a4d4 333d e29f bbbd 7f05 43be d87c db3d
000001d0: 1cb5 1ebe 7f0d 103e 68c2 623b a2a4 493e
000001e0: 4c3c 7fbd e83c 403e 35a8 54bd 631c 823b
000001f0: 95a7 843c 5430 a63d d47d b13d 22ab c7bd
00000200: 426f fabd bac7 5fbd d1a5 ea3d 5d2b 403d
00000210: 8248 cdbc c658 92bd 0402 ebbd e628 653d
00000220: a0c4 2bbe 6ebe e1bd 4d42 dfbd 0d07 7abc
00000230: 2d26 23be 5ffb 7ebd 9128 cf3d f5ab c4bd
00000240: 7c01 27be 4a5e ecbd 00e0 55bd 6f38 a9bb
00000250: b220 1bbe 037a 1dbe 3467 033e a649 193b
00000260: e0fa 7e3d 710d b6bd 3341 35bd e724 05be
00000270: cad2 873d a462 c13d 3ecc 9e3d e84e bdbd
00000280: fcaa 82bd f8f5 d8bd f23b 143e 2e8d 88bd
00000290: efc3 233d a190 66bc e32c b1bc dcf4 dcbd
000002a0: 97f1 a3bd ce41 203e 24b8 00be 1f84 153d
000002b0: 87ed 773d 020c 97bd 5311 1f3e 228a 0fbe
000002c0: f53a 833c bb6d ef3d f935 06be 1100 be3c
000002d0: ed7b 913d fb11 173e b495 ef3b db3f 1fbe
000002e0: 36c7 c03c 68b8 0bbe 5ff3 d93d b4f0 1ebb
000002f0: 2587 29be 3b2e 1cbd 41ed 22be 6c9e 13be
00000300: 51c8 3e3d fbb0 9bbd bc1c f6bc e375 073e
00000310: c0fe eabd a0ae f33d 646a d7bd 5309 2d3e
00000320: 377f 43be 2719 b43b c298 15bd b3b6 953d
00000330: 6bfa 86bd 6ebf 15bd 4a35 23be 493c 31be
00000340: e4d9 a33d b2c9 9f3d 83e9 05be 613d 3cbe
00000350: dacf e13d 5e96 0a3e d99d a33c 14f6 633d
00000360: 551d 303d ed8b 283e 3391 ed3d 0526 3abd
00000370: 68fa 053e 5fe3 173d 0b79 c83c f01e d9bd
00000380: 8c3d 14be 637e b13d def6 a4bd 40c8 273d
00000390: 9059 023c 2cb3 c0bd af61 3bbe c734 06be
000003a0: 08ca 9ebd f8fc abbd e9e1 bc3d adc2 2d3d
000003b0: ee1a 263e 0888 debd a6e8 c0bd e343 f53d
000003c0: 7ae0 553d 7283 85bd 2a13 8fbd 8687 20be
000003d0: 85e9 773d 2ff5 2cbe 4433 113c 758a 31be
000003e0: e3a8 a7bd 5198 21be 5ecd 08be bc7d c43d
000003f0: 6136 9a3c 62af 00bd cd6c cfbc 0fc4 aabc
0.050929666 -0.16286439 -0.14257556 -0.055152293 -0.0076825726 -0.004663191 -0.14724661 -0.1340519
0.06968692 0.0930904 0.094256274 0.06872024 0.1174375 -0.0058254013 0.076697655 -0.08775027
0.14739959 -0.0074062604 0.13218701 -0.017530689 0.15466554 0.07390539 0.13840914 0.0022857392
-0.050536174 0.018098088 0.005080108 0.16751644 0.0873248 0.054363564 -0.07700771 0.103358805
-0.007906713 0.13235325 -0.051018123 0.121006824 -0.11752841 0.031189093 -0.17783515 -0.0700279
0.11623862 -0.0970644 0.100418225 0.07129066 -0.08331315 -0.04275777 -0.09120316 0.07684787
-0.037760038 -0.08021557 -0.15490723 0.024036393 0.08629295 -0.011358149 -0.12257581 0.14678368
-0.13033226 -0.16750357 -0.08089809 -0.1198536 0.031063141 0.18572392 -0.056163598 -0.11875521
-0.11187826 0.07692122 0.15793134 -0.06771529 0.1632103 -0.14146267 0.034655392 -0.010523851
-0.035490368 -0.1361775 0.090259805 0.033273213 -0.18717733 0.031450134 0.114765614 0.0065866443
0.091984116 0.007892954 0.060158428 0.07084555 -0.14532277 0.11405886 -0.040829238 -0.039422505
0.027390674 0.108207844 0.050479956 0.08811085 -0.06572524 0.09343819 0.16442266 -0.10219733
-0.056498308 0.14792262 0.14902793 0.14281717 -0.14808679 0.17854406 0.16540451 -0.17825848
-0.08421621 0.0004330406 0.20065357 -0.0019363537 0.17837818 0.17433539 -0.040111862 -0.13206872
0.04390396 -0.091613546 -0.19045065 0.107171714 -0.15498775 0.14067648 0.0034600738 0.19691709
-0.062313363 0.18773234 -0.051918227 0.003970669 0.01619319 0.081146866 0.08666578 -0.09749438
-0.12228252 -0.054633833 0.11457408 0.046916354 -0.025058988 -0.071458384 -0.11474994 0.055947207
-0.16774225 -0.1102265 -0.10901318 -0.01526047 -0.15932532 -0.062251445 0.10115159 -0.09603111
-0.1630916 -0.11541422 -0.052215576 -0.005164198 -0.15149191 -0.15378575 0.12832338 0.0023389845
0.06225097 -0.088892825 -0.044251632 -0.13002358 0.06632002 0.09442642 0.077538 -0.09243566
-0.06380269 -0.1059379 0.14475992 -0.06667553 0.03998178 -0.014072568 -0.021627849 -0.10788891
-0.08005064 0.15650102 -0.12570244 0.036502954 0.060529258 -0.07375337 0.15533952 -0.14017537
0.016019324 0.11690851 -0.13106526 0.023193391 0.07103715 0.14752953 0.007311547 -0.15551703
0.023532491 -0.13644564 0.106421225 -0.0024252357 -0.1655546 -0.038130026 -0.15910818 -0.14415902
0.046577755 -0.07602116 -0.030042998 0.13228564 -0.11474371 0.118985415 -0.10518339 0.16898088
-0.19091497 0.0054961625 -0.036522634 0.07310238 -0.06590732 -0.036559515 -0.15938297 -0.17308153
0.08000544 0.07802142 -0.13077359 -0.18382789 0.11025973 0.13533923 0.019972729 0.0556546
0.042996723 0.16459627 0.1159996 -0.045446415 0.13083804 0.037082072 0.02447178 -0.10601604
-0.14476603 0.086666845 -0.08054899 0.040962458 0.007955924 -0.09409174 -0.18298982 -0.1310607
-0.07753378 -0.08397859 0.092227764 0.042421985 0.1622121 -0.1086579 -0.09419374 0.11975839
0.05221603 -0.06519212 -0.06986077 -0.15676698 0.060525436 -0.16890405 0.00886232 -0.17337973
-0.081865095 -0.1578076 -0.13359591 0.095942944 0.018824758 -0.031417258 -0.025320435 -0.020845441

lstm.bias_ih_l0_reverse f4 [128]
00000000: 01eb 373d fd12 09be b5dd df3d f5e6 18bd
00000010: b86a 03bb d460 f1bd 081f a0bc e3cc f03c
00000020: 5337 e5bd 3701 343e 36e2 b9bd db00 143d
00000030: 6bd1 203e 870a fc3d 9115 583d aef6 9bbd
00000040: edd0 d2bd eb70 00be 6441 1cbe e74c d53d
00000050: 7b73 44bc 31f2 a3bd 921d 7e3d 9d07 04bc
00000060: 1a84 ea3d 53e9 d8bd 3e4d ab3d 345c 21be
00000070: e5bc d13d edd5 12bd 644d 7cbd 1c67 b23d
00000080: 3763 44bd 8948 e43b 2218 873d d429 353e
00000090: 475d f7bd 83d3 0ebe e205 c03c b60f c53c
000000a0: cf55 0b3e ce5e f33d 04e7 abbd fdc5 243e
000000b0: 702b 953d 4f59 29bd b9ea d1bd 8c8f 1bbe
000000c0: d6cf 93bc b111 2d3e 94ed c63d 323b 913d
000000d0: 6e2b 583d 0a33 203e 86bc ba3d 271d f33d
000000e0: 8a9a 0cbe fe67 01be 92df c4bd fb98 d43c
000000f0: 9474 243d fbbb 373e 449b 94bd 3fba 2c3d
00000100: a0b2 213d 7bb9 e3bc 5d2d 1e3d 25e1 313d
00000110: e164 32be 1e9d 8abd 0efc 783d fadd 333e
00000120: 9364 363e 4178 8abd aad1 f8bc c71c e7bd
00000130: 2ae3 693d 1f2c c33d 17fd 0f3d b2d8 1bbe
00000140: 8098 d73d d712 b7bd 2e0f b9bd bb9b dc3c
00000150: 141a 4b3c bd9f bc3d 32ef 4b3d 70f7 fa3d
00000160: 6824 e73d 0e01 003e 8e80 1bbe 3c9a cfbd
00000170: 3cff 1ebe f462 a43d e06b a93d 64cf fcbc
00000180: e0f3 b13d 8e3c 213e 035f 79bd bfaa 82bd
00000190: 4165 c0bd ca63 ca3d f09b 48bd 3253 44bd
000001a0: 4ee6 113e 3f1e f63c 29dc 0a3e 47c7 2c3e
000001b0: c236 88bd 6b6a ab3d f997 b53d 6e99 e33d
000001c0: 727d 05be e50b f33d 579b 243d edf3 acbd
000001d0: 4d3b 903c 5861 e1bc cf14 28be a375 02be
000001e0: d5b0 1fbe f782 11be c359 183b fda8 de3d
000001f0: 5003 0a3c 01fc 7cbc 7417 e9bd 4f0d fabd
0.04490185 -0.1338615 0.10930959 -0.037329633 -0.0020052623 -0.117860466 -0.019546047 0.029394573
-0.11192193 0.17578588 -0.090763494 0.03613363 0.15704887 0.123066954 0.052754942 -0.0761541
-0.10293756 -0.12543075 -0.1525932 0.104150586 -0.011990423 -0.08005179 0.06203992 -0.008058456
0.114509776 -0.10591378 0.08364342 -0.15757829 0.10241107 -0.035848547 -0.061597243 0.08711073
-0.04794618 0.0069666547 0.065964 0.17691737 -0.12078338 -0.13947873 0.023440305 0.024055343
0.13606952 0.11883317 -0.08393672 0.16091152 0.07283676 -0.041344937 -0.10249848 -0.15191478
-0.01804344 0.1690128 0.09713283 0.07091369 0.052775793 0.1564447 0.09117989 0.11870795
-0.13730827 -0.12637326 -0.09612955 0.025951853 0.04015024 0.17942803 -0.07256177 0.042169806
0.03947699 -0.027798405 0.03861748 0.043427605 -0.17421295 -0.06768249 0.060787253 0.17565146
0.17811804 -0.06761218 -0.030373413 -0.11284786 0.057101406 0.095299 0.035153475 -0.15219381
0.10527134 -0.0893914 -0.090360984 0.026929727 0.012396354 0.09210155 0.04978866 0.12254226
0.11286241 0.12500402 -0.15185758 -0.1013684 -0.15527052 0.08026686 0.08272529 -0.03086061
0.086890936 0.15745756 -0.060881626 -0.063802235 -0.09394313 0.098823145 -0.04897684 -0.047930904
0.1424801 0.03004372 0.13560547 0.16872893 -0.06651069 0.08369907 0.08866877 0.11113249
-0.13036135 0.11867503 0.040187206 -0.08444963 0.017606402 -0.027512237 -0.16414188 -0.12740187
-0.155948 -0.14210115 0.0023246862 0.10872076 0.008423641 -0.015440942 -0.113814265 -0.1220957

lstm.bias_hh_l0_reverse f4 [128]
00000000: 425e 91bd bb4f 8fbd 53f5 0f3e 08ff fabd
00000010: 4bc5 33be b105 253d ee36 4cbd 35d9 0cbe
00000020: 9657 163d dd4f 02bd 58de d8bd 77ec fc3d
00000030: 5184 8ebd 4c1a 703d 3ddb 213e 5761 263d
00000040: bce4 c9bc 6903 f8bd 6341 093e 89b1 edbd
00000050: e1eb ab3c 8ce0 8d3d df18 03bd 6e14 b33d
00000060: 4d38 26be 8b41 093e 45ea 4f3d 7be0 8fba
00000070: 748c dabd 48e1 e9bd d2bc 853c 8a3f a23d
00000080: d44a 8c3d 0edd ba3d 60bc d7bb 621e 39bd
00000090: 9af0 f03d 21c2 17bd f041 15bd 5365 31be
000000a0: 6af5 0e3e 3efc e93d 1762 bdbc 9eae 023e
000000b0: d6da da3d 3f7f 0ebe 30be 0e3e f4e0 3c3d
000000c0: f202 523c 09d5 a83c cf65 c33d 151a f53d
000000d0: b26d 1cbe e864 94bd d72b 8bbd 06a8 023d
000000e0: e2ca 62bb 18a4 983d 0cc3 40bd b9fb 0a3d
000000f0: 7311 393c 7e21 9c3d 244f d5bd de39 113e
00000100: 865d 853b a99f b53d 78ff 1bbe 0ef6 3d3e
00000110: 94d6 80bc 5f31 8dbc 9524 1f3d 734e 9db9
00000120: 611e 26be d52b 953d 3e1a 053e 36c0 4f3d
00000130: be07 1a3e 56b4 f53d 087f d33c 89b0 28be
00000140: f68c f7bb 7810 bdbd b80e d03d 5ecf 98bd
00000150: d02c debd fedb c13d 821e 00be 7122 293e
00000160: ed4f c83d 045d 073e ffcb e2bc 593a 2e3e
00000170: b565 7f3d 4316 0dbd 4189 31be 8203 083e
00000180: a704 bdbd 1f31 7c3d c367 e1bb 9a33 363d
00000190: b268 74bd b148 613c 5def bfbd 55c5 31be
000001a0: 616a d53d 63ad f53b 6899 debd 5ff7 83bd
000001b0: 7f70 393e 0262 893d 8f8f c13b f6c8 253d
000001c0: fa32 0cbe b783 133e e421 b0bd 5e54 2abe
000001d0: 2526 8fbd 20bd 00be 7b02 1c3e 24a4 f43c
000001e0: d352 f7bd 2819 e4bc f8ae 4bbe 8ab7 3d3d
000001f0: cbed 193e 5a8f 86bd d1ef 353e b33c 1a3e
-0.070980564 -0.06997629 0.14058428 -0.122556746 -0.1755573 0.04028863 -0.049857073 -0.13754733
0.036704622 -0.031814445 -0.10589284 0.123497896 -0.06958831 0.05861883 0.15806289 0.040620174
-0.024645202 -0.121100254 0.1340385 -0.11606128 0.0209865 0.069275945 -0.03200614 0.08744131
-0.16232415 0.13403909 0.050760526 -0.0010976935 -0.106713206 -0.11419922 0.016325388 0.07922275
0.0685021 0.09124194 -0.0065837353 -0.04519499 0.11764641 -0.03705037 -0.036439836 -0.17323808
0.13960806 0.114250645 -0.023118062 0.12761924 0.10686271 -0.13915728 0.13939738 0.04611297
0.012818085 0.020609396 0.09540903 0.119678654 -0.1527622 -0.07245809 -0.06795471 0.03189852
-0.003460579 0.074531734 -0.04706101 0.033931468 0.011295664 0.07623576 -0.104154855 0.14182231
0.0040699868 0.088683434 -0.15234172 0.18550894 -0.015727319 -0.017235456 0.038853247 -0.00030003823
-0.16222526 0.07283751 0.12998292 0.050720416 0.15042016 0.11997287 0.02581741 -0.16473593
-0.0075546457 -0.09231657 0.101590574 -0.07461427 -0.10848391 0.09465788 -0.12511638 0.16517045
0.0978087 0.13219076 -0.027685164 0.17014445 0.062352855 -0.03444506 -0.17337514 0.13282588
-0.09229403 0.061570283 -0.0068788244 0.044482805 -0.059670158 0.013750241 -0.09371827 -0.17360432
0.10420681 0.007497476 -0.10869104 -0.06443667 0.1810932 0.06708147 0.005907006 0.040474854
-0.13691321 0.14405714 -0.08600214 -0.16633746 -0.06989697 -0.12572145 0.15235321 0.029863425
-0.12076344 -0.027844027 -0.19890964 0.046317615 0.15032117 -0.06570311 0.17767264 0.15062217

lstm.weight_ih_l1 f4 [128, 64]
00000000: 28f7 c73d dac9 1ebe e1d1 9c3c cc59 623d
00000010: 58d8 f13d 6ca6 e8bd afea 103e 919b 013e
00000020: 4bed 373e 84f8 c53d f782 5abd 63b9 c9bd
00000030: 2389 d03d d7f1 a43b 7eaa e43c cf8e b6bd
00000040: 9e59 97bc e84f b2bd d770 493e 1e15 b63c
00000050: 4845 5ebd 6338 70bd e5a0 b4bd acc3 cbbd
00000060: 6426 d7bd bdb4 a2bd dd66 f4bd 7270 8e3d
00000070: b6c7 2c3e c3de 63bd 9c71 933d 41b3 103e
00000080: 8740 3fbe c84e 02be 7a50 053e 9bad 423c
00000090: b224 523c dbca 3c3e 155e 0c3e a9fe e23d
000000a0: e09b f73d e93c fc3c af31 8bbd acbf e93b
000000b0: f722 b5bd 809a 083d f2ab 0cbe 96ea 133e
000000c0: add8 d3bd 6956 9fbd 5750 e2bd 7aa2 f73d
000000d0: f56f 19bc 4a8a e63d 8e54 c33d eefa 64bd
000000e0: da38 953d 156d 91bd 3316 a6bd ef33 c7bd
000000f0: 9271 5abd 13e4 64bd fa84 17be 68d8 f0bc
00000100: 777b 593c b5ad 28bd 5032 133d 7bd6 893d
00000110: 63cb 54bc 695b 19bc 4f02 20bd d5b2 ed3d
00000120: 9831 cc3c 4fab cf3d 2365 8fbd d701 803d
00000130: 8a29 ac3d b9de b83d 1a88 a13d 8176 14be
00000140: 9257 aabc 5e1a 88bd db56 813d 2ab1 78bc
00000150: 17fa a1bd d0f1 4ebd 2c54 95bd df0f 9b3d
00000160: 7628 ed3d f475 6e3c 4b50 ef3d 0fed 3a3e
00000170: e039 223d e189 ca3d 682d f53d 9141 fa3d
00000180: b751 24be 1999 c5bb 5a22 0ebe 1bd7 403c
00000190: 2b5c d1bd ddd8 8cbd 0247 a1bd 4cd0 91bd
000001a0: 6dbf 33bb deae 19bd 44d1 9cbd 39a9 b2bc
000001b0: 4b42 ffbd 30a4 03bd d3cf 66bd 98a0 03bd
000001c0: 5d67 eb3d 5ef6 973b a983 f2bd 0f1e 153e
000001d0: ec57 04be ce8e 12be c274 a6bc 8720 cb3d
000001e0: 4290 e0bd a5eb e93d 3def 02be c5c8 3b3d
000001f0: f44a f4bc a58d 473e 4a81 a53d 1933 933d
00000200: bcae 73bc 733f 59bd f573 08be ee32 223e
00000210: 034a 1e3d 9566 f5bd ca9c 2abe 997a e33c
00000220: c513 18bd 4e7f 443d 483e 763d d6ef e0bd
00000230: d636 6a3d dd24 0f3e b939 1cbe e863 c5bd
00000240: 9638 02be 260a 913c 9529 233e 7b3e 06be
00000250: 9bb6 ce3d d7f0 9fbd a848 813d 3731 883d
00000260: 5ab0 043e 6f04 923d d488 4cbd f5c7 74bc
00000270: 9565 1cbe 2eff 683d 995c ddbd 67d7 babc
00000280: 6fcd fe3d f824 7f3d d889 fabd e279 1d3e
00000290: 5ebe 203e 196d 11be 80c3 8d3c e65c b2bc
000002a0: 961a f9bd 7eeb d13d dfee 0abd b95a 873d
000002b0: 3f69 25be 43d3 02be da32 003d d8ac e1bc
000002c0: 9fa7 1ebe 0107 2a3d 53c1 ce3d ba16 e93d
000002d0: de6e 5a3d a710 22bd 123b 233e dda7 18be
000002e0: 9c94 88bd a5c2 433e 753e 1f3e c6ae 0d3e
000002f0: 6caa d93d 9756 3fbd 00d4 e63d 1bda db3d
00000300: 0a3d 003a 4069 37bb 789b 3bbd 0f9b 363e
00000310: 30b2 e13a fa47 b4bd 1e5d 7e3d 8b06 f83d
00000320: 1dd8 0dbe 8400 fd3c e747 3ebd 4245 b5bd
00000330: 2ab7 7538 7029 cfbd e3f6 e93d 47e7 34be
00000340: 5747 363e d052 bebc 9c05 9f3d df1f aa3d
00000350: 4501 b9bd 9312 e9bd 68af 05bd afa0 35bd
00000360: c4ca 033e 2efe af3d b5a2 59bb 8fd7 2d3e
00000370: bf04 e53d 3a20 85bc d602 0f3d cb17 e8bd
00000380: 56e9 663d 3b4c 053e b477 87bd 6371 ae3b
00000390: ccc2 d43d 39da 053e a95e 43be b428 09be
000003a0: 368a 84bc 3588 143e 052e 10be 7db8 e63c
000003b0: fc6e 0abe 29d1 adbb 2f4a 55bd a214 dabd
000003c0: a654 d2bd 3d88 06be c0bc bf3d c382 81bc
000003d0: c9b2 0dbe 8db8 15bd 1cc6 e5bd edbc 0ebe
000003e0: a46e b73d 917c 80bd 9f04 1dbe e0a5 00be
000003f0: f369 febc 5051 1ebd 6367 07be abea 763d
0.09763938 -0.15506688 0.019143047 0.05526142 0.118088424 -0.113598675 0.14152025 0.12657
0.17961614 0.09666541 -0.053347554 -0.09849813 0.10182407 0.0050337124 0.027913328 -0.08913957
-0.01847535 -0.08706647 0.19671951 0.022226866 -0.05426529 -0.058647525 -0.08819751 -0.09949431
-0.10505369 -0.07944629 -0.11933682 0.06955041 0.16873059 -0.055632364 0.07199404 0.1413088
-0.18676959 -0.12725365 0.1301898 0.011882211 0.012826132 0.18436758 0.13707764 0.11083729
0.12090278 0.030790763 -0.06796586 0.007133445 -0.0884456 0.033350468 -0.13737467 0.14444956
-0.10344062 -0.07780153 -0.1105048 0.12091537 -0.009365072 0.11256845 0.09537612 -0.055903368
0.07286234 -0.07100884 -0.08109703 -0.097267024 -0.053330965 -0.05588157 -0.1479682 -0.029400066
0.013274065 -0.041181285 0.035936654 0.06730362 -0.012987944 -0.009360173 -0.0390647 0.11606375
0.024925992 0.101400964 -0.07001712 0.06250351 0.084063604 0.09026856 0.078872874 -0.1449833
-0.02079371 -0.06645654 0.063153945 -0.015178958 -0.07909029 -0.05052358 -0.07291445 0.075713865
0.11579983 0.014554489 0.116852365 0.18254493 0.039605975 0.098895796 0.11971551 0.12219537
-0.16046797 -0.0060302136 -0.13880292 0.011770035 -0.10222658 -0.06877301 -0.07874872 -0.071198076
-0.002742733 -0.037520282 -0.07657102 -0.021809207 -0.12463816 -0.032139003 -0.05635054 -0.032135576
0.11494324 0.0046375236 -0.118415184 0.14562248 -0.12924165 -0.14312288 -0.020319346 0.099183135
-0.10965015 0.11421899 -0.12786575 0.045845766 -0.029820897 0.19487627 0.080813006 0.071874805
-0.014873203 -0.053039026 -0.13325484 0.1583974 0.0386448 -0.119824566 -0.16661373 0.02776842
-0.03712823 0.04797297 0.06011799 -0.10983245 0.057181202 0.13978906 -0.15256394 -0.09638196
-0.12716898 0.017705034 0.15933831 -0.13109772 0.10093423 -0.078096084 0.06312686 0.06650012
0.12957898 0.07129752 -0.049935177 -0.014940252 -0.15273125 0.056883983 -0.10808677 -0.02280779
0.12441527 0.062291116 -0.12233323 0.15378526 0.1569762 -0.14201774 0.017305136 -0.021772813
-0.12163274 0.10249995 -0.03391921 0.06609101 -0.1615343 -0.12775902 0.031298496 -0.027548239
-0.1549363 0.041510586 0.100954674 0.11381288 0.053328387 -0.039566662 0.15940502 -0.14907785
-0.0666897 0.1911722 0.15551169 0.13836202 0.106282085 -0.046713438 0.112709045 0.1073496
0.0004891908 -0.0027986318 -0.045802563 0.17832588 0.0017219242 -0.08802791 0.062100522 0.12110623
-0.13851972 0.030884035 -0.04645529 -0.088511005 5.8583137e-05 -0.101153255 0.11424043 -0.1766635
0.17800651 -0.023232847 0.07764742 0.0830686 -0.09033445 -0.11380496 -0.032637984 -0.044342693
0.12870318 0.08593403 -0.0033208553 0.1697676 0.11182546 -0.016250718 0.034914814 -0.11332663
0.05637487 0.13017361 -0.066146284 0.0053235753 0.10388717 0.13071527 -0.19079079 -0.13394433
-0.016179185 0.14505084 -0.14080055 0.028164143 -0.135189 -0.005304475 -0.0520727 -0.10648467
-0.10270052 -0.13137908 0.09362173 -0.015809422 -0.13837732 -0.036552954 -0.11219427 -0.13939257
0.0895665 -0.06273759 -0.15333794 -0.12563276 -0.03105638 -0.038651764 -0.13223033 0.06028239

lstm.weight_hh_l1 f4 [128, 32]
00000000: 91fa 143e c427 183e d1fa 0fbd ac35 d53d
00000010: 9bbd 003d a8b7 9cbd 044c eb3d be73 b5bd
00000020: d95e 123e 3864 dbbd b9ba 4dbd 1efa f8bd
00000030: fa8e 193e 6e83 353e 7265 9ebd 35de b53c
00000040: 68c9 1b3e e23a 1d3d 29a4 94bd dac5 cc3d
00000050: 96c5 113d 445a c03b b957 903d 03a0 053e
00000060: 25f9 303e 8418 16be 1ed4 cd3c 66b4 2b3e
00000070: cd5a 30be a37a c43c 8929 373d 13f0 11bd
00000080: 2e12 1ebe cce8 9c3d ab36 cf3d 11fe 373e
00000090: 35a9 0e3e 5e40 c6bd 2d7b c13d f291 94bd
000000a0: 1464 ea3c 1921 bfbd e08b d53c 7981 a53d
000000b0: 7946 f23d 7922 9d3d 1341 cfbd ab3f 043e
000000c0: c6fd d63d 1c4b 8c3d dec2 933c 458a d53d
000000d0: fe31 07bc c1f3 c03d 2f34 a8bd 0d8e 09ba
000000e0: 4097 ae3d 24d5 bd3d a2a7 a13d 0648 aa3d
000000f0: d0b2 9ebd b6d6 473c 6b09 99bd 7c3d 2dbe
00000100: 2783 413d 0d65 a13d 26aa 3e3e 9831 93bd
00000110: 0820 da3c 3b83 ce3d 349f 85bc dc11 dcbd
00000120: 6810 d73d 0235 3ebd 262d 11bd 1b4b 2b3d
00000130: d81e 013d 6d0a 733d 1ab6 593d 39c1 cd3d
00000140: 3139 933d 5a28 4b3d 47ae 16be ede7 ee3d
00000150: d961 9f3c 785b 143e 3309 df3d 096d 123e
00000160: 9060 163e 6ee8 bd3c e363 26bd 318c db3d
00000170: 8347 05be 9a5d ed3d 93cc b1bd 7712 09bd
00000180: e78d 2a3e 5c5a 863c 16f8 0b3d 0ae1 bd3c
00000190: ca6e 983d 1abd 08bd aa78 8abd a107 8fbd
000001a0: 5b64 e5bd 8aaf d0bb 67ff 16be d31a b7ba
000001b0: 1bc7 bebd 2346 27be 5141 d8bd 86d6 00bc
000001c0: 536f b4bd e75e 03bd afd0 0b3e 8a85 84bc
000001d0: ff16 f13d 71e5 1dbe b77f 043e ebbb a2bd
000001e0: 050f 893d c731 6bbd d718 db3d 3c3d 08be
000001f0: 68f8 073d f3ed 583d 6656 cc3d c1e3 8a3d
00000200: 4aa4 03be d019 3d3d 21b7 16be 2d24 093d
00000210: 8e7a cdbb 2f52 bfbd b59c 7ebd b50f da3d
00000220: 4cfb b1bd 9bec a33c a0ce b93d 7581 08bc
00000230: ab5d 0c3e 7deb e13c a725 ea3d e959 10bc
00000240: 8762 903d 3806 dbbc bf32 9a3d 4499 433c
00000250: 4574 3c3d bcb1 11be fafe 2a3e ea50 2d3d
00000260: f29a 093d 1700 d23c 5f8f ce3c 2e57 003e
00000270: d888 d9bd 43db f13d e5ee e33c 9973 4ebd
00000280: 8b36 19be 71c4 563d cb07 b43d e674 5bbc
00000290: 0e88 d6bd 6faa 0dbe 9f38 3bbe c389 033e
000002a0: 4a7f 2abe 3a12 01bd 33b3 09be 4977 9fbd
000002b0: 1d4a b2bd ee31 f23d e4b9 a9bd 562b 033e
000002c0: 3677 04bd c0bc 39be c0ad c2bd 3c20 a4bd
000002d0: 201b 3b3e 4b32 9a3b cf48 e73c 979c d13d
000002e0: c34d febd e299 433e c4f1 1c3e f784 c83d
000002f0: 9a9e 2bbd e83b 293d 392f 253e e4ce c8bc
00000300: 6c76 9a3c e473 033e 7053 e9bd 86bd 253e
00000310: 5a83 9f3d 426d 893d 1faa 1dbe 5791 f23d
00000320: 11ea 85bd 35cb fbbd 01c1 2e3d d97e e7bd
00000330: 4a6a 32be ad14 27be 477f b93d 8cbc 0fbe
00000340: b06a 19bd 8855 3b3e 0513 f4bd 667d c6bd
00000350: f2f6 ba3c 20ca 053e 11bb 133d a74d 64bb
00000360: 78c7 2dbe 95fd efbd 555d 74bd 8da0 473c
00000370: 193c fcbd c3c9 943d 841e b23d 2c3f b73d
00000380: accc 1abe ffd7 f93d fcdd b0b9 5961 093e
00000390: 7c04 57bc 6d63 acbb ae1f 3b3e ac4f a0bd
000003a0: 425f 9a3d 5b5c bf3c 9a48 4bbd 8727 01bd
000003b0: 8031 b53c beee c8bd b219 9bbd 3bde 9fbd
000003c0: d8ff 43be a387 c03c 8256 cbbd 2818 08be
000003d0: d1e8 eabd 134e b83d 1b21 febd d82b 103e
000003e0: 5f45 babd 8018 06bb b98b a5bd b366 8c3d
000003f0: 204a dc3d 2557 9b3d f020 b7bd ea34 8dbd
0.14548708 0.1485892 -0.035151307 0.10410628 0.031430822 -0.07652217 0.11489108 -0.08859967
0.14293994 -0.107124746 -0.0502269 -0.12157081 0.14995947 0.17725918 -0.07734193 0.022200683
0.15213549 0.038386233 -0.072578736 0.09998675 0.035588823 0.0058701355 0.07047982 0.13049321
0.17282541 -0.1465779 0.02512556 0.16768035 -0.17222138 0.023984259 0.044717345 -0.035629343
-0.15436623 0.0766159 0.10117849 0.17968012 0.13931735 -0.09680246 0.09447322 -0.07254399
0.028612174 -0.09332485 0.026067674 0.080813356 0.11829848 0.07672591 -0.10119834 0.12914912
0.10497622 0.068502635 0.018037256 0.104267634 -0.008251665 0.09421492 -0.08213078 -0.00052473025
0.085249424 0.09269169 0.078933015 0.08314519 -0.077489495 0.012197187 -0.074724995 -0.16917986
0.047244217 0.07880602 0.18619594 -0.07187194 0.026626602 0.10083624 -0.016311266 -0.10745594
0.10501176 -0.04643727 -0.035443448 0.041819673 0.031523556 0.059336115 0.05315218 0.1004662
0.07188643 0.04959903 -0.14714919 0.1166533 0.019455837 0.14488018 0.108904265 0.14299406
0.14685273 0.02318212 -0.040622603 0.10720099 -0.13015561 0.11590119 -0.086815976 -0.033464875
0.16655694 0.016400509 0.03417214 0.023178596 0.07443006 -0.033383466 -0.06761296 -0.06983877
-0.11200782 -0.006368582 -0.14745866 -0.0013969786 -0.0931532 -0.16335349 -0.10559333 -0.007863646
-0.08810296 -0.032072928 0.13653825 -0.016176958 0.11771964 -0.15419556 0.12939344 -0.07945999
0.06692318 -0.05742052 0.10698097 -0.13304609 0.033195883 0.0529613 0.09977417 0.06781722
-0.1285564 0.046167195 -0.14718296 0.033481766 -0.006270713 -0.09341847 -0.062161166 0.10647527
-0.08690509 0.020010283 0.09072614 -0.008331646 0.13707606 0.02757811 0.11432963 -0.008810499
0.070500426 -0.026736364 0.0752921 0.011938397 0.04600932 -0.14227957 0.16698828 0.042313494
0.033595033 0.025634808 0.025214849 0.12533256 -0.10621804 0.11809399 0.027823875 -0.05040321
-0.14962213 0.052433435 0.08790549 -0.01339457 -0.10475169 -0.13834547 -0.18283318 0.1284552
-0.1665012 -0.031511523 -0.13447265 -0.07786424 -0.08705542 0.118259296 -0.08287409 0.128095
-0.03234025 -0.18138409 -0.095057964 -0.08013961 0.18272066 0.0047057024 0.02823296 0.10234945
-0.124171756 0.1910167 0.15326601 0.09790986 -0.0418993 0.041316897 0.16131295 -0.024512716
0.018855296 0.12837178 -0.113928676 0.16185579 0.07788725 0.067102924 -0.15396927 0.118441276
-0.06538785 -0.12294618 0.04266453 -0.11303491 -0.17423359 -0.16316481 0.09057479 -0.14036769
-0.03745526 0.18294346 -0.1191769 -0.096918866 0.02282283 0.13065386 0.036067072 -0.0034836323
-0.16970623 -0.11718289 -0.05965932 0.012184274 -0.1231615 0.072650455 0.08697227 0.08947596
-0.15117139 0.12199401 -0.00033734727 0.13416041 -0.013123628 -0.005260876 0.18273804 -0.07827696
0.075377 0.023359468 -0.049629785 -0.031531837 0.02211833 -0.098111615 -0.0757326 -0.07806059
-0.19140565 0.023502177 -0.099286094 -0.13290465 -0.114701875 0.089992665 -0.12408658 0.14079225
-0.09095263 -0.002046138 -0.080832906 0.06855526 0.10756326 0.07584981 -0.08941829 -0.06894858
