result_train/seqmodel_ep20.pth (torch, 390389 bytes, 44 tensors)

lstm.weight_ih_l0 f4 [128, 7]
0	0x3e087c35	0.13328631
1	0x3d94ffbe	0.072753415
2	0x3dd36445	0.10321859
3	0xbe181d1f	-0.14854859
4	0xbe279ee2	-0.16369203
5	0x3defd786	0.1171103
6	0xbe13bd33	-0.14427643
7	0x3e249a75	0.16074546
8	0xbc8dd0bc	-0.017311446
9	0xbd29200d	-0.04129033
10	0xbd03d195	-0.032182295
11	0x3debf388	0.11521059
12	0x3e11c8fd	0.14236827
13	0x3d8dba72	0.06920327
14	0x3e254a7a	0.16141692
15	0xbd94b5bd	-0.07261226
16	0x3db5709f	0.088593714
17	0x3da6d7e3	0.08146646
18	0x3d061bf8	0.032741517
19	0xbd0c7715	-0.034293253
20	0x3d44267b	0.04788826
21	0x3d9a4cb4	0.07534161
22	0xbd813fd6	-0.06311004
23	0xbd6e40d4	-0.058167294
24	0xbd915d39	-0.07097859
25	0xba9e7d7b	-0.001209184
26	0xbdb4ee22	-0.08834483
27	0xbd33e48c	-0.04391913
28	0xbc180a23	-0.0092797605
29	0x3ce01008	0.027351394
30	0x3e33eba7	0.17570363
31	0x3e1d159f	0.15340279
32	0xbdbe4dbf	-0.09292173
33	0xbdf4ca2a	-0.11952622
34	0x3dd853c5	0.10562853
35	0x3e2dc11b	0.16968195
36	0xbe1142dd	-0.14185663
37	0x3cc4f6f4	0.024043538
38	0xbd509198	-0.0509201
39	0xbd282963	-0.041055094
40	0x3c9acad3	0.018895542
41	0x3d0430a9	0.03227297
42	0xbd981ad0	-0.07426989
43	0xbda48fb8	-0.08035225
44	0x3def0a2c	0.11671862
45	0x3e4a6429	0.1976477
46	0x3da731fa	0.08163829
47	0xbd331e97	-0.043730345
48	0xbe2636c9	-0.16231836
49	0x3e32f6c0	0.1747694
50	0x3de65b51	0.11247886
51	0x3d6c790b	0.057732623
52	0xbd8fd381	-0.07022763
53	0x3d6aaa4a	0.057291307
54	0xbd5548b7	-0.0520713
55	0xbd01edb0	-0.031720817
56	0xbd8eb17e	-0.06967448
57	0x3d42f176	0.047593556
58	0xbe057388	-0.13032353
59	0x3e0913a0	0.13386393
60	0x3afdb638	0.0019356674
61	0xbd8316c9	-0.0640083
62	0xbd65b9ac	-0.056085274
63	0x3cfd403a	0.030914415
64	0x3d540085	0.051758308
65	0xbca23cc4	-0.019804366
66	0xbd87fb96	-0.06639783
67	0x3d0053f3	0.03133006
68	0x3d25dc57	0.040493336
69	0xbdd8f350	-0.10593283
70	0x3e1e9749	0.15487398
71	0xbe0bf9dd	-0.13669534
72	0xbc6a0574	-0.014283527
73	0x3c7536d8	0.014966689
74	0x3babf4fd	0.0052477107
75	0x3d43f300	0.047839165
76	0x3dc520ac	0.09625372
77	0xbe21ca74	-0.15799886
78	0x3d256e82	0.04038859
79	0x3dcedc88	0.10100657
80	0x3e509a8c	0.20371455
81	0xbd11bdd3	-0.03558142
82	0x3b9609b2	0.0045787925
83	0xbe2e9fc0	-0.17053127
84	0x3ccaebcb	0.024770638
85	0xbe30ca13	-0.17264585
86	0xbe361605	-0.17781837
87	0x3d7b5321	0.061358575
88	0xbd29cf60	-0.041457534
89	0x3dafdaca	0.085866526
90	0xbc407f9a	-0.011749173
91	0xbdbe49e3	-0.092914365
92	0x3e065ff1	0.13122536
93	0x3d9ba57a	0.075999215
94	0x3dfc231f	0.12311386
95	0xbe2d4763	-0.16921763
96	0xbdd59ebf	-0.10430669
97	0xbd0ab309	-0.033862147
98	0x3cb249c3	0.021763688
99	0xbe3d1cf7	-0.1846808
100	0x3e2f7802	0.17135623
101	0xbbb1f945	-0.0054313266
102	0xbdad9af4	-0.084768206
103	0xbe2bf833	-0.16793899
104	0xbd4c98eb	-0.04995052
105	0x3d04fb80	0.03246641
106	0xbdc02e23	-0.093838
107	0xbd8f1b1f	-0.06987595
108	0xbce63e25	-0.028105805
109	0x3e09c995	0.13455804
110	0x3e1adbc3	0.15122895
111	0xbe328c3e	-0.1743631
112	0x3cd7c075	0.026336888
113	0x3d6e585b	0.05818973
114	0xbd0f8975	-0.0350432
115	0x3d29a527	0.041417267
116	0xbe0c102d	-0.13678046
117	0xbbbffbbd	-0.005858867
118	0x3d396b93	0.045268606
119	0x3e1fe164	0.15613323
120	0x3c7b006c	0.015319925
121	0xbd449cd2	-0.048001118
122	0xbd8e6c35	-0.069542326
123	0x3e042552	0.12904862
124	0x3e386993	0.18009023
125	0xbe1dcdeb	-0.15410583
126	0xbdaa9ac9	-0.08330304
127	0x3de720c1	0.11285544
128	0x3de52260	0.11188197
129	0xbbd09e4e	-0.0063665276
130	0x3e2b78ca	0.16745296
131	0xbd6827f1	-0.056678716
132	0x3db61942	0.08891536
133	0x3d28799d	0.041131604
134	0x3df0a3bc	0.1174998
135	0xbe468ee7	-0.1939045
136	0x3e09f46d	0.13472147
137	0x3c9c0e02	0.019049648
138	0xbd8e7955	-0.06956736
139	0xbd734aa5	-0.05939736
140	0x3dcd2f1e	0.100187525
141	0xbd5f5dcb	-0.054532807
142	0x3e2b800a	0.16748062
143	0x3d97fdbe	0.07421444
144	0x3de1eeb0	0.11031854
145	0x3d669cec	0.056301996
146	0x3da2676d	0.07929883
147	0x3cd78e55	0.026312986
148	0x3d1da2b2	0.038485236
149	0xbd8e19a5	-0.06938485
150	0x3d5e7189	0.054307494
151	0x3cc8b87c	0.024502032
152	0xbd8a7420	-0.0676043
153	0xbc232f1e	-0.009959964
154	0xbe1c470f	-0.15261482
155	0xbe0d1799	-0.13778533
156	0xbdbcfd8e	-0.09228049
157	0x3cdcc56f	0.026949612
158	0xbdcdd87d	-0.100510575
159	0xbd24cf9e	-0.04023706
160	0x3e230d1f	0.15922974
161	0x3cad77aa	0.021175224
162	0xbdd93209	-0.106052466
163	0x3cb0cd07	0.02158214
164	0x3e2cba61	0.16867973
165	0xbe0bc7b5	-0.13650401
166	0xbe210db7	-0.15727888
167	0x3d612ce9	0.05497447
168	0xbd7e246f	-0.062046465
169	0xbd2c2321	-0.04202569
170	0x3cdb5f4f	0.026778845
171	0xbd807aa1	-0.062733896
172	0xbe0ea637	-0.13930593
173	0xbcf1c1e3	-0.029511398
174	0xbe0f09ef	-0.13968633
175	0xbe09f342	-0.13471702
176	0xbe0cda2a	-0.13755098
177	0x3db6fb07	0.089345984
178	0xbdeaedf7	-0.114711694
179	0x3d3cb50f	0.04607111
180	0xbde11224	-0.10989788
181	0xbc41b10a	-0.011821995
182	0x3e172f47	0.14764129
183	0x3dad4095	0.08459584
184	0x3de0d865	0.10978774
185	0x3da953e6	0.082679555
186	0xbd4c09ba	-0.049813963
187	0xbb0e2fbc	-0.0021695932
188	0xbca8176c	-0.02051898
189	0x3c8fb476	0.017542105
190	0x3e05be36	0.13060841
191	0x3e3b1b04	0.18272024
192	0xbd920c0f	-0.07131206
193	0x3dff4a33	0.12465324
194	0x3e1869f9	0.14884175
195	0x3dba8f14	0.09109321
196	0x3c1bee45	0.009517257
197	0xbe3b8561	-0.18312599
198	0xbda36c68	-0.07979661
199	0xbe13eb19	-0.14445151
200	0x3e359e33	0.1773613
201	0xbd6e6cbf	-0.058209177
202	0xbda37b0e	-0.07982455
203	0xbd9847ae	-0.07435547
204	0xbda06742	-0.07832195
205	0xbbd64628	-0.006539125
206	0xbe012183	-0.1261044
207	0x3d68f180	0.056870937
208	0xbe232859	-0.1593336
209	0x3db1ad68	0.08675653
210	0xbd62f0f0	-0.055405557
211	0xbd0d1865	-0.034447093
212	0xbd9fcf6c	-0.078032345
213	0x3dd5bc3d	0.10436294
214	0x3e1df3ef	0.15425085
215	0xbdcfca0e	-0.10145961
216	0xbd83cd0a	-0.064355925
217	0x3e032265	0.12806089
218	0x3dc553c4	0.09635118
219	0xbd9da470	-0.076973796
220	0xbdbfe51a	-0.093698695
221	0xbe39107c	-0.18072695
222	0x3e04389f	0.12912224
223	0xbdd58961	-0.104265936
224	0x3d3675ec	0.044546053
225	0xbd70d745	-0.058799047
226	0x3d3b7c26	0.045772694
227	0x3d6df09d	0.058090795
228	0xbb3da9ab	-0.0028940241
229	0x3cf99d08	0.030470386
230	0xbd85925f	-0.06522059
231	0xbdcf91da	-0.10135241
232	0xbe14f3c8	-0.1454612
233	0xbba0e1cb	-0.004909729
234	0xbe070028	-0.13183653
235	0xbc8e479a	-0.017368127
236	0xbe276cc6	-0.16350088
237	0xbb5524cd	-0.0032523156
238	0xbcf570ca	-0.029961009
239	0xbe31a0c6	-0.17346486
240	0xbd29b522	-0.041432507
241	0x3e109288	0.14118397
242	0xbdcd0e6f	-0.100125186
243	0xbdcd6e0e	-0.10030757
244	0xbde69a08	-0.11259848
245	0xbe129e09	-0.14318098
246	0xbd66e8c0	-0.05637431
247	0x3d563fb4	0.052306846
248	0xbe29be09	-0.16576399
249	0xbe2df1dd	-0.16986795
250	0xbca72bc7	-0.020406617
251	0x3e259b99	0.16172637
252	0xbe15bf18	-0.14623678
253	0x3dd9cddc	0.10634968
254	0x3e2f942b	0.17146365
255	0xbe3b27ed	-0.18276949

lstm.weight_hh_l0 f4 [128, 32]
0	0xbda6132e	-0.08109127
1	0x3e2cd0bc	0.16876501
2	0xbdd9014c	-0.105959505
3	0xbd7b70f8	-0.061387032
4	0xbe460696	-0.1933845
5	0xbe2fbfab	-0.1716296
6	0xbe0dcfa8	-0.13848746
7	0x3ddd2473	0.10797968
8	0x3dcaf01c	0.099090785
9	0xbe2d7fcf	-0.16943286
10	0xbe0e723f	-0.13910769
11	0x3db922fa	0.090398744
12	0x3d586aa1	0.052836064
13	0xbe04b087	-0.12957965
14	0x3c060d47	0.0081818765
15	0xbe3e6fbd	-0.18597312
16	0xbe268ef3	-0.16265468
17	0x3ddbb96a	0.10728724
18	0x3e1e35e2	0.15450242
19	0x3d94eb55	0.072714485
20	0x3dbb3867	0.09141617
21	0xbdc9576e	-0.09831129
22	0xbda78a8b	-0.08180722
23	0x3e200ee8	0.15630686
24	0xbdfb27e5	-0.12263469
25	0xbe1c7114	-0.15277511
26	0x3e142fe7	0.14471398
27	0x3d46fa57	0.048578586
28	0x3d1f7cb2	0.038937278
29	0xbcd6afb9	-0.026206838
30	0x3dce091b	0.100603305
31	0x3e2b5644	0.16732126
32	0x3e367b16	0.17820391
33	0xbd13c172	-0.036073156
34	0xbd0c8cb0	-0.034313858
35	0xbde6380a	-0.11241157
36	0x3d91e66e	0.07124029
37	0xbd803a55	-0.06261126
38	0x3ca5e48d	0.020250583
39	0x3dbf8ef7	0.0935344
40	0xbe067a43	-0.13132577
41	0x3de80cdc	0.11330578
42	0xbe1c4440	-0.1526041
43	0xbe00ea53	-0.12589388
44	0xbcdf5b0d	-0.027265096
45	0xbd5f2ff9	-0.05448911
46	0x3d504521	0.050847176
47	0xbdc81684	-0.097699195
48	0xbd14ab63	-0.03629626
49	0xbe0cf58d	-0.13765545
50	0xbd272918	-0.040810674
51	0x3dcc1842	0.09965564
52	0x3dfab832	0.12242164
53	0x3dc9c1df	0.09851431
54	0xbdeb171a	-0.11479016
55	0x3db017ea	0.08598311
56	0x3e2335fc	0.15938562
57	0xbd3e2ff3	-0.046432447
58	0xbdacd66d	-0.08439336
59	0xbd170e76	-0.036879025
60	0xbe09d030	-0.13458323
61	0xbe0e1bb0	-0.1387775
62	0xbe09f9f7	-0.1347426
63	0xbc37a3b5	-0.011208464
64	0x3d44b9b6	0.04802867
65	0xbb2dbaff	-0.0026509163
66	0xbd886bf8	-0.066612184
67	0xbcbdfd65	-0.023192117
68	0x3d31b132	0.043381877
69	0x3d1fd23d	0.03901886
70	0xbe1938d4	-0.14963084
71	0x3df522c3	0.11969521
72	0xbe3c2df6	-0.18376908
73	0xbc4e9a89	-0.012610086
74	0x3b1b9c8b	0.002374443
75	0xbdc3d909	-0.095628805
76	0x3e1d7b7d	0.15379138
77	0xba572eee	-0.0008208592
78	0xbb7890d4	-0.0037928121
79	0xbe03bf29	-0.1286589
80	0x3e3d7b33	0.18504028
81	0xbd5ccc8e	-0.053906016
82	0x3df3a8d9	0.118974395
83	0xbe158a8d	-0.14603634
84	0x3dbd42d0	0.09241259
85	0x3de8504a	0.11343439
86	0xbe14e848	-0.14541733
87	0xbc2e1ca4	-0.010626946
88	0x3d90c7c7	0.070693545
89	0x3dea2aa3	0.114339136
90	0xbe027318	-0.12739217
91	0xbc5fdd98	-0.013663672
92	0x3de91c2a	0.11382325
93	0x3ceda53a	0.02900945
94	0x3e3e18bb	0.18564121
95	0x3c946dcf	0.018118767
96	0xbd2a0b9f	-0.04151499
97	0x3e0edd86	0.13951692
98	0x3e15b3a1	0.14619304
99	0x3e25acf8	0.16179264
100	0xbd4e3904	-0.050347343
101	0xbd8fb96e	-0.0701779
102	0xbd8c562e	-0.06852375
103	0x3da71886	0.08158974
104	0x3e2b03f7	0.16700731
105	0x3df750ef	0.12075984
106	0xbd4f5a2e	-0.05062311
107	0xbd034268	-0.03204575
108	0x3d3cfa59	0.046137188
109	0x3dd316b5	0.103070654
110	0xbd2a26eb	-0.04154102
111	0x3de2c4d7	0.110727005
112	0xbe11d352	-0.14240769
113	0xbdc479df	-0.095935576
114	0xbc0fc4cc	-0.008774947
115	0xbdd5c836	-0.10438578
116	0xbd8934b9	-0.06699509
117	0xbdf57a10	-0.11986172
118	0x3d75d283	0.060015213
119	0xbddf34a2	-0.10898711
120	0x3e170a59	0.14750041
121	0x3cff624c	0.031174801
122	0x3c762a7a	0.015024776
123	0xbe2c25f1	-0.16811348
124	0x3dbf2b81	0.093344696
125	0xbe38a09f	-0.18030022
126	0xbe075752	-0.13216904
127	0x3c5c97f3	0.013463962
128	0xbcd68e29	-0.026190834
129	0x3e029ce1	0.12755157
130	0xbd97225b	-0.073796
131	0x3d54c5bf	0.051946398
132	0xbdd683fd	-0.104743935
133	0xbe322456	-0.17396674
134	0x3d39b452	0.045337982
135	0xbe3216e6	-0.17391548
136	0x3c065e85	0.008201246
137	0xbdeef649	-0.11668069
138	0x3e13f34f	0.14448284
139	0x3e10f85c	0.14157242
140	0xbcf7f696	-0.030268949
141	0x3cbdda86	0.02317549
142	0x3cdce2f5	0.02696369
143	0xbdca4df6	-0.09878151
144	0xbd0cbd91	-0.034360472
145	0xbe1f1db6	-0.15538678
146	0xbdc34f8c	-0.09536657
147	0xbe0a1ddf	-0.13487957
148	0xbdc99e1c	-0.0984461
149	0x3d32070e	0.04346376
150	0xbddea669	-0.10871584
151	0xbd8f9f0c	-0.07012758
152	0xbe1175fa	-0.1420516
153	0xbdf340ac	-0.118775696
154	0x3d48906f	0.048965868
155	0x3dce7b45	0.100821055
156	0xbdb413be	-0.08792828
157	0x3dc0ebff	0.09420013
158	0x3dd9598f	0.10612785
159	0xbdb58d42	-0.088648334
160	0xbc23f54a	-0.010007212
161	0x3d8a8b5b	0.06764861
162	0xbd842f20	-0.06454301
163	0xbe03b704	-0.12862784
164	0x3e3d8a46	0.18509778
165	0xbd882e9f	-0.06649517
166	0x3ce7467d	0.028231854
167	0x3e144d67	0.14482652
168	0x3dc08213	0.0939981
169	0x3df5ee9b	0.12008401
170	0x3d923405	0.07138828
171	0x3dd3eba3	0.103476785
172	0x3e0900a3	0.13379149
173	0x3e2a222f	0.16614603
174	0xbd170c49	-0.03687695
175	0x3da98531	0.08277357
176	0xbcfd7305	-0.030938635
177	0x3d1597a1	0.036521558
178	0xbe38925c	-0.18024582
179	0x3dd9b141	0.106295116
180	0x3e266c71	0.16252305
181	0x3df893e8	0.12137586
182	0xbe1f1c4e	-0.15538141
183	0x3d4e8cfc	0.050427422
184	0x3c0c5947	0.008566207
185	0xbe16e3c3	-0.14735322
186	0xbdfb94c7	-0.122842364
187	0xbe29e8f8	-0.16592777
188	0x3c52e102	0.012871029
189	0x3e254b3f	0.16141985
190	0xbd491d5d	-0.04910027
191	0x3de5dd06	0.112237975
192	0x3d509fd4	0.050933674
193	0x3e3c96cc	0.184169
194	0xbe04c72a	-0.129666
195	0xbbef4411	-0.0073018153
196	0x3e0d84d8	0.13820207
197	0x3e092f6c	0.13396996
198	0xbe1524a1	-0.14564754
199	0xbd64815a	-0.05578742
200	0xbd51b35c	-0.05119644
201	0xbc04401f	-0.008071928
202	0x3e2e49db	0.17020361
203	0x3d8aecfc	0.067834824
204	0xbd48c9d8	-0.04902062
205	0x3d395c07	0.04525378
206	0xbe185a99	-0.1487831
207	0xbdcaf020	-0.099090815
208	0xbd916ab4	-0.0710043
209	0xbc85bb65	-0.016324708
210	0x3d9c4213	0.0762979
211	0x3dff4bb2	0.124656096
212	0x3d9c4135	0.07629625
213	0xbe30637a	-0.17225447
214	0xbd97bda4	-0.07409218
215	0xbe075ef6	-0.13219818
216	0xbd1c9d04	-0.03823568
217	0xbe256709	-0.16152586
218	0x3da01461	0.07816387
219	0xbdb1397e	-0.08653544
220	0x3de69c80	0.11260319
221	0xbd6fa2ed	-0.058504988
222	0x3e1b902d	0.15191717
223	0x3c7e2bcf	0.0155133745
224	0xbe245110	-0.16046548
225	0x3e304f93	0.17217855
226	0xbd805a4d	-0.062672235
227	0xbe280c4e	-0.16410944
228	0xbd8b45ca	-0.068004206
229	0xbc89db85	-0.016828308
230	0xbd6e26ec	-0.058142588
231	0x3c51943d	0.01279169
232	0xbdaafa77	-0.08348554
233	0xbddb6889	-0.10713298
234	0xbd9b7c82	-0.07592107
235	0x3dda7ebd	0.10668705
236	0x3d699de9	0.05703536
237	0xbe15f83f	-0.1464548
238	0x3e2d7797	0.16940151
239	0x3db29ca6	0.087212846
240	0xbdcc0ad4	-0.09963003
241	0x3cca96ee	0.024730172
242	0x3d580ca8	0.052746445
243	0x3d63579d	0.055503476
244	0x3df9e0b8	0.12201065
245	0x3d1954a6	0.037434243
246	0x3cd40196	0.025879662
247	0xbddf8e71	-0.109158404
248	0x3d85881b	0.06520101
249	0xbd95c5f2	-0.07313146
250	0x3d0ac500	0.03387928
251	0xbe2b1afe	-0.16709515
252	0x3dde97cc	0.10868797
253	0x3d45e1b5	0.048310954
254	0xbddd43dc	-0.10803959
255	0xbd8f96f0	-0.07011211

lstm.bias_ih_l0 f4 [128]
0	0x3e190b89	0.14945807
1	0x3d076746	0.033057474
2	0x3d90b4db	0.070657454
3	0x3e306957	0.17227684
4	0x3bd5ba47	0.00652245
5	0xbda5de0e	-0.08098994
6	0x3d7e7cd2	0.062130757
7	0xbd8bd664	-0.06828001
8	0xbe22f421	-0.1591344
9	0xbde9eed1	-0.11422504
10	0x3e0f7979	0.14011182
11	0x3df4e680	0.11958027
12	0xbe2c1444	-0.16804606
13	0xbe0ad266	-0.13556823
14	0x3db1c851	0.086807854
15	0x3aa8c1ea	0.0012875174
16	0xbe08fc77	-0.13377558
17	0xbe45ef15	-0.19329484
18	0xbd9e08b0	-0.07716501
19	0x3e476b55	0.19474538
20	0xbda55ca4	-0.080743104
21	0xbe05204b	-0.130006
22	0x3dc8aa58	0.097981155
23	0xbd6090da	-0.05482564
24	0xbd4d666a	-0.050146498
25	0xbdf4d42f	-0.11954533
26	0x3dc1193a	0.0942864
27	0x3b8e6921	0.0043460284
28	0xbaef4159	-0.0018253728
29	0x3e2fa518	0.17152822
30	0xbe076c57	-0.13224922
31	0x3e324117	0.17407642
32	0x3d4c5f50	0.049895585
33	0x3e37b55a	0.17940274
34	0xbdd9206d	-0.10601888
35	0x3e15a412	0.14613369
36	0xbdadc3cc	-0.08484611
37	0xbe276223	-0.1634603
38	0x3d849fee	0.06475817
39	0xbbe7e260	-0.0070765465
40	0xbbbe4113	-0.0058060973
41	0xbe1c0eab	-0.1523997
42	0x3d94193c	0.072313756
43	0x3dc30fb2	0.09524478
44	0xbe280d60	-0.16411352
45	0xbe1bd38f	-0.15217422
46	0xbdbadb6e	-0.09123884
47	0x3c3d7516	0.01156356
48	0xbe006ae7	-0.1254078
49	0x3d01dec6	0.031706594
50	0x3e20e042	0.15710548
51	0x3e2a211b	0.16614191
52	0x3d52f3cf	0.051502045
53	0x3b8e5b87	0.004344407
54	0x3e1a2dd2	0.15056542
55	0xbd379428	-0.044819027
56	0xbde23bbd	-0.110465504
57	0xbde2fdff	-0.11083602
58	0x3e16db2d	0.14732046
59	0x3d370b18	0.044688314
60	0xbd6c52c3	-0.057696115
61	0x3d02fb9b	0.03197823
62	0x3d6333a3	0.055469166
63	0x3e1ddae3	0.1541553
64	0xbe0a2b85	-0.13493164
65	0x3cae0da7	0.021246744
66	0xbdd159f9	-0.10222239
67	0x3b97e6a5	0.0046356493
68	0xbd093406	-0.03349688
69	0xbdfc576e	-0.123213634
70	0xbe10fd07	-0.14159022
71	0x3cd03909	0.025417821
72	0x3db1a0e2	0.08673264
73	0x3e0da2b1	0.13831593
74	0x3e09a871	0.13443162
75	0x3d4b9e0c	0.049711272
76	0xbcece73a	-0.028918851
77	0xbcbf47b1	-0.023349615
78	0xbe1ac663	-0.15114741
79	0xbe15c8a2	-0.14627317
80	0x3d835e88	0.06414515
81	0x3c3f6766	0.011682367
82	0xbdcebd3f	-0.100946896
83	0xbc78aee9	-0.015178421
84	0xbdffb308	-0.124853194
85	0x3dc6b4c0	0.09702444
86	0xbdaef1d4	-0.08542219
87	0x3dd95be4	0.1061323
88	0x3ddc42da	0.107549384
89	0x3ddc512f	0.10757672
90	0x3d966b61	0.073447
91	0xbd946f9d	-0.07247851
92	0xbd9b9753	-0.07597222
93	0xbd924df9	-0.07143778
94	0x3e2af3a6	0.16694507
95	0xbd5abb03	-0.053401005
96	0x3ce509e0	0.02795881
97	0xbd7a02b1	-0.061037723
98	0xbd9949a2	-0.074847475
99	0x3db5f365	0.088843144
100	0x3d8af11d	0.0678427
101	0x3de63fe3	0.11242654
102	0x3e2c2679	0.16811551
103	0xbd8dca12	-0.069233075
104	0x3df0e463	0.11762311
105	0x3e0d7b41	0.13816549
106	0x3ce4d24a	0.027932305
107	0x3cb6945d	0.022287542
108	0x3dd3309e	0.10312007
109	0x3c8187f1	0.015811892
110	0xbdf9db61	-0.12200046
111	0x3e0e50ce	0.13898012
112	0xbda5b02e	-0.08090244
113	0xbd9b687f	-0.075882904
114	0x3d8799d5	0.06621138
115	0xbc5ffb1e	-0.013670711
116	0x3dc3ed69	0.09566767
117	0xbdb0e0ba	-0.08636613
118	0x3e069739	0.13143624
119	0xbceda61e	-0.029009875
120	0xbd673b6f	-0.056453165
121	0x3caedf76	0.021346789
122	0x3aef28fb	0.0018246466
123	0xbe1817a2	-0.14852765
124	0x3ddc5a2f	0.10759389
125	0xbdb28672	-0.0871705
126	0xbd9c24de	-0.07624219
127	0xbdf035b2	-0.117289916

lstm.bias_hh_l0 f4 [128]
0	0xbd76378e	-0.060111575
1	0x3d2efcba	0.042721488
2	0xbdc7ae43	-0.09750035
3	0x3d5e8105	0.05432226
4	0xbde36443	-0.11103108
5	0xbe0d85bd	-0.13820548
6	0xbd8a90ea	-0.067659214
7	0x3d2d1625	0.042257447
8	0xbe256571	-0.16151978
9	0x3e152057	0.14563118
10	0x3e07843f	0.13234042
11	0x3dc166f8	0.09443468
12	0x3d5c10eb	0.05372707
13	0xbc2ee74a	-0.010675261
14	0x3d4911a2	0.04908908
15	0xbc8046ec	-0.015658818
16	0x3e0c5270	0.13703322
17	0xbe21c93f	-0.15799426
18	0x3d84d1c8	0.06485325
19	0xbca7be92	-0.020476613
20	0xbde47624	-0.11155346
21	0x3c935142	0.017983083
22	0x3c9be4d6	0.019030016
23	0xbe18c8f1	-0.14920403
24	0xbc9d207e	-0.019180533
25	0xbe1afb93	-0.1513503
26	0x3de29247	0.110630564
27	0x3e0332d4	0.12812358
28	0xbe2a3d2f	-0.16624902
29	0x3da1bcf4	0.07897368
30	0xbc6bdeae	-0.014396353
31	0xbd83c4e2	-0.06434037
32	0xbe159de1	-0.14611007
33	0x3d931082	0.07180883
34	0x3e143c70	0.1447618
35	0x3e0a912a	0.13531938
36	0x3c8d15d1	0.017222317
37	0x3dabfdf6	0.083980486
38	0xbe292ef0	-0.16521811
39	0xbdf4847f	-0.11939334
40	0xbda0c8cb	-0.07850798
41	0x3d857dd2	0.06518139
42	0x3d8059fa	0.06267162
43	0x3c8c1451	0.017099531
44	0xbe1139ba	-0.14182177
45	0x3dc3f479	0.09568114
46	0xbe2151b7	-0.15753828
47	0x3d99b20d	0.075046636
48	0x3dff21cd	0.12457619
49	0xbe3fe1cc	-0.18738478
50	0x3d32c3ca	0.04364375
51	0xbe1f1944	-0.15536982
52	0xbde4dbca	-0.11174734
53	0x3ce0b015	0.027427712
54	0xbe09a639	-0.13442315
55	0xbd894b53	-0.0670382
56	0xbc84da3a	-0.01621734
57	0xbcc82a1c	-0.024434142
58	0xbd55bfb0	-0.05218476
59	0x3de0c2c7	0.10974651
60	0xbc8bc57b	-0.01706194
61	0xbc85c6f7	-0.016330225
62	0xbdcd3e44	-0.10021642
63	0x3d954976	0.07289402
64	0x3e043d71	0.12914063
65	0x3d7a3652	0.06108696
66	0x3e11e685	0.14248092
67	0x3d238efd	0.039931286
68	0xbdeedeb6	-0.116635725
69	0xbdb43cda	-0.08800669
70	0xbd96bae4	-0.07359865
71	0x3e2f2d4b	0.17107122
72	0x3d02fe1a	0.03198061
73	0x3db6aa10	0.089191556
74	0x3d7d8d18	0.061902136
75	0xbe19511f	-0.14972351
76	0x3df6d598	0.120524585
77	0xbd4789b9	-0.048715327
78	0x3e19cdca	0.15019909
79	0xbdb87343	-0.090063594
80	0x3e03a6d8	0.12856615
81	0xbe20a54f	-0.1568806
82	0x3d395681	0.045248512
83	0xbe007be5	-0.12547262
84	0x3e265378	0.16242778
85	0xbd407a78	-0.046991795
86	0x3ce66af7	0.028127177
87	0x3c20d3b4	0.009816099
88	0x3d030342	0.03198553
89	0xbd55ca0c	-0.05219464
90	0x3d516904	0.05112554
91	0x3e0def08	0.13860714
92	0x3dd403f3	0.10352316
93	0x3dbbd664	0.09171751
94	0x3dd38333	0.10327759
95	0xbdc47515	-0.09592644
96	0x3e2f1137	0.1709641
97	0xb991b1d4	-0.00027789047
98	0x3dec829f	0.115483515
99	0x3d9b2d4c	0.07576999
100	0xbdf83cd4	-0.12120977
101	0xbe0763ff	-0.13221739
102	0x3e353a83	0.17698102
103	0xbe0906af	-0.13381456
104	0xbda02505	-0.07819561
105	0xbd019d20	-0.031643987
106	0x3d8cfdc8	0.068843424
107	0x3de64223	0.11243083
108	0xbd72c1f9	-0.059267018
109	0xbdef7dff	-0.11693954
110	0xbde739a0	-0.11290288
111	0x3cfb7eaa	0.030700047
112	0xbe21f536	-0.15816197
113	0xbde9cb75	-0.114157595
114	0xbcde4181	-0.027130844
115	0x3e16f0db	0.14740317
116	0xbe2dabbb	-0.16960041
117	0x3e418bf5	0.18901046
118	0xbd1eff3f	-0.03881764
119	0xbe1f5867	-0.15561067
120	0xbcd6304e	-0.02614608
121	0xbd89315a	-0.06698866
122	0x3c39e766	0.011346674
123	0xbd4983ba	-0.04919789
124	0xbe03149a	-0.12800828
125	0xbdd4739c	-0.10373613
126	0x3d7f4c6f	0.062328752
127	0xbd9bf102	-0.07614328

lstm.weight_ih_l0_reverse f4 [128, 7]
0	0xbe14bc22	-0.14524892
1	0xbe2f0adf	-0.1709399
2	0xbd0c8d0c	-0.0343142
3	0xbb72f7ee	-0.0037074047
4	0xbd25096d	-0.040292192
5	0x3dfff61e	0.12498115
6	0xbe185513	-0.14876203
7	0x3ba2ab2c	0.004964253
8	0x3c7942ce	0.015213681
9	0xbe172c16	-0.14762911
10	0xbe2df7f9	-0.16989125
11	0xbe45a3b5	-0.1930073
12	0xbda5fd96	-0.08105008
13	0xbe402a9f	-0.18766259
14	0x3d8c5da8	0.06853801
15	0xbe0f8fd4	-0.1401971
16	0x3bf5b72b	0.007498642
17	0xbe28777b	-0.16451828
18	0xbe1f3470	-0.15547347
19	0xbd71a1f1	-0.05899233
20	0x3c96658c	0.018358968
21	0xbe07a6d6	-0.13247237
22	0x3d87b5fd	0.066265084
23	0xbc0afa37	-0.008482507
24	0xbdb1f100	-0.08688545
25	0x3ca3c09e	0.019989308
26	0xbdca408c	-0.098755926
27	0x3d253f6b	0.040343683
28	0x3cc0e8c0	0.023548484
29	0xbdd8e46d	-0.10590444
30	0x3df2c210	0.11853421
31	0x3db533b3	0.088477515
32	0xbb0ec47e	-0.00217846
33	0xbd8f9a99	-0.07011909
34	0xbdb1220b	-0.08649071
35	0xbd8eb3b3	-0.06967869
36	0xbd96a48c	-0.073556036
37	0xbd54fcbb	-0.051998835
38	0x3c63c0a9	0.013900914
39	0x3e03401d	0.12817426
40	0xbdb8186e	-0.089890346
41	0x3dfe199f	0.124072306
42	0x3df42e78	0.11922926
43	0xbe08268d	-0.13295956
44	0xbc90e453	-0.017686998
45	0xbe15adbe	-0.14617059
46	0xbd20a888	-0.039223224
47	0x3df021b9	0.11725182
48	0xbdaeb813	-0.08531203
49	0xbe0679fe	-0.13132474
50	0x3e22744b	0.15864675
51	0xbe15344b	-0.1457073
52	0xbc79290f	-0.015207543
53	0x3da396da	0.07987757
54	0xbdd14f0c	-0.10220155
55	0x3cdf98a3	0.027294463
56	0x3d5a21f6	0.053255044
57	0x3de47fe9	0.111572094
58	0x3dfe7d16	0.12426202
59	0xbdf83a33	-0.121204756
60	0xbcd95e05	-0.02653409
61	0xbd6102a7	-0.05493417
62	0x3da213b2	0.07913913
63	0xbd39f58c	-0.045400187
64	0xbde6adae	-0.112635955
65	0xba2d6a2d	-0.00066152477
66	0x3b741966	0.0037246584
67	0xbe1140a8	-0.1418482
68	0x3e2d95a8	0.1695162
69	0xbdeef7a6	-0.11668329
70	0xbdb303bc	-0.08740947
71	0x3bb5dd70	0.005550079
72	0xbe031260	-0.12799978
73	0x3d2e8927	0.042611267
74	0x3dcaa99c	0.09895632
75	0xbd8321d8	-0.064029396
76	0xbdb8c387	-0.09021669
77	0x3d952fba	0.07284494
78	0x3e2ebaf3	0.17063503
79	0x3d08854d	0.03333025
80	0xbd73b1f0	-0.059495866
81	0x3d15d7de	0.03658282
82	0x3c57e664	0.013177488
83	0xbdc0c0a0	-0.0941174
84	0xbd63fe39	-0.055662367
85	0x3d808704	0.06275752
86	0xbe257508	-0.16157925
87	0x3e4219ad	0.18955107
88	0xbe020577	-0.12697397
89	0x3dff212f	0.12457501
90	0xbe207db9	-0.1567296
91	0xbe2b8250	-0.16748929
92	0x3dbfb22b	0.09360155
93	0x3d990629	0.07471878
94	0xbdfc1101	-0.12307931
95	0x3de51c99	0.11187095
96	0x3cd6603b	0.026168933
97	0x3e1dc0a2	0.15405515
98	0x3dbe3484	0.0928736
99	0xbe139b79	-0.14414777
100	0x3da4f4d7	0.08054512
101	0x3da60bd7	0.08107727
102	0x3db67482	0.08908941
103	0x3db27d49	0.087153025
104	0xbce76b79	-0.02824949
105	0x3d19ac90	0.037518084
106	0x3c1f7fbc	0.009735044
107	0xbde4dd7e	-0.11175059
108	0xbd7b5bdc	-0.0613669
109	0xbd82bfa5	-0.063842095
110	0xbdcff81e	-0.101547465
111	0x3e303d7a	0.17210951
112	0x3df1de5c	0.1180999
113	0x3de5e706	0.11225705
114	0x3d783ec7	0.060606744
115	0x3d338171	0.043824617
116	0xbcf8f342	-0.030389432
117	0x3e52af55	0.20574696
118	0xbd3ff1da	-0.046861507
119	0xbd55dd1b	-0.052212816
120	0xbdb67fe8	-0.08911115
121	0x3e035691	0.12825991
122	0xbdf422dc	-0.119207114
123	0x3df3df44	0.11907819
124	0x3e1a2ddf	0.15056561
125	0xbe255917	-0.16147266
126	0x3dd4d633	0.10392418
127	0xbe077c39	-0.13230981
128	0x3d049fef	0.032379087
129	0xbd74539e	-0.059650056
130	0x3e00c006	0.12573251
131	0xbd2103f5	-0.039310414
132	0x3c7328d3	0.014841276
133	0xbdf04a05	-0.11732868
134	0xbc4d3251	-0.012524203
135	0xbe18acd1	-0.14909674
136	0xbdb305df	-0.08741354
137	0xbe058490	-0.1303885
138	0x3d6bf9e2	0.057611354
139	0x3db76098	0.08953971
140	0xbe0f01d2	-0.13965538
141	0xbd06614c	-0.032807633
142	0xbdc525d9	-0.096263595
143	0x3cb9ceb6	0.022681575
144	0x3e3a1b1a	0.18174401
145	0x3dbf144b	0.093300425
146	0xbc803618	-0.015650794
147	0x3db145df	0.08655905
148	0xbe179e7b	-0.14806549
149	0xbde02ef9	-0.10946459
150	0xbd6c9544	-0.05775954
151	0x3d647575	0.05577608
152	0x3c428b86	0.011874085
153	0xbdb3e66c	-0.08784184
154	0xbd13a5f8	-0.036046952
155	0xbdeb532b	-0.114904724
156	0x3d55c2ee	0.052187853
157	0xbd8aa44a	-0.06769617
158	0xbe38d739	-0.18050851
159	0x3dc819bd	0.09770534
160	0xbc07e862	-0.0082951505
161	0x3d80e196	0.06293027
162	0x3d3ff17a	0.04686115
163	0x3e167575	0.14693244
164	0xbd9dd514	-0.07706657
165	0xbd79232f	-0.06082457
166	0xbddf98b0	-0.10917795
167	0x3d69a8a4	0.057045594
168	0xbd900b8b	-0.07033452
169	0x3dc4b4a1	0.09604765
170	0xbe048e01	-0.12944795
171	0xbd1ae15e	-0.037812583
172	0x3c907618	0.017634436
173	0x3d1b543e	0.037922136
174	0xbe20bf38	-0.15697944
175	0x3e365de9	0.17809261
176	0xbd044890	-0.032295763
177	0x3d126752	0.035743065
178	0x3e12159c	0.14266056
179	0xbe25ca94	-0.16190559
180	0xbda1ffcb	-0.07910117
181	0x3dac1f94	0.084044605
182	0xbdbd82aa	-0.09253438
183	0xbd80b6de	-0.06284879
184	0x3d6c4d69	0.05769101
185	0xbd8fd600	-0.07023239
186	0x3def2541	0.116770275
187	0xbe2551a8	-0.1614443
188	0x3dba5bdf	0.09099554
189	0xbd96a60d	-0.073558904
190	0x3c985ae2	0.018598024
191	0xbe2e583e	-0.17025849
192	0xbe24c0a5	-0.16089113
193	0xbd841500	-0.06449318
194	0xbcbda86c	-0.023151599
195	0x3d5534bc	0.052052245
196	0xbe358e3a	-0.17730036
197	0xbd9e6f31	-0.07736052
198	0x3d529282	0.051409252
199	0xbde320e5	-0.110902585
200	0xbd95cc0d	-0.0731431
201	0x3d3bd58a	0.045857944
202	0x3e230add	0.15922113
203	0x3d86b7dc	0.06578037
204	0x3ce5a901	0.028034689
205	0x3e0dd2e3	0.13849978
206	0xbdedf3dd	-0.11618779
207	0xbd9734ba	-0.07383104
208	0x3df3781f	0.11888146
209	0x3da95660	0.08268428
210	0x3dc7d8f1	0.09758175
211	0xbe1bbb9c	-0.15208286
212	0x3d9f0df7	0.077663355
213	0x3e0fe3ad	0.14051695
214	0x3ce5a311	0.028031858
215	0xbe46a8d7	-0.19400345
216	0xbe0c5145	-0.13702877
217	0x3d0f3fae	0.03497284
218	0x3e3f1c64	0.18663174
219	0xbe220bab	-0.15824763
220	0x3c0a57a6	0.008443749
221	0x3d6a1772	0.057151265
222	0xbd74708a	-0.059677638
223	0x3d01fac6	0.031733297
224	0xbdc3436f	-0.09534346
225	0xbdada370	-0.08478439
226	0xbdc82162	-0.09771992
227	0xbc2f3fb9	-0.010696345
228	0xbdbbeccb	-0.09176024
229	0x3dee2a88	0.11629206
230	0xbdaa8824	-0.08326748
231	0xbd574af3	-0.05256171
232	0x3ce17cba	0.027525295
233	0x3dbb2657	0.09138172
234	0x3cb1323f	0.021630405
235	0xbe013936	-0.1261948
236	0x3d82ce30	0.063869834
237	0x3d0bab97	0.034099188
238	0x3dba1874	0.09086695
239	0x3dd14b9b	0.10219499
240	0x3da1abd0	0.07894099
241	0xbe26c881	-0.16287424
242	0xbceaae9d	-0.028647715
243	0x3dd578ae	0.104234084
244	0xbd58c293	-0.052919935
245	0xbe37cc9b	-0.17949145
246	0x3e0b96a0	0.13631678
247	0x3ca9c798	0.020725057
248	0x3e5937c3	0.21212678
249	0x3e193127	0.14960156
250	0xbd26bc04	-0.04070665
251	0xbe5134f9	-0.20430364
252	0xbdaefeef	-0.085447185
253	0x3e2478f3	0.16061763
254	0xbd15b469	-0.036549006
255	0xbdfc9605	-0.123333015

lstm.weight_hh_l0_reverse f4 [128, 32]
0	0x3d4f9cae	0.05068653
1	0xbe278573	-0.163595
2	0xbe12b25f	-0.14325856
3	0xbd5f57df	-0.05452716
4	0xbc0a78b4	-0.008451629
5	0xbbbf4e38	-0.005838182
6	0xbe15e5c1	-0.14638425
7	0xbe0848ea	-0.13309065
8	0x3d8fa05d	0.07013009
9	0x3dbfa407	0.093574576
10	0x3dc25428	0.09488708
11	0x3d8aba00	0.06773758
12	0x3df2572d	0.11833034
13	0xbba5c468	-0.005058814
14	0x3d9bac2c	0.076011986
15	0xbdb534ee	-0.08847986
16	0x3e16dc4c	0.14732474
17	0xbc025f67	-0.007957316
18	0x3e069d30	0.131459
19	0xbc95e9cb	-0.018299958
20	0x3e1def01	0.15423204
21	0x3d990721	0.07472063
22	0x3e0dd263	0.13849787
23	0x3b51922c	0.0031977994
24	0xbd4c6f29	-0.049910698
25	0x3c9b4ae7	0.018956615
26	0x3b8c5b38	0.004283335
27	0x3e2b64d1	0.16737677
28	0x3db13f19	0.08654613
29	0x3d61df85	0.055144805
30	0xbd9f924a	-0.07791574
31	0x3dd3ff8e	0.103514776
32	0xbbf49f66	-0.007465291
33	0x3e054d33	0.1301773
34	0xbd58a4bc	-0.052891478
35	0x3dfa935b	0.12235137
36	0xbdf487ab	-0.11939939
37	0x3cef59cf	0.029217629
38	0xbe35f8d2	-0.17770699
39	0xbd8b19e3	-0.06792047
40	0x3ded3667	0.11582642
41	0xbdc2da41	-0.09514285
42	0x3dd14f72	0.10220231
43	0x3d8f3ebf	0.0699439
44	0xbda761d9	-0.0817296
45	0xbd28c27e	-0.041201107
46	0xbdbeb51c	-0.093118876
47	0x3d9c99c6	0.076465175
48	0xbd170628	-0.036871105
49	0xbda73017	-0.08163469
50	0xbe1e1af5	-0.15439971
51	0x3cb46c11	0.022024186
52	0x3daeb41b	0.08530446
53	0xbc361af2	-0.011114823
54	0xbdf996de	-0.12186979
55	0x3e180908	0.14847195
56	0xbe040a7a	-0.12894621
57	0xbe29b5f1	-0.16573311
58	0xbda73e35	-0.08166162
59	0xbdf8c8c5	-0.12147669
60	0x3cef61c2	0.02922142
61	0x3e3fd635	0.18734057
62	0xbd6ebd3a	-0.05828593
63	0xbdf35d6a	-0.11883052
64	0xbde22162	-0.110415235
65	0x3d9b8b2f	0.075949065
66	0x3e219e9e	0.15783164
67	0xbd89c396	-0.06726758
68	0x3e2631d9	0.16229953
69	0xbe11a6c6	-0.14223775
70	0x3d0bea1d	0.034158815
71	0xbc218e35	-0.009860565
72	0xbd125a96	-0.03573092
73	0xbe0af239	-0.13568963
74	0x3dba0956	0.09083812
75	0x3d0a0220	0.033693433
76	0xbe3f9fb9	-0.18713273
77	0x3d0343f1	0.032047216
78	0x3deb7793	0.11497416
79	0x3bdbda1f	0.0067093517
80	0x3dbda8da	0.092607215
81	0x3c068049	0.0082092965
82	0x3d7a69ed	0.061136175
83	0x3d90cf9e	0.0707085
84	0xbe1452f9	-0.14484777
85	0x3dea058a	0.11426838
86	0xbd25a100	-0.040436745
87	0xbd1ff48a	-0.03905157
88	0x3ce571d4	0.028008379
89	0x3dde6f5f	0.10861086
90	0x3d4e6ca0	0.05039656
91	0x3db2f12b	0.087374054
92	0xbd879ca0	-0.06621671
93	0x3dbff338	0.09372562
94	0x3e27a1ff	0.1637039
95	0xbdd0e175	-0.101992525
96	0xbd6bcd15	-0.05756863
97	0x3e186702	0.14883044
98	0x3e189ad1	0.14902808
99	0x3e139056	0.14410529
100	0xbe183a6c	-0.14866036
101	0x3e376326	0.17908916
102	0x3e29d836	0.16586384
103	0xbe356c51	-0.177171
104	0xbdac2d1e	-0.08407043
105	0x3952a2f5	0.00020087867
106	0x3e4e7467	0.20161591
107	0xbb5634fd	-0.0032685392
108	0x3e380fb5	0.17974742
109	0x3e33eb95	0.17570336
110	0xbd23b5e0	-0.03996837
111	0xbe07b29d	-0.1325173
112	0x3d3852c5	0.04500081
113	0xbdbc5435	-0.09195749
114	0xbe43bf01	-0.19115831
115	0x3ddbc02f	0.107300155
116	0xbe1f2920	-0.15543032
117	0x3e10626e	0.14100048
118	0x3b683df1	0.003543731
119	0x3e4a58a3	0.19760375
120	0xbd7cbdac	-0.061704323
121	0x3e412e81	0.18865396
122	0xbd595692	-0.053061076
123	0x3b87a6e6	0.004139769
124	0x3c7e7ddc	0.015532937
125	0x3da618cc	0.081101984
126	0x3db1638f	0.086615674
127	0xbdc6915f	-0.09695696
128	0xbdfbab4c	-0.12288532
129	0xbd5eaa15	-0.05436142
130	0x3debb974	0.11509982
131	0x3d3d59d0	0.04622823
132	0xbccc7f60	-0.02496308
133	0xbd92f068	-0.0717476
134	0xbdeb2d19	-0.11483211
135	0x3d659420	0.056049466
136	0xbe2b27ae	-0.16714355
137	0xbde239b9	-0.11046166
138	0xbddffe71	-0.10937203
139	0xbc839ede	-0.016066965
140	0xbe23abc6	-0.15983495
141	0xbd7ec708	-0.06220153
142	0x3dcf7c56	0.10131137
143	0xbdc44775	-0.09583942
144	0xbe271773	-0.16317539
145	0xbdeb4f6b	-0.11489757
146	0xbd532d17	-0.051556673
147	0xbb9982ed	-0.004684797
148	0xbe1ada08	-0.15122235
149	0xbe1d77e8	-0.15377772
150	0x3e031a1a	0.12802926
151	0x3ad37ac0	0.0016134605
152	0x3d7ed37c	0.062213406
153	0xbdb6d128	-0.08926612
154	0xbd33097b	-0.043710213
155	0xbe0519b7	-0.1299809
156	0x3d87982d	0.06620822
157	0x3dc058b3	0.09391918
158	0x3da116e1	0.07865692
159	0xbdbd5eba	-0.09246583
160	0xbd7ea228	-0.062166363
161	0xbddd1e0e	-0.10796748
162	0x3e12b21d	0.14325757
163	0xbd868d43	-0.06569912
164	0x3d1e3cc4	0.03863217
165	0xbc7fc4e9	-0.015610912
166	0xbca58624	-0.020205565
167	0xbdd986a8	-0.10621387
168	0xbda6e797	-0.08149641
169	0x3e219ab3	0.1578167
170	0xbdff2409	-0.12458045
171	0x3d0f7de2	0.03503216
172	0x3d7c4535	0.06158944
173	0xbd94344a	-0.07236536
174	0x3e1dc648	0.1540767
175	0xbe10b273	-0.14130573
176	0x3c8e1896	0.017345708
177	0x3decfcfa	0.11571689
178	0xbe079f7f	-0.13244437
179	0x3cb1e5d5	0.021716038
180	0x3d8f1f92	0.069884434
181	0x3e18c276	0.14917931
182	0x3bd92372	0.00662654
183	0xbe1dcaca	-0.15409389
184	0x3ccc0923	0.0249067
185	0xbe0a6564	-0.1351524
186	0x3dd6d9b0	0.10490739
187	0xbb6eca9e	-0.0036436687
188	0xbe2ad73a	-0.16683665
189	0xbd1accab	-0.037792843
190	0xbe248c12	-0.16069058
191	0xbe127ccb	-0.14305417
192	0x3d43b8fd	0.04778384
193	0xbd9e20b3	-0.07721081
194	0xbcfa5380	-0.030557394
195	0x3e082fbe	0.13299462
196	0xbdecffcb	-0.11572226
197	0x3df046a4	0.11732224
198	0xbdd78d1c	-0.10524961
199	0x3e2e2dd5	0.17009671
200	0xbe44375b	-0.19161741
201	0x3bbade2e	0.0057027554
202	0xbd0ff86c	-0.035149023
203	0x3d9455b1	0.07242907
204	0xbd864ea9	-0.06557972
205	0xbd10e1c0	-0.035371542
206	0xbe231e70	-0.1592958
207	0xbe315170	-0.17316222
208	0x3da6762b	0.081280075
209	0x3d9fc23d	0.0780072
210	0xbe0504e5	-0.12990148
211	0xbe3c8678	-0.18410671
212	0x3de1d226	0.11026411
213	0x3e0ab3dc	0.13545173
214	0x3ca26770	0.019824713
215	0x3d677caa	0.056515373
216	0x3d3235a6	0.043508194
217	0x3e29c95e	0.16580722
218	0x3dec76c5	0.11546091
219	0xbd3c7b4c	-0.046016023
220	0x3e045d07	0.12926112
221	0x3d187e91	0.037230078
222	0x3cbbcd19	0.022924947
223	0xbdd8b369	-0.10581095
224	0xbe132920	-0.14371157
225	0x3dadb4af	0.08481728
226	0xbda6d1bf	-0.08145475
227	0x3d2d21fd	0.042268742
228	0x3be4ea7e	0.0069859615
229	0xbdc48c24	-0.09597042
230	0xbe3ad2d3	-0.18244486
231	0xbe04cab6	-0.12967953
232	0xbda03fd1	-0.07824672
233	0xbdaad99b	-0.08342286
234	0x3dbfd169	0.09366114
235	0x3d2967c3	0.04135872
236	0x3e276e13	0.16350584
237	0xbddbc521	-0.10730959
238	0xbdc11ebd	-0.09429691
239	0x3df49390	0.11942208
240	0x3d5b511c	0.05354415
241	0xbd872460	-0.06598735
242	0xbd8ff630	-0.070293784
243	0xbe21698c	-0.15762919
244	0x3d757843	0.059929144
245	0xbe2c9cf2	-0.16856745
246	0x3c1fff29	0.009765425
247	0xbe2fdde7	-0.17174493
248	0xbda65658	-0.081219375
249	0xbe1fbd6c	-0.15599602
250	0xbe0a2f6c	-0.13494653
251	0x3dc35970	0.09538543
252	0x3c8e782b	0.017391285
253	0xbcfcfef8	-0.030883297
254	0xbcde4e5f	-0.02713698
255	0xbca8f505	-0.020624647

lstm.bias_ih_l0_reverse f4 [128]
0	0x3d3b81b0	0.045777977
1	0xbe0758bd	-0.13217445
2	0x3de085af	0.10962998
3	0xbd125ceb	-0.035733145
4	0xbb1a8681	-0.0023578706
5	0xbdeea445	-0.11652426
6	0xbc9aa23c	-0.018876188
7	0x3cfcef85	0.03087593
8	0xbde6b8d6	-0.112657234
9	0x3e33fc50	0.17576718
10	0xbdb97a0d	-0.090564825
11	0x3d13a1bf	0.036042925
12	0x3e2030c7	0.15643607
13	0x3dfebc58	0.124382675
14	0x3d581cda	0.05276189
15	0xbd9aa5b6	-0.07551138
16	0xbdd50fd8	-0.104034126
17	0xbdffca0f	-0.124897115
18	0xbe1c6e07	-0.15276347
19	0x3dd68877	0.10475247
20	0xbc3b10da	-0.011417592
21	0xbda390b6	-0.07986586
22	0x3d7fb95c	0.06243263
23	0xbbf01f63	-0.0073279603
24	0x3deb4cec	0.11489281
25	0xbdd75a32	-0.1051525
26	0x3dae12d6	0.084996864
27	0xbe21bb8b	-0.15794198
28	0x3dd3eb5f	0.10347628
29	0xbd11c476	-0.03558775
30	0xbd7890ab	-0.06068484
31	0x3db32840	0.087479115
32	0xbd4484bc	-0.047978148
33	0x3bf6c1b3	0.007530415
34	0x3d863361	0.065527685
35	0x3e35cd96	0.17754206
36	0xbdf8a850	-0.12141478
37	0xbe0db1bc	-0.13837332
38	0x3cbf2488	0.02333285
39	0x3ccec943	0.025242453
40	0x3e0a4315	0.13502152
41	0x3df294f6	0.11844818
42	0xbdaccb01	-0.084371574
43	0x3e23a0c2	0.15979293
44	0x3d942384	0.072333366
45	0xbd275c62	-0.040859587
46	0xbdd312cc	-0.103063196
47	0xbe1b3b06	-0.15159234
48	0xbc9ded68	-0.019278243
49	0x3e2da140	0.16956043
50	0x3dc54c18	0.09633654
51	0x3d9182f7	0.07105058
52	0x3d59530e	0.053057723
53	0x3e1ffaa6	0.15622959
54	0x3dba9c36	0.09111826
55	0x3df34449	0.11878259
56	0xbe0c8400	-0.13722229
57	0xbe006615	-0.12538941
58	0xbdc3055e	-0.09522508
59	0x3cd0acc1	0.025473
60	0x3d245cdc	0.04012762
61	0x3e377766	0.1791664
62	0xbd94042b	-0.072273575
63	0x3d2c4710	0.042059958
64	0x3d22023a	0.039552905
65	0xbce20043	-0.027588015
66	0x3d1d2eee	0.038374834
67	0x3d3184aa	0.04333941
68	0xbe321b69	-0.17393269
69	0xbd8bcb3b	-0.068258725
70	0x3d74cc6b	0.05976526
71	0x3e349aff	0.17637251
72	0x3e35b05f	0.17743061
73	0xbd8b1e21	-0.06792856
74	0xbcfa499d	-0.03055268
75	0xbde876b9	-0.113507695
76	0x3d69bd66	0.05706539
77	0x3dc19b25	0.094534196
78	0x3d0f1b6a	0.034938253
79	0xbe1c538c	-0.15266246
80	0x3dd763aa	0.10517056
81	0xbdb6d868	-0.08927995
82	0xbdb87ff6	-0.090087816
83	0x3cdf9925	0.027294705
84	0x3c3a4aaa	0.01137034
85	0x3dbf3fd2	0.09338345
86	0x3d49518f	0.049150046
87	0x3dfd0091	0.12353624
88	0x3de807d3	0.11329617
89	0x3e005504	0.12532431
90	0xbe1c423f	-0.15259646
91	0xbdd04caf	-0.10170876
92	0xbe1e1894	-0.15439063
93	0x3da2e8ca	0.07954557
94	0x3da7b27d	0.08188341
95	0xbcff1480	-0.031137705
96	0x3db3b92b	0.08775552
97	0x3e22f22d	0.15912695
98	0xbd78383f	-0.060600515
99	0xbd7e96aa	-0.062155403
100	0xbdc124ef	-0.09430873
101	0x3dcd245c	0.100167006
102	0xbd45e90e	-0.04831796
103	0xbd3eb14a	-0.046555795
104	0x3e1121b9	0.1417302
105	0x3cf62069	0.030044751
106	0x3e0b3457	0.13594185
107	0x3e2ce91b	0.16885798
108	0xbd8916e6	-0.06693821
109	0x3dae714f	0.08517706
110	0x3db593da	0.08866091
111	0x3de49e29	0.11162979
112	0xbe068166	-0.13135299
113	0x3df402c5	0.11914591
114	0x3d237bac	0.039912865
115	0xbdaba1c1	-0.083804615
116	0x3c9433ef	0.01809117
117	0xbce0fc14	-0.02746395
118	0xbe279b3b	-0.1636781
119	0xbe028ec1	-0.12749769
120	0xbe1f4dde	-0.15557048
121	0xbe10f879	-0.14157285
122	0x3b61ee08	0.0034474153
123	0x3dddbf6f	0.10827529
124	0x3c1a9038	0.0094337985
125	0xbc7912a3	-0.015202197
126	0xbde7482e	-0.11293064
127	0xbdf98a10	-0.121845365

lstm.bias_hh_l0_reverse f4 [128]
0	0xbd8f92ea	-0.070104435
1	0xbd8bdb38	-0.06828922
2	0x3e10494e	0.14090464
3	0xbdf7ba01	-0.12096024
4	0xbe3421b9	-0.17590989
5	0x3d2a7ed1	0.041624848
6	0xbd497889	-0.049187217
7	0xbe0b54e2	-0.13606599
8	0x3d135490	0.035969317
9	0xbd026379	-0.031833146
10	0xbdd8762f	-0.10569417
11	0x3dfcbce9	0.12340719
12	0xbd8fc59a	-0.070201114
13	0x3d757dec	0.05993454
14	0x3e21dd0f	0.15806983
15	0x3d290347	0.04126289
16	0xbcd2e069	-0.025741773
17	0xbdf6eba5	-0.120566644
18	0x3e0914c0	0.13386822
19	0xbdec75f9	-0.11545939
20	0x3cb09d32	0.021559332
21	0x3d8e4207	0.069461875
22	0xbd017d15	-0.03161343
23	0x3db4936b	0.0881718
24	0xbe25d3e2	-0.16194108
25	0x3e0a091e	0.1348004
26	0x3d557571	0.052113954
27	0xbabf8bf9	-0.0014613859
28	0xbdd85dfa	-0.105647996
29	0xbde9588c	-0.11393842
30	0x3c8d3648	0.017237797
31	0x3da300ae	0.07959114
32	0x3d8c3a0e	0.068470106
33	0x3dbc04a0	0.0918057
34	0xbbe60883	-0.0070200576
35	0xbd368f5b	-0.04457031
36	0x3defa591	0.11701501
37	0xbd133afd	-0.035944927
38	0xbd15b29f	-0.0365473
39	0xbe302e23	-0.172051
40	0x3e0de2b0	0.13856006
41	0x3de93266	0.11386566
42	0xbcc0f213	-0.02355293
43	0x3e018963	0.12650065
44	0x3dd9d2ea	0.10635932
45	0xbe0e0004	-0.13867193
46	0x3e0e2a27	0.13883267
47	0x3d3e3305	0.046435375
48	0x3c3dc7d3	0.011583286
49	0x3cad5188	0.021157041
50	0x3dc1c453	0.09461274
51	0x3df561da	0.11981554
52	0xbe1c23cb	-0.15248029
53	0xbd94d5b0	-0.0726732
54	0xbd8b4c27	-0.06801634
55	0x3d02f64b	0.031973165
56	0xbb5d2873	-0.0033746033
57	0x3d9aa7ea	0.07551558
58	0xbd3d0e9f	-0.046156522
59	0x3d09059d	0.03345262
60	0x3c38b295	0.011273046
61	0x3d9b9854	0.07597414
62	0xbdd4b80b	-0.10386666
63	0x3e111d13	0.14171247
64	0x3b87da57	0.004145901
65	0x3db60df7	0.08889382
66	0xbe1c3f16	-0.1525844
67	0x3e3ddeef	0.18542074
68	0xbc7d1593	-0.015447038
69	0xbc91e9d0	-0.017811686
70	0x3d1af4f2	0.037831254
71	0x39dcbb04	0.00042101007
72	0xbe26d295	-0.16291268
73	0x3d9485f5	0.07252113
74	0x3e04eb41	0.12980367
75	0x3d4d0c4f	0.050060567
76	0x3e19fe4d	0.15038414
77	0x3df4235c	0.11920807
78	0x3cd1bbb0	0.025602192
79	0xbe292b63	-0.16520457
80	0xbbfada83	-0.007655443
81	0xbdbcd609	-0.092205115
82	0x3dd09df0	0.10186374
83	0xbd981001	-0.074249275
84	0xbde046bd	-0.10950992
85	0x3dc47c13	0.09593978
86	0xbe00c5eb	-0.125755
87	0x3e2a2703	0.16616444
88	0x3dc93358	0.09824246
89	0x3e07b0fa	0.13251105
90	0xbce8d983	-0.02842403
91	0x3e2de120	0.1698041
92	0x3d818027	0.06323271
93	0xbd100a95	-0.03516634
94	0xbe3265f3	-0.17421703
95	0x3e07bae1	0.13254882
96	0xbdbb3f5c	-0.09142944
97	0x3d8183ca	0.06323965
98	0xbbd831a7	-0.006597716
99	0x3d3cf26c	0.04612963
100	0xbd75e80c	-0.06003575
101	0x3c774d36	0.015094092
102	0xbdbe95e9	-0.09305937
103	0xbe305cd9	-0.17222919
104	0x3dd3e132	0.10345687
105	0x3bf5b603	0.007498504
106	0xbddde90c	-0.10835466
107	0xbd83b3b7	-0.06430762
108	0x3e39006e	0.1806657
109	0x3d8c68e6	0.06855945
110	0x3bc14d95	0.005899141
111	0x3d27d268	0.040972143
112	0xbe0d36ee	-0.13790485
113	0x3e13ff26	0.144528
114	0xbdb0b1b9	-0.08627648
115	0xbe29ab46	-0.16569242
116	0xbd8e27fb	-0.069412194
117	0xbe00b07a	-0.1256732
118	0x3e1c7c0f	0.152817
119	0x3cf3db2c	0.029767595
120	0xbdf68ce7	-0.12038594
121	0xbcdfc52d	-0.0273157
122	0xbe4a88a8	-0.19778693
123	0x3d3be471	0.045872156
124	0x3e1af69a	0.15133134
125	0xbd86122e	-0.06546436
126	0x3e36d773	0.17855625
127	0x3e1a7e52	0.1508725

lstm.weight_ih_l1 f4 [128, 64]
0	0x3dc9f3a1	0.09860922
1	0xbe1e3bcf	-0.15452503
2	0x3c9dea81	0.01927686
3	0x3d628c36	0.055309497
4	0x3df18af1	0.11794079
5	0xbde8345f	-0.11338114
6	0x3e10b624	0.14131981
7	0x3e01959e	0.1265473
8	0x3e37b0db	0.17938559
9	0x3dc53d73	0.09630861
10	0xbd5b03fa	-0.05347059
11	0xbdc9d25a	-0.098545745
12	0x3dd0876d	0.101820804
13	0x3bc7a640	0.0060928166
14	0x3ce22d02	0.027609352
15	0xbdb7511e	-0.08951019
16	0xbc95a533	-0.01826725
17	0xbdb32b59	-0.08748502
18	0x3e494ffd	0.1965942
19	0x3cad6249	0.02116503
20	0xbd5e9338	-0.054339617
21	0xbd71026e	-0.058840208
22	0xbdb6ce10	-0.08926022
23	0xbdca6bc6	-0.098838374
24	0xbdd72a16	-0.10506074
25	0xbda27841	-0.07933093
26	0xbdf37807	-0.11888128
27	0x3d8f0d6a	0.069849804
28	0x3e2cdba0	0.16880655
29	0xbd61694c	-0.05503206
30	0x3d936f34	0.07198945
31	0x3e11690b	0.14200227
32	0xbe3f0cc7	-0.18657218
33	0xbe0306fe	-0.12795636
34	0x3e0621bf	0.1309881
35	0x3c482fac	0.012218397
36	0x3c50aad0	0.012736037
37	0x3e3d8644	0.1850825
38	0x3e0c06eb	0.13674514
39	0x3de446ad	0.11146293
40	0x3df6f8ce	0.120591745
41	0x3cfb8b68	0.030706123
42	0xbd8a5173	-0.067538165
43	0x3beba213	0.0071909516
44	0xbdb47dc5	-0.08813051
45	0x3d0b1a91	0.033960883
46	0xbe0d078b	-0.13772409
47	0x3e154510	0.14577127
48	0xbdd3a092	-0.10333361
49	0xbd9fa924	-0.07795933
50	0xbde28617	-0.11060732
51	0x3df87c0d	0.12133036
52	0xbc237cdd	-0.0099785
53	0x3de4bbf7	0.11168664
54	0x3dc5a398	0.09650344
55	0xbd643004	-0.055709854
56	0x3d93d3bd	0.0721812
57	0xbd910ba1	-0.07082296
58	0xbda681e4	-0.081302434
59	0xbdc7bed6	-0.09753196
60	0xbd5d2093	-0.053986143
61	0xbd63616b	-0.055512827
62	0xbe17deba	-0.14831057
63	0xbcfbb375	-0.03072522
64	0x3c6747ab	0.014116208
65	0xbd28fcda	-0.041256763
66	0x3d11cf8c	0.035598323
67	0x3d89534f	0.06705343
68	0xbc4f86f6	-0.012666455
69	0xbc1135de	-0.008862941
70	0xbd1e311e	-0.03862106
71	0x3ded2e5e	0.115811095
72	0x3cc89076	0.024482947
73	0x3dcf2782	0.101149574
74	0xbd90452f	-0.07044446
75	0x3d80bdd0	0.06286204
76	0x3dacba08	0.0843392
77	0x3dba702a	0.09103425
78	0x3da06420	0.07831597
79	0xbe15d6ab	-0.1463267
80	0xbcae2d51	-0.021261843
81	0xbd891951	-0.06694282
82	0x3d80e103	0.062929176
83	0xbc839370	-0.016061515
84	0xbda301c3	-0.079593204
85	0xbd5221f8	-0.051301926
86	0xbd96a8af	-0.073563926
87	0x3d9a426c	0.075322
88	0x3dec2c2e	0.11531864
89	0x3c697c95	0.014250894
90	0x3df04e7b	0.11733719
91	0x3e3b3280	0.18280983
92	0x3d1f944b	0.038959783
93	0x3dcc7f12	0.09985174
94	0x3df455e3	0.11930444
95	0x3df957a4	0.12174919
96	0xbe243bc6	-0.16038427
97	0xbbc6c477	-0.006065901
98	0xbe0e0b3c	-0.13871473
99	0x3c3df615	0.011594315
100	0xbdd0bfa1	-0.101928
101	0xbd8c7a00	-0.06859207
102	0xbda10087	-0.07861429
103	0xbd9189b0	-0.0710634
104	0xbb430262	-0.002975606
105	0xbd1a71ed	-0.037706304
106	0xbd9d0444	-0.07666829
107	0xbcb4f0bc	-0.022087447
108	0xbdff8e6e	-0.12478338
109	0xbd037d15	-0.03210171
110	0xbd659dc2	-0.056058653
111	0xbd02e73a	-0.031958796
112	0x3debac69	0.11507494
113	0x3b940754	0.004517475
114	0xbdf3e9e1	-0.11909843
115	0x3e157b10	0.14597726
116	0xbe0495be	-0.12947747
117	0xbe129308	-0.143139
118	0xbca5fbd9	-0.020261692
119	0x3dca40bf	0.098756306
120	0xbde0a01e	-0.1096804
121	0x3de9540b	0.11392983
122	0xbe02ef7b	-0.12786667
123	0x3d3bce94	0.045851305
124	0xbcf531f7	-0.029931052
125	0x3e473fcd	0.19457932
126	0x3da62b13	0.081136845
127	0x3d930692	0.071789876
128	0xbc6b0307	-0.0143439835
129	0xbd57f956	-0.05272802
130	0xbe0771ad	-0.13226958
131	0x3e224c44	0.15849406
132	0x3d1f52a8	0.038897187
133	0xbdf57b7c	-0.119864434
134	0xbe2aa010	-0.16662621
135	0x3cea1f3e	0.02857935
136	0xbd17cee9	-0.03706256
137	0x3d443d86	0.047910236
138	0x3d76c12b	0.060242813
139	0xbde04d5b	-0.109522544
140	0x3d6f0773	0.058356714
141	0x3e0f3502	0.13985065
142	0xbe1d5cc2	-0.15367416
143	0xbdc68b47	-0.09694534
144	0xbe024736	-0.12722477
145	0x3c88eb8f	0.016713886
146	0x3e22ddec	0.15904969
147	0xbe06a5eb	-0.1314923
148	0x3dceb0bc	0.10092303
149	0xbd9f4dda	-0.07778521
150	0x3d7faef8	0.062422723
151	0x3d88a1b4	0.066714674
152	0x3e04ae5a	0.12957135
153	0x3d92b056	0.0716254
154	0xbd4c60dc	-0.04989706
155	0xbc5e7a9a	-0.013579035
156	0xbe1d3d2a	-0.15355363
157	0x3d6bad20	0.05753815
158	0xbddd4f4e	-0.10806142
159	0xbcbfd6b8	-0.023417816
160	0x3dfd6605	0.12372974
161	0x3d7e94ad	0.062153507
162	0xbdfc9040	-0.12332201
163	0x3e1d7d71	0.15379883
164	0x3e20d09f	0.15704583
165	0xbe11c9db	-0.14237158
166	0x3c904686	0.017611753
167	0xbcb2e3c7	-0.021837128
168	0xbdfa22bc	-0.12213656
169	0x3dd2f7be	0.10301159
170	0xbd0b7f0f	-0.03405672
171	0x3d83f007	0.06442266
172	0xbe255035	-0.16143878
173	0xbe02db10	-0.12778878
174	0x3cf7c395	0.030244628
175	0xbce300b7	-0.027710302
176	0xbe1e9da8	-0.15489829
177	0x3d27e086	0.040985607
178	0x3dcc4e82	0.09975912
179	0x3de67d3a	0.11254354
180	0x3d59310a	0.053025283
181	0xbd225b47	-0.03963783
182	0x3e231cc4	0.15928942
183	0xbe1840a7	-0.14868413
184	0xbd88a30a	-0.06671722
185	0x3e440c5c	0.1914534
186	0x3e1eacc3	0.15495591
187	0x3e0d6ccd	0.13811035
188	0x3dd9ccb9	0.10634751
189	0xbd3f55bd	-0.046712626
190	0x3de655ab	0.112468086
191	0x3ddc113d	0.107454754
192	0xba37d9f5	-0.0007013374
193	0xbb40b088	-0.0029402096
194	0xbd3bc90e	-0.045846038
195	0x3e3676c1	0.17818739
196	0x3ae46713	0.0017425738
197	0xbdb76710	-0.089552045
198	0x3d7f1b43	0.06228186
199	0x3df9c412	0.121956006
200	0xbe0d5282	-0.13801005
201	0x3d039f08	0.032134086
202	0xbd3aaa78	-0.045572728
203	0xbdb50b09	-0.088399954
204	0x3a56049c	0.0008164139
205	0xbdd1e8c2	-0.10249473
206	0x3debae08	0.11507803
207	0xbe348bfa	-0.17631522
208	0x3e369228	0.17829192
209	0xbcbf065b	-0.02331846
210	0x3d9ea018	0.07745379
211	0x3dac1879	0.08403105
212	0xbdb93e71	-0.09045113
213	0xbde633e0	-0.11240363
214	0xbd015069	-0.031570826
215	0xbd3835e6	-0.044973277
216	0x3e0497b9	0.12948503
217	0x3dafd17a	0.08584876
218	0xbb7d4845	-0.0038647812
219	0x3e2d1b6f	0.16904996
220	0x3de33a7f	0.110951416
221	0xbc877c9d	-0.016538912
222	0x3d1433c8	0.036182195
223	0xbdeaff14	-0.114744335
224	0x3d64d4aa	0.055866875
225	0x3e06e906	0.13174829
226	0xbd895500	-0.067056656
227	0x3ba7a423	0.005116002
228	0x3dd427a4	0.10359123
229	0x3e06730f	0.13129829
230	0xbe445024	-0.19171196
231	0xbe0a79fd	-0.13523097
232	0xbc7ede79	-0.015555971
233	0x3e14e4b0	0.14540362
234	0xbe10a2cf	-0.14124607
235	0x3ce55aa6	0.027997326
236	0xbe09e405	-0.13465889
237	0xbbc72545	-0.006077441
238	0xbd58c470	-0.052921712
239	0xbddc89fa	-0.107685044
240	0xbdd1b979	-0.10240454
241	0xbe07605c	-0.13220352
242	0x3dc25568	0.09488946
243	0xbc8acd37	-0.016943557
244	0xbe0ce2ea	-0.13758436
245	0xbd15b158	-0.03654608
246	0xbde86f7b	-0.11349388
247	0xbe0e3f22	-0.13891271
248	0x3dba7c96	0.09105794
249	0xbd7fff94	-0.062499598
250	0xbe1c3411	-0.15254237
251	0xbe0072a0	-0.12543726
252	0xbcf7e0f8	-0.03025864
253	0xbd1d6497	-0.038426008
254	0xbe0683df	-0.13136242
255	0x3d7b2a99	0.06131992
