result_train/seqmodel_ep25.pth (torch, 390389 bytes, 44 tensors)

lstm.weight_ih_l0 f4 [128, 7]
000000 b9 c0 07 3e 5c 70 94 3d 1e c2 d4 3d f4 53 18 be
       0.13257112 0.07247993 0.103885874 -0.14875776
000010 38 fd 27 be 7d 10 f2 3d 24 df 14 be 1e 43 25 3e
       -0.16405189 0.11819551 -0.14538246 0.16138884
000020 ce 9a 98 bc 32 2b 2e bd 21 54 05 bd f8 77 ed 3d
       -0.018628504 -0.042521663 -0.032550935 0.11595148
000030 64 42 12 3e 2b ee 8c 3d 8c 21 25 3e f5 f9 92 bd
       0.14283139 0.068813644 0.16126078 -0.07176582
000040 ed 28 b7 3d 1b a9 a6 3d da 32 07 3d 56 b5 0f bd
       0.08943353 0.08137723 0.03300748 -0.035085045
000050 2d 31 46 3d ae 7d 98 3d 97 69 7f bd 57 61 6a bd
       0.04838674 0.074458465 -0.062356558 -0.057221737
000060 4d 68 8f bd 34 56 f2 ba 96 69 b6 bd d2 c6 34 bd
       -0.07002316 -0.0018488825 -0.08906858 -0.044134922
000070 d9 7e 1d bc b9 e0 da 3c 02 67 34 3e d7 96 1e 3e
       -0.009612762 0.026718484 0.1761742 0.15487228
000080 8f 4f be bd 57 e6 f2 bd f6 07 d6 3d 82 5b 2d 3e
       -0.09292518 -0.1186034 0.10450737 0.16929439
000090 cf 6c 10 be 75 46 ca 3c 14 55 4f bd 84 6a 29 bd
       -0.14104007 0.0246918 -0.050618246 -0.041361347
0000a0 2a 3d 91 3c 81 c8 03 3d c9 ad 99 bd 82 78 a3 bd
       0.01772936 0.032173637 -0.0750385 -0.079819694
0000b0 f9 0c f0 3d 37 e3 4a 3e dd 3a a7 3d c2 93 37 bd
       0.11721224 0.19813238 0.08165524 -0.044818647
0000c0 22 4c 27 be 3a 04 34 3e a0 87 e5 3d 80 40 70 3d
       -0.16337636 0.17579737 0.11207509 0.058655262
0000d0 14 e5 92 bd 20 8c 6f 3d ea e0 57 bd 1a 3c f7 bc
       -0.071725994 0.058483243 -0.05270473 -0.030180026
0000e0 69 fe 8e bd a2 1a 41 3d 3e c0 04 be e0 6e 09 3e
       -0.06982119 0.04714454 -0.1296396 0.13421202
0000f0 ce 81 12 3b 7a 44 80 bd dd 59 69 bd b7 39 fe 3c
       0.0022355202 -0.06263061 -0.056970466 0.03103338
000100 1a a6 52 3d ff 35 9e bc 42 f9 88 bd d4 e9 fe 3c
       0.051427938 -0.019312857 -0.06688167 0.031117357
000110 88 db 2a 3d 72 fe d8 bd 01 c8 1e 3e 8a 8c 0c be
       0.041713268 -0.105954066 0.15505983 -0.13725486
000120 71 f5 60 bc bd 96 74 3c f9 27 b3 3b b9 4b 48 3d
       -0.013730393 0.014928517 0.0054674116 0.04890034
000130 7e 2b c5 3d 5e 04 23 be 65 0f 25 3d d7 01 d1 3d
       0.09627436 -0.15919635 0.040297884 0.10205429
000140 6c 49 51 3e 83 10 0f bd 1c 24 85 3b 4c 42 30 be
       0.20438164 -0.034927856 0.0040631425 -0.1721279
000150 ab 20 ce 3c 43 ee 31 be 10 fa 35 be 32 bd 7d 3d
       0.025162062 -0.17376046 -0.17771173 0.06194801
000160 fd 76 29 bd 9c d9 b1 3d 49 b9 52 bc 26 fd be bd
       -0.04137324 0.08684084 -0.012861558 -0.09325628
000170 5e 0c 06 3e 53 5f 9d 3d 84 9d fb 3d d4 8f 2d be
       0.13090655 0.07684197 0.12285903 -0.16949397
000180 94 4f d3 bd 0f fd 0c bd d5 5e b0 3c a5 f3 3b be
       -0.10317913 -0.034421023 0.021529594 -0.18354662
000190 c0 2b 30 3e 3c 6f a7 bb 05 bf ad bd 6e 27 2b be
       0.1720419 -0.0051096957 -0.084837 -0.1671426
0001a0 71 48 50 bd ba f5 00 3d 1d a8 bf bd b9 ce 8e bd
       -0.050850336 0.031484343 -0.09358237 -0.06973023
0001b0 6e 9a e3 bc 49 b1 09 3e ea 55 1b 3e 72 80 31 be
       -0.027783599 0.13446535 0.15169492 -0.17334154
0001c0 e4 61 d9 3c ea 49 70 3d 4f 31 13 bd 8b 8b 29 3d
       0.026535936 0.05866424 -0.035935696 0.041392844
0001d0 95 a8 0b be 10 a6 d0 bb f1 35 36 3d 3c 06 20 3e
       -0.13638528 -0.0063674524 0.044485036 0.15627378
0001e0 a9 f7 85 3c b3 5e 45 bd 2c 9c 8e bd 20 af 03 3e
       0.016353445 -0.048186015 -0.06963381 0.12859774
0001f0 0f 8a 37 3e 3c eb 1d be 86 88 aa bd 3d 5e e6 3d
       0.17923759 -0.15421766 -0.08326821 0.11248443
000200 65 73 e7 3d ec 56 d7 bb be 9d 2c 3e bd 3e 65 bd
       0.11301307 -0.006571641 0.16857049 -0.055968035
000210 26 2a b5 3d 63 b9 26 3d 1b 0c f2 3d 10 39 47 be
       0.0884593 0.040704142 0.11818715 -0.19455361
000220 8f f2 0a 3e 77 52 97 3c cc 58 8e bd 46 c7 76 bd
       0.13569091 0.01847194 -0.069505304 -0.060248636
000230 1a 9f cc 3d ab 62 61 bd 45 74 2b 3e 6d df 97 3d
       0.09991284 -0.055025738 0.16743572 0.07415662
000240 89 05 e2 3d 70 48 6a 3d e6 99 a0 3d d7 86 da 3c
       0.11036212 0.057197988 0.07841854 0.026675625
000250 52 60 1b 3d 0a 2a 8c bd ba 3b 64 3d 5c a4 c6 3c
       0.037933655 -0.06843956 0.055721022 0.024248295
000260 1f 40 89 bd 10 b1 0f bc 57 54 1d be d5 f1 0b be
       -0.06701683 -0.008770242 -0.15364204 -0.1366647
000270 44 06 bd bd e0 97 e2 3c 49 dc ce bd e5 cb 21 bd
       -0.09229711 0.02766031 -0.1010061 -0.03950109
000280 25 03 22 3e ab 5d ae 3c 58 86 d8 bd 27 3f b1 3c
       0.15821512 0.021284899 -0.10572499 0.021636559
000290 a3 bd 2c 3e b8 ec 0b be 0f c1 21 be 06 78 61 3d
       0.16869216 -0.1366452 -0.15796302 0.055046104
0002a0 c3 e4 7f bd 7e 53 2d bd 70 30 e0 3c 29 a5 7f bd
       -0.062474024 -0.042315952 0.027366847 -0.06241337
0002b0 98 66 0e be f5 cf e7 bc 69 b6 10 be 72 25 0b be
       -0.13906324 -0.028297404 -0.14132084 -0.13588503
0002c0 b2 27 0c be e6 5d b7 3d 02 da e8 bd e7 80 36 3d
       -0.13687018 0.089534566 -0.11369707 0.044556525
0002d0 b1 15 e2 bd 1c 56 4a bc c2 bf 17 3e c1 ac ad 3d
       -0.110392936 -0.012349632 0.14819244 0.08480216
0002e0 1a ba e0 3d 2e 69 a9 3d 66 45 4c bd ac f9 97 ba
       0.10972996 0.082720146 -0.04987087 -0.0011594794
0002f0 f0 6f a3 bc 59 bf 8e 3c c6 92 06 3e 1b be 3b 3e
       -0.019950837 0.017425226 0.13141927 0.18334238
000300 06 54 91 bd 7d b0 fd 3d 74 af 18 3e 1a 42 b9 3d
       -0.07096104 0.12387178 0.1491068 0.09045811
000310 ec 3e 19 3c 81 a9 3a be 42 79 a3 bd b7 19 14 be
       0.009353381 -0.18228723 -0.079821125 -0.14462934
000320 3f 54 35 3e e8 98 6a bd f6 47 a4 bd f5 f5 99 bd
       0.17707919 -0.05727473 -0.08021538 -0.07517616
000330 7c 79 9f bd 78 c2 b1 bb 8c 0d 00 be 22 ee 68 3d
       -0.07786843 -0.005424794 -0.12505168 0.056867726
000340 f3 cf 21 be c0 00 af 3d 2a 70 64 bd 38 ff 0c bd
       -0.15801983 0.08545065 -0.05577103 -0.034423083
000350 5d 87 9e bd fe 3c d6 3d 58 c0 1d 3e f4 ec d0 bd
       -0.07740662 0.10460852 0.15405405 -0.10201445
000360 07 2a 85 bd f8 d0 02 3e 42 f6 c4 3d 21 0d 9c bd
       -0.06502157 0.12775028 0.096172825 -0.07619692
000370 2e af be bd 23 15 39 be c7 b8 04 3e e3 50 d4 bd
       -0.093107566 -0.1807447 0.12961112 -0.103669904
000380 9e 4d 36 3d 33 94 73 bd 61 42 3a 3d 01 30 6c 3d
       0.044507615 -0.059467506 0.04547346 0.057662968
000390 57 3e 3d bb a2 35 fc 3c 58 7c 86 bd fe d1 cd bd
       -0.0028876269 0.030787293 -0.065666854 -0.100498185
0003a0 da 07 16 be b1 2c c9 bb 61 d5 07 be 83 de 86 bc
       -0.14651433 -0.006139361 -0.13264991 -0.016463524
0003b0 5f a4 27 be c8 f2 60 bb 38 2f f4 bc 26 e7 31 be
       -0.16371296 -0.0034324396 -0.029807672 -0.17373332
0003c0 a3 25 2e bd 38 93 0f 3e 9e fe cb bd 13 06 d0 bd
       -0.042516362 0.14021003 -0.09960674 -0.101574086
0003d0 f9 33 e4 bd da 65 13 be 0b 12 63 bd 8a be 5b 3d
       -0.111427255 -0.14394322 -0.05543713 0.05364851
0003e0 ce 4a 29 be f7 3f 2e be ab c4 b0 bc 66 40 25 3e
       -0.16532442 -0.17016588 -0.021578154 0.16137847
0003f0 91 40 16 be c7 0b d8 3d 12 39 2f 3e eb 42 3b be
       -0.14673068 0.10549121 0.17111614 -0.18287246

lstm.weight_hh_l0 f4 [128, 32]
000000 f8 29 a7 bd 92 1c 2c 3e d3 94 d7 bd 1b b4 77 bd
       -0.08162302 0.16807774 -0.10526433 -0.060474496
000010 9c 9f 46 be 40 83 2f be 99 9e 0e be d2 59 de 3d
       -0.19396824 -0.17139912 -0.13927688 0.108569756
000020 bc 30 cc 3d 4a e5 2d be 32 15 0e be 91 e7 b8 3d
       0.09970233 -0.16981998 -0.13875273 0.09028543
000030 24 b7 54 3d 45 cb 04 be 79 a0 0e 3c dc 6c 3e be
       0.05193247 -0.12968166 0.008705252 -0.18596214
000040 66 33 26 be 60 09 db 3d 98 48 1f 3e e9 78 95 3d
       -0.16230544 0.106951475 0.15555036 0.072984524
000050 91 e3 b9 3d fa da c7 bd db b2 a6 bd bf 1d 21 3e
       0.09076608 -0.09758563 -0.08139583 0.15734003
000060 6a 4f fa bd dc a2 1b be 74 29 13 3e 11 fa 48 3d
       -0.12222178 -0.15198845 0.14371282 0.049066607
000070 18 da 23 3d 86 5a dd bc 80 69 cd 3d a5 5f 2c 3e
       0.040002912 -0.027020704 0.10029888 0.1683336
000080 79 8b 36 3e 34 9d 11 bd fe 68 0f bd ff ca e7 bd
       0.17826642 -0.03555031 -0.035012238 -0.11318015
000090 09 80 93 3d 3d b6 7f bd ee f7 a9 3c ff 93 bd 3d
       0.07202155 -0.062429655 0.020748105 0.09256744
0000a0 50 bd 06 be b2 e2 e7 3d 85 be 1c be 80 ab 00 be
       -0.13158154 0.113225356 -0.15307052 -0.12565422
0000b0 75 4a de bc df 08 5f bd df af 4f 3d bb aa c6 bd
       -0.027135113 -0.05445182 0.050704833 -0.09700533
0000c0 52 a8 15 bd a2 d8 0b be 2d 89 29 bd 10 51 cd 3d
       -0.036537476 -0.13656858 -0.041390587 0.10025227
0000d0 27 38 fa 3d 04 7b c8 3d cd 89 e8 bd b4 2b af 3d
       0.122177415 0.09789088 -0.113544084 0.085532576
0000e0 76 c1 22 3e af 62 41 bd a3 6d ac bd 7c f3 19 bd
       0.15894112 -0.047213253 -0.08419349 -0.03758572
0000f0 a6 be 0a be 37 e7 0d be a4 0f 0a be 4e 02 30 bc
       -0.13549289 -0.13857733 -0.13482529 -0.010742737
000100 75 f6 47 3d 96 ac 19 bb 80 d9 87 bd ca 28 bf bc
       0.048819024 -0.0023448817 -0.06633282 -0.02333488
000110 e1 9f 2f 3d bd 5f 1f 3d 30 62 19 be ff 74 f6 3d
       0.04287708 0.038909663 -0.14978862 0.12034034
000120 22 10 3d be 7e 00 52 bc 06 46 07 3b 0f c4 c2 bd
       -0.18463185 -0.0128175 0.0020641102 -0.095100515
000130 8e 20 1e 3e b3 66 9d b9 99 96 79 bb d6 7a 04 be
       0.15442106 -0.0003002189 -0.0038084148 -0.12937483
000140 8a 3b 3d 3e c8 f6 5f bd 02 73 f2 3d 2c 77 16 be
       0.18479744 -0.05467871 0.11838342 -0.14693898
000150 dd 06 bd 3d ed 12 ea 3d 05 ce 15 be a5 20 21 bc
       0.09229825 0.11429391 -0.14629371 -0.009834443
000160 b0 54 90 3d ee b1 e9 3d 47 95 01 be b2 57 56 bc
       0.07047403 0.114108905 -0.12654601 -0.013082432
000170 bd 7a e8 3d 2d c1 f4 3c 7c 7b 3e 3e a4 34 90 3c
       0.113515355 0.02987727 0.18601793 0.017603226
000180 7d 0c 28 bd 56 2e 0f 3e 33 ca 16 3e 6a 88 26 3e
       -0.041027535 0.1398252 0.1472557 0.16262975
000190 97 48 50 bd 36 35 91 bd c8 2f 8e bd 3d f2 a8 3d
       -0.050850477 -0.07090227 -0.06942707 0.08249328
0001a0 b9 84 2b 3e 96 d8 f7 3d a6 18 4d bd 80 f8 05 bd
       0.16749848 0.12101857 -0.050072335 -0.03270769
0001b0 ce 30 3c 3d 10 1c d4 3d 2a c8 2e bd 73 13 e1 3d
       0.04594498 0.10356915 -0.04267136 0.10990038
0001c0 14 f9 10 be 43 53 c6 bd a6 ec 04 bc ed c1 d7 bd
       -0.14157516 -0.0968385 -0.008113062 -0.10535035
0001d0 78 3a 88 bd eb cc f4 bd 7d ac 70 3d 40 0c dd bd
       -0.06651777 -0.119531475 0.058758248 -0.10793352
0001e0 3a a3 17 3e 60 ed 03 3d 81 44 70 3c 18 0d 2b be
       0.1480836 0.0322088 0.01466477 -0.16704214
0001f0 83 84 c0 3d d2 af 38 be c0 a7 06 be c5 25 68 3c
       0.094002746 -0.1803582 -0.13149929 0.014169161
000200 33 18 dc bc 62 5d 02 3e b4 28 97 bd d9 a3 56 3d
       -0.026867008 0.12730935 -0.073808104 0.05240235
000210 8b db d5 bd 09 dd 32 be 43 b2 38 3d 4d 2d 32 be
       -0.10442265 -0.1746713 0.04509188 -0.17400093
000220 4a 94 14 3c 34 5d ee bd 4e b9 14 3e 21 35 10 3e
       0.009068558 -0.11638871 0.14523813 0.14082767
000230 46 2c fa bc 30 c2 ba 3c 9d d1 df 3c a5 1a c9 bd
       -0.03053869 0.022797674 0.027321631 -0.09819535
000240 8b 3a 08 bd 12 c4 1e be 07 57 c2 bd 22 8c 09 be
       -0.033258956 -0.15504482 -0.094892554 -0.13432363
000250 fc a1 c8 bd 20 3b 31 3d f5 28 dd bd 4c dc 90 bd
       -0.09796521 0.043269277 -0.107988276 -0.07073268
000260 d3 b9 10 be 09 78 f1 bd 64 27 46 3d 2a a6 cd 3d
       -0.14133386 -0.11790473 0.04837741 0.10041459
000270 72 f7 b2 bd fa e3 be 3d db bc d8 3d 63 7e b4 bd
       -0.08738603 0.09320827 0.10582896 -0.08813169
000280 1e 06 17 bc 77 2e 8a 3d 2a 88 83 bd 77 5a 03 be
       -0.009217767 0.06747144 -0.064224556 -0.12827478
000290 1d 4e 3d 3e de 4d 87 bd c6 e3 e4 3c a2 60 14 3e
       0.18486829 -0.06606649 0.027940642 0.14489987
0002a0 ef 6b c0 3d 1d ea f4 3d ea 73 91 3d e0 3e d4 3d
       0.09395587 0.11958716 0.07102187 0.10363555
0002b0 0c a9 08 3e 35 b7 2a 3e 49 75 16 bd 8d 7e a9 3d
       0.13345736 0.1667145 -0.036732946 0.08276091
0002c0 eb 36 fe bc fc e5 14 3d 87 5a 38 be 7b bb d9 3d
       -0.031032046 0.036352143 -0.18003283 0.10631462
0002d0 93 56 26 3e 94 9f f8 3d 58 77 1f be a1 a0 52 3d
       0.16243963 0.12139812 -0.1557287 0.05142272
0002e0 55 62 09 3c ee 86 16 be b7 c8 fb bd 58 94 29 be
       0.008385261 -0.14699909 -0.12294143 -0.16560495
0002f0 43 54 5e 3c 5b 2a 25 3e a0 17 4a bd 99 73 e7 3d
       0.013569894 0.16129439 -0.049338937 0.113013454
000300 ff fe 50 3d 7e 22 3c 3e c3 f5 04 be d5 0a f0 bb
       0.051024433 0.18372533 -0.12984376 -0.00732551
000310 24 d1 0c 3e 43 bc 09 3e fc 31 15 be ad 54 64 bd
       0.13751656 0.13450722 -0.14569849 -0.055744816
000320 15 2b 52 bd e8 d7 f6 bb 3b 13 2e 3e 38 75 8a 3d
       -0.051310617 -0.0075330622 0.16999523 0.06760639
000330 60 e2 4b bd b1 67 3b 3d d4 0a 18 be 8a f1 cb bd
       -0.049776435 0.045753185 -0.1484788 -0.09958179
000340 9c 4f 91 bd 90 d6 88 bc aa 33 9c 3d 7d 5c fe 3d
       -0.070952624 -0.016703874 0.07627042 0.124199845
000350 13 79 9a 3d a1 b0 30 be cc f6 98 bd 04 47 07 be
       0.07542624 -0.17254879 -0.07468948 -0.13210684
000360 2a 5e 1c bd c4 5b 25 be bc 8a a0 3d 0a 0c b1 bd
       -0.03817574 -0.16148287 0.078389615 -0.086448744
000370 0e 0f e7 3d 9b a8 6f bd c5 b2 1b 3e 03 aa 78 3c
       0.11282168 -0.058510404 0.15204914 0.015177253
000380 70 9b 22 be e9 c2 31 3e 6b 56 80 bd 28 d7 27 be
       -0.15879607 0.17359509 -0.06266483 -0.1639067
000390 4f 1f 8b bd ce ae 90 bc 4e a3 71 bd f3 81 51 3c
       -0.06793081 -0.017661478 -0.05899363 0.01278733
0003a0 0d 72 ac bd 63 1c dc bd b0 d2 9b bd 36 1b db 3d
       -0.08420191 -0.10747602 -0.07608545 0.106985494
0003b0 cf c8 6f 3d e4 85 14 be c7 67 2d 3e b8 6f b1 3d
       0.058541115 -0.145042 0.16934119 0.08663887
0003c0 7a 39 cc bd a8 4e ce 3c af 90 54 3d 7e e8 5b 3d
       -0.099719 0.02518399 0.051895794 0.05368852
0003d0 37 6a fc 3d ee 68 20 3d 4d 24 c6 3c 96 31 dc bd
       0.123249464 0.03916257 0.024187231 -0.10751645
0003e0 c0 0f 85 3d 4b e3 93 bd a5 8c 0f 3d 72 0e 2b be
       0.06497145 -0.07221087 0.03504624 -0.16704729
0003f0 d5 94 dd 3d 30 ad 48 3d 10 c3 db bd b3 c3 8d bd
       0.10819403 0.04899329 -0.107305646 -0.06922092

lstm.bias_ih_l0 f4 [128]
000000 89 fc 18 3e ce be 05 3d 82 31 91 3d 6b 33 31 3e
       0.14940085 0.03265267 0.07089521 0.1730477
000010 07 b1 d1 3b 1e 66 a6 bd 03 95 7f 3d 53 c2 8a bd
       0.006399277 -0.08124946 0.062397968 -0.06775346
000020 9e 98 22 be 1a f9 e8 bd 7f f5 0f 3e cb a6 f5 3d
       -0.15878531 -0.11375637 0.14058493 0.11994704
000030 97 b8 2c be 86 e0 09 be ad a2 b3 3d 48 52 83 3a
       -0.1686729 -0.13464555 0.08771262 0.0010019029
000040 aa ca 08 be 24 93 45 be 0b cd 9d bd ac c7 48 3e
       -0.1335856 -0.19294411 -0.077051245 0.19607419
000050 c0 0b a5 bd 4b 8c 03 be ac 20 cb 3d 54 63 5e bd
       -0.08058882 -0.12846486 0.09918341 -0.054293945
000060 34 e1 4a bd 1e 9c f4 bd 75 e3 c2 3d 4f c9 9c 3b
       -0.049531177 -0.119438395 0.0951604 0.00478474
000070 cd c5 ad ba be 7c 30 3e 09 ca 07 be ec 53 33 3e
       -0.0013257802 0.17235085 -0.13260664 0.17512482
000080 d1 e9 46 3d 1f 2a 37 3e d5 a2 da bd 09 e7 15 3e
       0.04856283 0.17887162 -0.10675589 0.14638914
000090 11 7c b0 bd de 06 28 be 96 4d 83 3d a4 f7 d9 bb
       -0.08617414 -0.1640887 0.06411283 -0.0066518355
0000a0 68 3a bd bb 10 40 1c be 10 84 93 3d 39 d3 c1 3d
       -0.005774785 -0.15258813 0.07202923 0.09464116
0000b0 00 e0 28 be da 16 1c be ad 53 bd bd fa a8 26 3c
       -0.16491699 -0.15243092 -0.092444755 0.010172123
0000c0 0f d7 00 be 09 84 03 3d 29 09 21 3e 45 75 2b 3e
       -0.12582038 0.03210834 0.1572615 0.16743954
0000d0 cf 89 4f 3d 9c 84 bd 3b 0c af 1a 3e 89 c5 39 bd
       0.050668534 0.0057836305 0.15105838 -0.0453544
0000e0 86 4d e2 bd 86 69 e4 bd 0f 53 17 3e bb 33 36 3d
       -0.11049943 -0.111529395 0.14777778 0.044482928
0000f0 1f 4a 6e bd 2f 8e 02 3d 57 d2 61 3d f3 cf 1c 3e
       -0.058176156 0.031873878 0.055132236 0.15313701
000100 1e 63 0a be 76 df ad 3c 07 42 d1 bd 26 9e 6f 3b
       -0.13514373 0.021224719 -0.10217672 0.003656277
000110 96 d5 08 bd 9c 42 fb bd 8f 82 10 be 37 6e d1 3c
       -0.033406816 -0.12268564 -0.14112304 0.02556525
000120 e5 56 b1 3d 2d f5 0c 3e 42 9f 09 3e cd 80 4d 3d
       0.08659152 0.13765402 0.13439658 0.050171662
000130 a8 94 f2 bc 83 1b ba bc bb 84 1a be a0 ca 15 be
       -0.0296119 -0.022718197 -0.15089695 -0.14628077
000140 08 ee 81 3d 59 a1 39 3c 70 58 cf bd a2 b9 7d bc
       0.06344229 0.011329972 -0.1012429 -0.015486153
000150 ac 26 00 be 77 7b c5 3d 07 27 af bd a0 a7 d9 3d
       -0.12514752 0.0964269 -0.08552366 0.10627675
000160 99 58 dc 3d 75 cd dc 3d 9e 7d 96 3d da dc 93 bd
       0.10759086 0.10781375 0.07348178 -0.072198585
000170 f4 f3 9b bd ba 2b 90 bd e2 3f 2b 3e e4 ea 58 bd
       -0.0761489 -0.0703959 0.16723588 -0.052958384
000180 7f 75 e5 3c 48 d8 7a bd d6 db 98 bd bd 8b b7 3d
       0.028010128 -0.061241418 -0.074638054 0.089622
000190 68 7f 8a 3d 56 9d e5 3d 60 a6 2c 3e d7 b4 8c bd
       0.06762582 0.1121165 0.16860342 -0.0687043
0001a0 e0 80 f1 3d a4 fd 0d 3e 8f 45 e9 3c f2 c3 ba 3c
       0.11792159 0.13866287 0.028475551 0.022798512
0001b0 7e 3b d2 3d c0 c7 88 3c f7 45 f8 bd 31 9a 0d 3e
       0.102652535 0.01669681 -0.1212272 0.1382835
0001c0 80 43 a5 bd 32 c9 9a bd 9f db 87 3d bf 13 4b bc
       -0.08069515 -0.07557906 0.06633686 -0.012394845
0001d0 80 d2 c3 3d f6 99 ad bd 01 e2 07 3e ee 78 e8 bc
       0.09561634 -0.08476631 0.13269807 -0.028377976
0001e0 95 67 65 bd 43 6f af 3c 0e 00 37 3b ac 8f 17 be
       -0.056006987 0.021415358 0.0027923617 -0.148009
0001f0 14 4f dd 3d 6e f0 b0 bd 52 a8 9c bd 9e 43 ee bd
       0.108060986 -0.08639608 -0.07649292 -0.11633991

lstm.bias_hh_l0 f4 [128]
000000 8e 73 76 bd 42 54 2d 3d 9c 31 c7 bd 51 a9 61 3d
       -0.060168795 0.042316683 -0.09726259 0.055093113
000010 d9 a4 e3 bd c6 c9 0d be d4 04 8a bd 46 3e 2f 3d
       -0.111154266 -0.13846502 -0.06739202 0.042783998
000020 ee 09 25 be 30 9b 15 3e 45 00 08 3e 43 27 c2 3d
       -0.16117069 0.1460998 0.13281353 0.09480145
000030 a2 7f 59 3d 58 c9 1f bc 57 c6 4c 3d e7 9d 82 bc
       0.053100236 -0.009752594 0.04999384 -0.015944434
000040 3d 84 0c 3e 4e 6d 21 be 6d 0d 85 3d dd db 9c bc
       0.1372232 -0.15764353 0.064967014 -0.019147808
000050 40 25 e4 bd 42 f1 9f 3c 24 be a5 3c 91 3d 18 be
       -0.111399174 0.01952422 0.020232268 -0.14867236
000060 13 16 98 bc 8c df 1a be 82 5c e4 3d d6 a5 03 3e
       -0.018565213 -0.15124339 0.11150457 0.1285623
000070 36 ba 29 be 44 6c a3 3d d1 b9 71 bc 2f 9f 81 bd
       -0.1657494 0.079796344 -0.014753775 -0.0632919
000080 41 fb 16 be 06 fa 91 3d 3c 7b 13 3e 21 d4 0a 3e
       -0.14744283 0.07127766 0.14402479 0.13557483
000090 c3 34 82 3c 80 b4 aa 3d 1d d8 29 be d2 a5 f3 bd
       0.0158943 0.08335209 -0.16586347 -0.11896862
0000a0 60 b8 a0 bd 0b 1b 85 3d 9b 89 7f 3d 67 22 87 3c
       -0.07847667 0.06499299 0.06238709 0.016495897
0000b0 5a 0c 12 be e3 6d c3 3d d6 8d 22 be 89 d8 96 3d
       -0.14262524 0.095424436 -0.15874419 0.073655196
0000c0 7a 49 fe 3d 7a 78 3f be 63 67 33 3d 1a c5 1d be
       0.12416358 -0.18698302 0.04379977 -0.1540722
0000d0 ca 90 e6 bd 59 7a ec 3c ff 24 09 be 07 64 8a bd
       -0.11258085 0.028866934 -0.13393019 -0.0675736
0000e0 60 21 85 bc 3d d8 cd bc 2e e0 53 bd 18 57 e0 3d
       -0.016251266 -0.025127525 -0.051727466 0.10954112
0000f0 36 b4 8f bc ce a1 86 bc ec ee cd bd 94 33 93 3d
       -0.017541986 -0.016434576 -0.10055336 0.07187572
000100 d8 05 04 3e 39 1f 7a 3d 7f f2 11 3e 0b 8c 1f 3d
       0.12892854 0.061064932 0.14252661 0.038951915
000110 7c af ee bd 08 28 b3 bd f1 c5 95 bd ef 53 2f 3e
       -0.11654565 -0.0874787 -0.07313145 0.17121862
000120 1c 6a 02 3d 02 4f b5 3d 62 68 7d 3d 6e d8 18 be
       0.031839475 0.0885296 0.061867125 -0.14926311
000130 3c 6a f5 3d a3 f3 44 bd 72 0f 1a 3e 45 77 b8 bd
       0.11983153 -0.048083913 0.15044954 -0.09007124
000140 98 ee 02 3e af 01 21 be 24 20 38 3d 93 cc 00 be
       0.12786329 -0.15723298 0.044952527 -0.12578039
000150 4e 06 26 3e 0e ed 42 bd 27 96 e5 3c 91 31 23 3c
       0.16213343 -0.047589354 0.0280257 0.009960548
000160 c3 2e 03 3d 7d d1 54 bd 7f 8d 51 3d 68 38 0e 3e
       0.032027017 -0.051957596 0.05116033 0.13888705
000170 52 a7 d3 3d a3 f8 bd 3d ad 1b d4 3d 06 8d c3 bd
       0.10334648 0.09275939 0.10356841 -0.095483825
000180 ac 1e 2f 3e 58 7d fc b9 6b f0 ec 3d a4 c5 9c 3d
       0.17101544 -0.00048158574 0.115692936 0.076548845
000190 89 ae f8 bd 45 b5 07 be 6a ba 35 3e 0e 7c 08 be
       -0.12142665 -0.13252743 0.17746893 -0.13328573
0001a0 88 88 9f bd 29 27 ff bc 9a 1a 8e 3d 09 4e e7 3d
       -0.07789713 -0.031146603 0.069386676 0.11294181
0001b0 38 ac 74 bd 0c ae ed bd 36 a4 e5 bd b4 c9 f5 3c
       -0.059734553 -0.116054624 -0.112129614 0.030003406
0001c0 df be 21 be 28 2c e9 bd 55 3a dd bc 53 3f 18 3e
       -0.15795468 -0.11385375 -0.027005354 0.14867906
0001d0 2e b9 2d be 54 2f 43 3e 22 d4 19 bd c0 b2 1e be
       -0.16965172 0.19061023 -0.03755582 -0.15497875
0001e0 9c 88 d2 bc 67 0d 89 bd 4a c2 49 3c e0 63 47 bd
       -0.025699906 -0.066920094 0.0123143885 -0.048679233
0001f0 25 9a 02 be 98 dd d2 bd 88 45 7e 3d ee fe 99 bd
       -0.12754114 -0.10296172 0.06207803 -0.07519327

lstm.weight_ih_l0_reverse f4 [128, 7]
000000 88 08 15 be d0 42 2f be 2e 64 09 bd 41 c7 36 bb
       -0.14554036 -0.1711533 -0.033542804 -0.002788976
000010 7d 51 26 bd 01 02 ff 3d 52 f7 17 be dc 01 86 3b
       -0.040605057 0.12451554 -0.14840439 0.004089577
000020 8b e3 83 3c 23 d3 17 be 82 05 2d be c6 d4 46 be
       0.016099712 -0.14826636 -0.16896632 -0.19417104
000030 5f fc a3 bd cd 08 40 be 14 23 8b 3d 52 82 0f be
       -0.0800712 -0.18753357 0.067938 -0.14014557
000040 c4 cd f7 3b 7c c2 27 be c4 df 1e be 4d 77 6e bd
       0.007562371 -0.16382784 -0.15515047 -0.058219243
000050 8f 9a 93 3c 06 24 08 be 34 5e 87 3d 8a 3c 07 bc
       0.018018035 -0.13294992 0.06609765 -0.00825418
000060 1f 6d af bd 23 25 a5 3c d6 38 cb bd 2d 16 20 3d
       -0.08565735 0.02015931 -0.0992295 0.03908365
000070 80 5c bc 3c d1 1a d8 bd fa fb f1 3d 6f 0b b6 3d
       0.022993326 -0.1055199 0.11815639 0.088888995
000080 92 6b 02 bb f5 e3 90 bd 60 48 b3 bd 1c c2 8c bd
       -0.0019900543 -0.07074729 -0.08754039 -0.06872961
000090 f0 5a 94 bd 6e 9e 51 bd d0 e0 56 3c f0 ab 02 3e
       -0.072439075 -0.05117648 0.013115123 0.12760901
0000a0 bb 62 b7 bd 2c 96 ff 3d ca 55 f4 3d dc f5 07 be
       -0.08954378 0.12479815 0.119304255 -0.13277382
0000b0 e4 a5 94 bc 07 b0 16 be 06 ce 1e bd 88 50 f2 3d
       -0.018145509 -0.14715587 -0.038770698 0.11831766
0000c0 a3 0d b0 bd 96 49 07 be 82 04 23 3e a6 9b 15 be
       -0.08596351 -0.13211665 0.15919688 -0.14610156
0000d0 56 e6 76 bc b4 2d a4 3d 8a 3b d2 bd ba f9 db 3c
       -0.015069565 0.0801653 -0.102652624 0.026852477
0000e0 5e ff 58 3d f7 c5 e3 3d e4 f3 fe 3d 04 d0 f9 bd
       0.052977912 0.11121743 0.12448862 -0.12197879
0000f0 60 3a d1 bc f3 9d 5d bd ba 8b a0 3d 86 06 38 bd
       -0.02554053 -0.05410571 0.07839151 -0.044928096
000100 16 23 e7 bd 7f ac 8e ba c3 c1 94 3b b4 cb 11 be
       -0.11285989 -0.0010885148 0.0045396998 -0.14237863
000110 08 ca 2d 3e 7d 51 ee bd 30 12 b5 bd ab 27 c1 3b
       0.169716 -0.116366364 -0.088413596 0.0058946214
000120 7f 0e 02 be c4 16 30 3d d6 d5 ca 3d b6 3b 82 bd
       -0.12700842 0.04299046 0.09904067 -0.06359045
000130 51 6f bb bd cf ca 95 3d d7 c0 2f 3e ea a0 06 3d
       -0.09152091 0.07314073 0.17163406 0.032868303
000140 74 b3 71 bd d7 25 15 3d ff 71 4e 3c d1 52 c1 bd
       -0.05900903 0.03641304 0.012600421 -0.09439624
000150 8f 76 64 bd 0b 69 81 3d 5e 89 26 be 88 ae 42 3e
       -0.05577713 0.063188635 -0.16263339 0.19011891
000160 78 d8 01 be b0 4a fd 3d 71 ec 20 be 26 01 2c be
       -0.12680233 0.12367761 -0.15715195 -0.16797313
000170 3a 27 c0 3d 49 88 98 3d e7 f6 fa bd 8d a0 e5 3d
       0.09382482 0.07447869 -0.12254124 0.11212263
000180 35 49 d2 3c 82 06 1d 3e ea 1c be 3d e4 98 13 be
       0.025669673 0.15334514 0.09282859 -0.14413792
000190 2a 19 a4 3d a0 00 a7 3d a5 0c b6 3d 6b 9a b4 3d
       0.08012612 0.08154416 0.088891305 0.088185154
0001a0 33 73 e6 bc fe 45 18 3d 35 84 24 3c 88 aa e2 bd
       -0.028131103 0.037176125 0.010041286 -0.110676825
0001b0 86 8a 7e bd 0e 91 83 bd 94 01 ce bd 3c 35 31 3e
       -0.062143825 -0.06424151 -0.10058895 0.17305464
0001c0 b7 63 f1 3d 88 32 e5 3d 53 2d 76 3d db 07 31 3d
       0.11786597 0.11191279 0.06010182 0.043220382
0001d0 f7 0e f6 bc d3 86 53 3e ab 3c 43 bd f9 41 54 bd
       -0.030036433 0.206569 -0.04766528 -0.05182073
0001e0 86 ae b7 bd ac 54 03 3e 47 1a f3 bd 1d 2c f3 3d
       -0.089688346 0.12825269 -0.118702464 0.11873648
0001f0 c1 31 1b 3e 22 c8 25 be 42 a7 d3 3d 36 60 07 be
       0.15155698 -0.16189626 0.10334636 -0.13220295
000200 20 fc 05 3d 9c ca 72 bd fb 2c 01 3e 70 ff 1b bd
       0.03271115 -0.059275255 0.12614815 -0.0380854
000210 a1 0e 5f 3c aa 10 f2 bd 2e af 46 bc aa 4b 18 be
       0.013614328 -0.11819585 -0.012126727 -0.14872614
000220 de f0 b2 bd 53 8d 04 be 73 76 6f 3d c7 92 b7 3d
       -0.08737348 -0.12944536 0.05846257 0.089635424
000230 78 d1 0f be 0d ab 02 bd b6 9d c3 bd 48 03 be 3c
       -0.1404475 -0.031901408 -0.09551565 0.023194924
000240 bf 3f 39 3e a4 ec bc 3d 54 a9 79 bc 35 c2 af 3d
       0.18090723 0.09224823 -0.015238125 0.08581964
000250 80 04 17 be 6a 7c dc bd 16 30 66 bd af 73 65 3d
       -0.1474781 -0.107659176 -0.056198202 0.056018528
000260 44 94 52 3c 7d 3b b5 bd 05 e7 15 bd 76 27 e8 bd
       0.012852732 -0.08849237 -0.03659727 -0.113356516
000270 ae 53 54 3d 83 b6 88 bd 22 3b 3a be 7d db c9 3d
       0.051837616 -0.06675436 -0.1818662 0.09856317
000280 50 45 17 bc 1b 17 81 3d 26 e5 3d 3d 87 10 17 3e
       -0.009232834 0.06303235 0.04636111 0.14752398
000290 ec 88 9e bd a6 4a 78 bd f7 0d de bd 6d 8f 6a 3d
       -0.077409595 -0.060618065 -0.10842507 0.057265688
0002a0 73 0b 8f bd a1 ff c4 3d d2 2a 04 be f0 96 1a bd
       -0.06984606 0.0961907 -0.1290696 -0.0377416
0002b0 e6 84 8e 3c 49 10 1d 3d 62 24 21 be b1 25 36 3e
       0.017397355 0.03834561 -0.15736535 0.17787816
0002c0 a4 6d 04 bd 07 1b 12 3d 61 26 12 3e 88 dd 25 be
       -0.032331124 0.035670307 0.14272453 -0.16197789
0002d0 0e 9c a0 bd f8 e1 ac 3d dd d6 bc bd 63 5d 7c bd
       -0.07842265 0.084415376 -0.092206694 -0.061612498
0002e0 51 f7 6e 3d 7a 32 91 bd 61 02 ee 3d c9 53 25 be
       0.058341328 -0.07089706 0.116215475 -0.16145243
0002f0 40 e6 b7 3d b6 2d 97 bd 33 f7 93 3c 2e f5 2e be
       0.089794636 -0.073817655 0.01806221 -0.17085716
000300 43 94 25 be 30 96 82 bd c7 a4 b6 bc 30 61 51 3d
       -0.16169839 -0.06376302 -0.022295369 0.051118076
000310 99 85 36 be 33 dc 9c bd 4d 51 51 3d ed 2e e1 bd
       -0.17824401 -0.07659187 0.051102925 -0.109952785
000320 0e 00 96 bd 92 56 3a 3d 30 4b 22 3e 3f d9 84 3d
       -0.07324229 0.045492716 0.15848994 0.06486749
000330 29 92 e2 3c ce bf 0d 3e 79 c5 eb bd ee bb 97 bd
       0.027657585 0.13842699 -0.11512274 -0.074088916
000340 f0 2c f4 3d 38 c2 a8 3d 07 20 c6 3d 6c 14 1b be
       0.11922634 0.08240169 0.096740775 -0.15144509
000350 68 e0 9f 3d 10 6a 10 3e d2 89 e2 3c 17 73 47 be
       0.07806474 0.1410296 0.027653608 -0.19477497
000360 8a 5d 0d be 90 92 0c 3d 08 0c 40 3e ad 42 21 be
       -0.13805214 0.03431946 0.1875459 -0.15748091
000370 01 af 17 3c 0f 12 67 3d bb b1 71 bd ab 41 01 3d
       0.009258033 0.056413706 -0.059007388 0.031556766
000380 0c 40 c1 bd ac 3a ae bd 84 c8 c8 bd a6 63 3f bc
       -0.09436044 -0.085072845 -0.0980387 -0.011681473
000390 40 48 bb bd 52 98 ed 3d 40 a0 a7 bd be 08 53 bd
       -0.0914464 0.116013184 -0.08184862 -0.05152201
0003a0 0b 8a eb 3c 47 69 b7 3d 42 8e a5 3c 7b f9 00 be
       0.028752347 0.08955627 0.020209435 -0.12595169
0003b0 02 0f 82 3d 6b 82 10 3d 80 b3 b8 3d 2b f5 d1 3d
       0.06350519 0.035280626 0.09018612 0.1025184
0003c0 f0 8a a1 3d f9 c1 27 be f9 ba e5 bc b2 e8 d6 3d
       0.07887828 -0.16382588 -0.028043257 0.10493602
0003d0 15 08 5b bd c6 17 38 be 1e 73 0b 3e 40 c5 aa 3c
       -0.053474505 -0.17977819 0.13618132 0.02084601
0003e0 b8 69 5a 3e f3 83 19 3e af 3f 29 bd ed 72 52 be
       0.21329391 0.14991741 -0.0413205 -0.20551653
0003f0 aa da af bd db d5 24 3e 03 ad 17 bd e8 d7 fb bd
       -0.08586629 0.16097204 -0.03703023 -0.1229704

lstm.weight_hh_l0_reverse f4 [128, 32]
000000 80 d5 4e 3d a0 58 28 be cd 8b 13 be b9 26 5c bd
       0.05049658 -0.16440058 -0.14408799 -0.053747866
000010 18 f6 19 bc 8f af ea bb 24 c6 14 be db 25 07 be
       -0.009397052 -0.0071620415 -0.1452871 -0.13198034
000020 40 5b 90 3d 44 d9 c0 3d cc cb c3 3d f5 52 88 3d
       0.070486546 0.0941644 0.095603555 0.06656448
000030 e1 7c f4 3d 22 21 88 bb 9d 01 9a 3d 41 35 b7 bd
       0.11937881 -0.0041543404 0.07519839 -0.08945704
000040 8a ce 16 3e f7 0c 0e bc 27 9e 05 3e c9 5c 9d bc
       0.14727226 -0.008670083 0.13048612 -0.019209282
000050 29 50 1d 3e 84 3a 9b 3d 32 dc 0d 3e de 03 8c 3b
       0.1536261 0.0757952 0.13853529 0.004272922
000060 6d fb 48 bd 86 a5 a3 3c d1 e7 56 3b f7 3a 2b 3e
       -0.049067903 0.019976389 0.0032791982 0.16721712
000070 81 6c af 3d e4 52 65 3d 46 b1 a1 bd 32 a2 d4 3d
       0.08565617 0.055987254 -0.0789514 0.10382499
000080 99 6c e3 bb 39 51 03 3e ba 37 5e bd 75 7b fc 3d
       -0.006940436 0.12823953 -0.054252364 0.12328235
000090 8b cc f7 bd b4 ea e1 3c 84 11 36 be 9f a4 87 bd
       -0.1209956 0.027577735 -0.17780119 -0.06623196
0000a0 0a 53 ee 3d 43 9c bf bd 25 fc d3 3d 00 0a 8e 3d
       0.11636932 -0.093559764 0.10350827 0.06935501
0000b0 91 b8 a4 bd 96 eb 24 bd 41 e6 c1 bd ab e0 9b 3d
       -0.08043016 -0.040263735 -0.094677456 0.076112114
0000c0 27 75 16 bd cb 06 a9 bd 6f 2b 1d be 2d 06 a7 3c
       -0.03673282 -0.08253249 -0.153486 0.020388687
0000d0 ba 4d ae 3d 80 10 32 bc c7 63 f8 bd d3 5f 19 3e
       0.08510919 -0.010868192 -0.12128406 0.1497796
0000e0 ff dd 02 be 6f 65 28 be 3a d4 a7 bd e4 28 fb bd
       -0.12779997 -0.16444944 -0.08194776 -0.12263659
0000f0 f6 bb e4 3c a2 51 41 3e b4 e5 75 bd 59 ac f3 bd
       0.027921658 0.18878797 -0.060033515 -0.11898107
000100 c5 97 df bd 28 6a 9a 3d 42 9f 21 3e 61 e5 88 bd
       -0.109176196 0.07539779 0.15783408 -0.066843756
000110 c9 60 25 3e fd 51 12 be 14 12 08 3d 5a 82 1b bc
       0.16150202 -0.14289089 0.033220366 -0.009491527
000120 f1 64 12 bd a0 5e 0a be d9 12 bb 3d ca 66 0c 3d
       -0.035740796 -0.13512659 0.09134454 0.034277715
000130 d7 88 3f be 9f f9 04 3d 2d 7e eb 3d 9f 1b e4 3b
       -0.18704544 0.03246462 0.114986755 0.0069613005
000140 2e b5 be 3d a5 aa 0a 3c 74 5d 7f 3d 02 9e 90 3d
       0.09311901 0.008463536 0.062344983 0.070613876
000150 ff cc 13 be 77 b2 e9 3d 1e a6 24 bd 2a 3a 1f bd
       -0.14433669 0.114109926 -0.040197484 -0.03887383
000160 7d c8 e9 3c b1 21 df 3d 45 8c 4f 3d 32 51 b1 3d
       0.028537983 0.10895098 0.05067088 0.08658065
000170 32 63 88 bd 6d f5 c0 3d 77 1f 27 3e 01 b3 d0 bd
       -0.06659545 0.09421811 0.16320597 -0.10190392
000180 f1 42 71 bd 25 98 19 3e eb a9 18 3e 0a e2 14 3e
       -0.05890173 0.14999445 0.14908569 0.14539352
000190 32 c4 18 be dc 09 38 3e d3 32 2a 3e 7a 88 34 be
       -0.14918593 0.17972511 0.1662095 -0.17630187
0001a0 ad c3 ab bd d1 d0 9d b7 b2 60 4f 3e 74 1a 94 bb
       -0.083869316 -1.8813096e-05 0.2025173 -0.004519755
0001b0 11 82 39 3e 09 2c 35 3e 5e 50 23 bd 88 26 08 be
       0.18116023 0.1769258 -0.039871566 -0.13295949
0001c0 da c6 3c 3d 3a 15 bd bd 32 39 44 be 2d 03 dc 3d
       0.046088077 -0.09232564 -0.19162443 0.10742793
0001d0 d8 88 1f be f8 a9 10 3e d9 f0 65 3b ad f9 4a 3e
       -0.15579545 0.14127338 0.0035086183 0.19821806
0001e0 a1 43 7a bd e1 1d 42 3e b5 20 5d bd 16 bd 8c 3b
       -0.061099652 0.1895671 -0.05398627 0.0042950017
0001f0 94 7f 75 3c e4 1b a6 3d 17 8e b1 3d 8d 73 c5 bd
       0.01498403 0.081107885 0.086696796 -0.0964118
000200 9c b9 fc bd ec f1 5b bd 67 0e ed 3d 26 08 3b 3d
       -0.1234009 -0.05369751 0.11575013 0.045662068
000210 96 ec cb bc a1 10 93 bd 69 7d eb bd b4 8d 65 3d
       -0.024893086 -0.07180906 -0.114985295 0.05604334
000220 27 9c 2a be ca a2 e2 bd 5c c7 e0 bd b3 ce 86 bc
       -0.1666113 -0.11066206 -0.10975525 -0.016455984
000230 d2 18 24 be 1d cb 7e bd 8e be cf 3d 5a f1 c3 bd
       -0.16025093 -0.062205423 0.10143767 -0.095675185
000240 76 0c 27 be 48 7c ea bd 28 db 4e bd 6a e8 89 bb
       -0.16313347 -0.11449486 -0.050501972 -0.004208614
000250 a5 85 1a be 99 81 1d be e5 d8 02 3e 82 10 66 3a
       -0.15090044 -0.15381469 0.12778051 0.00087762636
000260 03 bf 7e 3d 66 9f b7 bd 56 74 30 bd 3f 14 05 be
       0.06219388 -0.0896595 -0.043079697 -0.12996005
000270 06 ae 87 3d 1d 9d bf 3d ec 1d a4 3d 4a 5f bd bd
       0.06624989 0.09356139 0.0801352 -0.092466906
000280 e4 ee 77 bd 61 26 e1 bd a7 3e 11 3e 81 d1 84 bd
       -0.06053056 -0.10993648 0.14184056 -0.06485272
000290 b1 df 18 3d ef 08 8c bc 57 8d 9a bc 37 4d d6 bd
       0.037322704 -0.017094104 -0.018866224 -0.10463946
0002a0 28 81 a9 bd 58 e1 22 3e 53 1f fd bd 6a 38 0a 3d
       -0.08276588 0.15906274 -0.1235949 0.033745207
0002b0 06 24 80 3d 28 a4 91 bd 80 9a 1c 3e cf b9 11 be
       0.06256871 -0.071113884 0.15293312 -0.14231037
0002c0 0a 5e 97 3c d4 d6 ea 3d 7e e4 08 be 6f 63 a6 3c
       0.018477459 0.114667565 -0.13368413 0.020311086
0002d0 1d 37 8d 3d 78 4c 1a 3e 44 76 ce 3b 3b 6b 1c be
       0.06895278 0.15068233 0.0063007195 -0.1527528
0002e0 09 70 d6 3c e8 30 09 be 3e ee d3 3d aa a0 9b bb
       0.02617647 -0.13397563 0.103481755 -0.0047493773
0002f0 c0 01 2c be cc 69 19 bd 9f 14 26 be 40 b6 11 be
       -0.16797543 -0.03745441 -0.16218804 -0.14229679
000300 5e ed 47 3d ca 5e a0 bd 83 a5 fc bc b9 b0 08 3e
       0.048810355 -0.078305796 -0.03084064 0.13348664
000310 30 8a ee bd 17 e8 ed 3d 33 2d d7 bd 76 14 2f 3e
       -0.11647451 0.11616533 -0.10506668 0.17097649
000320 65 8b 44 be f0 db b7 3b 89 ff 0c bd 01 17 93 3d
       -0.191938 0.0056109354 -0.034423385 0.07182122
000330 3d b1 85 bd d6 65 0d bd 06 f0 22 be dc 8f 31 be
       -0.06527946 -0.034520946 -0.15911874 -0.17340034
000340 70 16 a8 3d 4b 3e a0 3d cc 78 04 be 35 9f 3c be
       0.082074046 0.078243814 -0.12936705 -0.18420108
000350 58 89 e2 3d cd f7 0a 3e 77 f3 9f 3c a2 9e 6a 3d
       0.110613525 0.13571091 0.019525273 0.05728019
000360 d1 1e 34 3d ea 9b 2a 3e fd 22 eb 3d a8 d9 3c bd
       0.0439747 0.16661039 0.11481283 -0.04610601
000370 48 64 03 3e ca 14 18 3d 3d d3 b2 3c 63 18 d8 bd
       0.12831223 0.0371292 0.021829242 -0.105515264
000380 8c 8e 12 be 98 89 ab 3d 07 65 a7 bd 32 ae 30 3d
       -0.1431219 0.08375853 -0.08173566 0.043134876
000390 ed 45 ce 3b d7 b1 c6 bd 68 7f 3a be e9 f2 03 be
       0.006294957 -0.09701889 -0.18212664 -0.12885632
0003a0 59 20 a0 bd 18 88 aa bd bb 54 c1 3d 54 a7 29 3d
       -0.0781867 -0.08326739 0.09439989 0.041419342
0003b0 55 71 28 3e 40 39 da bd 32 0b c1 bd 7f de f3 3d
       0.16449483 -0.10655451 -0.094259635 0.11907672
0003c0 93 c2 5d 3d 17 b6 87 bd d7 34 8f bd 50 ce 21 be
       0.05414064 -0.06626528 -0.069925 -0.15801358
0003d0 8c b7 75 3d 22 55 2c be a6 08 27 3c d1 d5 2e be
       0.059989497 -0.1682935 0.010194933 -0.17073752
0003e0 13 53 a5 bd 92 96 1e be 9b d4 0a be 71 39 c3 3d
       -0.08072486 -0.15487126 -0.13557665 0.095324405
0003f0 2d d7 88 3c f3 0e fa bc 4f 99 e6 bc 7a d6 a6 bc
       0.016704166 -0.030524706 -0.028149275 -0.020365942

lstm.bias_ih_l0_reverse f4 [128]
000000 bf ce 3f 3d ac 0c 06 be 0b f2 e0 3d f8 12 0c bd
       0.046828028 -0.13090771 0.10983666 -0.034197778
000010 8b 83 31 bb 2a 1b ec bd 03 5b 96 bc bd 45 02 3d
       -0.0027086462 -0.11528619 -0.018353945 0.03180479
000020 64 9d e7 bd c6 0e 34 3e 51 11 b9 bd 56 70 14 3d
       -0.11309317 0.1758376 -0.09036506 0.036239944
000030 bc dd 1f 3e 74 78 00 3e 12 ba 58 3d 39 af 99 bd
       0.15611929 0.12545949 0.052911825 -0.07504124
000040 85 c3 d6 bd 38 00 ff bd 1d 97 1c be 08 a0 d7 3d
       -0.10486511 -0.124512136 -0.1529202 0.105285704
000050 96 e1 33 bc d9 2e a3 bd e4 43 80 3d e0 b6 d5 bb
       -0.010979077 -0.0796792 0.06262949 -0.0065220445
000060 44 fd eb 3d d8 70 d5 bd 36 db b0 3d eb e2 21 be
       0.11522916 -0.10421914 0.08635561 -0.15809219
000070 50 6e d5 3d 42 27 11 bd 70 9f 76 bd 8d ab b3 3d
       0.10421431 -0.03543783 -0.060210645 0.08772955
000080 41 09 44 bd bb bf f9 3b 10 20 85 3d 0c 4c 36 3e
       -0.047860388 0.007621733 0.06500256 0.17802447
000090 c1 f6 f9 bd ad b7 0c be 27 eb bd 3c 28 77 d1 3c
       -0.12205268 -0.13741942 0.023183418 0.025569513
0000a0 8a 6e 09 3e 87 ee f1 3d fc be ad bd de 97 22 3e
       0.13421074 0.118130736 -0.08483693 0.15878245
0000b0 31 ed 93 3d a6 07 26 bd 7a da d3 bd 39 24 1b be
       0.07222975 -0.040534638 -0.103444055 -0.15150537
0000c0 26 59 a5 bc 00 fa 2d 3e b4 a1 c3 3d b2 ac 91 3d
       -0.02018411 0.16989899 0.09552327 0.07113017
0000d0 ad 0d 5a 3d f3 c2 1f 3e b5 36 ba 3d 4c db f3 3d
       0.0532357 0.15601711 0.09092466 0.11907062
0000e0 65 75 0c be 49 95 fe bd 2c 0e c1 bd 2c 83 ce 3c
       -0.13716657 -0.12430818 -0.09426531 0.025209032
0000f0 2e a5 22 3d 28 23 37 3e 4a 38 94 bd 09 7f 2b 3d
       0.03970831 0.17884505 -0.07237299 0.041869197
000100 83 ef 21 3d 4f 0d e0 bc c5 34 1c 3d e4 b6 30 3d
       0.039535057 -0.027350096 0.038136262 0.043143168
000110 b9 d9 31 be 97 ab 8c bd 35 0d 72 3d 62 20 35 3e
       -0.17368211 -0.06868666 0.059094626 0.17688134
000120 1f ff 34 3e 26 7e 8b bd 0a 19 fc bc 16 6a e9 bd
       0.17675446 -0.0681117 -0.030773658 -0.113971874
000130 ca 39 6a 3d 1c 71 c0 3d 7c 23 0e 3d ee e6 1c be
       0.05718402 0.09396574 0.03470181 -0.15322468
000140 02 44 d7 3d e7 8a b6 bd 9c c9 b7 bd d9 93 e2 3c
       0.10511018 -0.08913212 -0.08974001 0.02765839
000150 71 f1 2b 3c 03 19 c2 3d 4f 59 47 3d ca b3 fe 3d
       0.010494576 0.09477427 0.048669156 0.12436636
000160 fa ca e8 3d fb 9f 00 3e fd ec 1c be c1 b6 d1 bd
       0.1136684 0.12561028 -0.15324779 -0.10239936
000170 e8 2d 1d be 95 e6 a1 3d 8e 8f a6 3d 26 c5 fd bc
       -0.15349543 0.07905308 0.0813285 -0.030977797
000180 56 da b5 3d 3a 3c 24 3e 5e 8a 77 bd 2d 28 78 bd
       0.08879535 0.160386 -0.06043469 -0.06058519
000190 4c e2 c1 bd d8 ba cf 3d ac c0 43 bd bf 23 3b bd
       -0.09466991 0.101430595 -0.047791168 -0.045688387
0001a0 25 ae 10 3e 4a e9 f6 3c 7a 8e 0b 3e 3c 49 2d 3e
       0.14128931 0.030140538 0.13628569 0.16922468
0001b0 49 56 89 bd 24 e5 b0 3d a1 dd b5 3d 4a 46 e5 3d
       -0.06705911 0.08637455 0.08880163 0.11195047
0001c0 d6 42 07 be 54 ac f4 3d 97 80 22 3d 18 71 aa bd
       -0.1320909 0.119469315 0.039673414 -0.08322352
0001d0 97 21 97 3c e9 85 e0 bc 31 55 27 be 68 50 02 be
       0.018448634 -0.027407603 -0.16341092 -0.12725985
0001e0 68 f5 1e be 0d 2b 10 be 36 cf 95 3b 11 2d dd 3d
       -0.15523303 -0.14078923 0.0045718206 0.10799611
0001f0 39 13 26 3c 23 fd 76 bc 6e 4d e6 bd d2 37 f9 bd
       0.010136419 -0.015075001 -0.11245237 -0.1216885

lstm.bias_hh_l0_reverse f4 [128]
000000 63 6c 8d bd 17 43 89 bd 7d 7f 10 3e 09 95 f4 bd
       -0.06905439 -0.067022495 0.14111133 -0.11942489
000010 af 7d 34 be 07 91 2f 3d ef 54 47 bd 63 61 0a be
       -0.1762607 0.04286292 -0.048664983 -0.13513713
000020 76 8b 11 3d a5 19 02 bd 73 0d d8 bd 32 24 fd 3d
       0.03553339 -0.031762738 -0.1054944 0.12360419
000030 b5 6b 90 bd 0e e7 79 3d 5d 04 22 3e 41 f0 2a 3d
       -0.070517935 0.061011367 0.15821977 0.04173303
000040 17 af d9 bc ce 21 f6 bd aa eb 08 3e 68 5e eb bd
       -0.026572747 -0.120181665 0.13371149 -0.11492616
000050 d6 34 b4 3c e4 a3 8e 3d a4 ae 00 bd f4 39 b6 3d
       0.02199785 0.069648534 -0.03141655 0.088977724
000060 b7 7b 25 be ca fd 0a 3e 31 06 5b 3d d8 3c d3 ba
       -0.16160475 0.13573375 0.0534727 -0.0016116155
000070 09 db d6 bd f0 09 e9 bd bc 18 91 3c fb 83 a3 3d
       -0.104909964 -0.113788486 0.01771199 0.07984158
000080 cc 77 8c 3d 82 34 bc 3d aa 3d f7 bb 84 95 34 bd
       0.06858787 0.091897026 -0.0075451927 -0.0440879
000090 20 57 ee 3d bd 52 0f bd 4e 4f 16 bd 66 d8 2f be
       0.116377115 -0.034991015 -0.036696725 -0.17172393
0000a0 25 0e 0d 3e f7 8b e8 3d fa c1 c4 bc 7f 80 00 3e
       0.13774927 0.11354821 -0.024018276 0.12549017
0000b0 97 9c d9 3d d2 aa 0d be 52 c6 0d 3e 36 8e 3e 3d
       0.1062557 -0.13834694 0.13845184 0.04652234
0000c0 5b f0 2e 3c 83 17 b0 3c ef 19 c0 3d 95 8b f5 3d
       0.010677422 0.021495586 0.093799464 0.11989514
0000d0 25 f5 1b be 12 45 95 bd a8 b1 8b bd 4e 24 04 3d
       -0.15230234 -0.07288565 -0.068209946 0.032261185
0000e0 8f 81 59 bb cb de 9c 3d 3a 20 39 bd d1 f0 07 3d
       -0.0033188795 0.07659682 -0.04519675 0.033188645
0000f0 d4 d3 31 3c dd ef 9a 3d 2a ec d4 bd 13 eb 10 3e
       0.010853726 0.075652815 -0.10396607 0.14152174
000100 a3 44 87 3b b6 8a b6 3d a1 7d 1c be 7f ab 3d 3e
       0.004128055 0.08913176 -0.15282299 0.18522452
000110 b5 fa 78 bc 3f 6b 95 bc bc 35 18 3d 7d c2 73 3a
       -0.015196492 -0.018239615 0.03716062 0.00092986954
000120 d5 83 27 be f0 25 94 3d 53 b1 04 3e 97 25 4b 3d
       -0.16358884 0.072337985 0.12958269 0.049596395
000130 68 1d 1a 3e 53 f9 f2 3d d3 cb cf 3c c5 be 29 be
       0.1505028 0.11863961 0.025365746 -0.16576679
000140 2b d5 fc bb 88 88 bc bd 4a 54 d1 3d 53 51 97 bd
       -0.0077158413 -0.09205729 0.10221155 -0.07388558
000150 e6 11 e2 bd 44 55 c7 3d fa 43 01 be 9f 00 2b 3e
       -0.1103857 0.0973306 -0.12623587 0.16699456
000160 7f f6 c9 3d f1 fb 07 3e 6f 2f ee bc 1a 2c 2d 3e
       0.098614685 0.13279702 -0.029075352 0.16911355
000170 81 55 83 3d 02 0f 12 bd 6c f7 32 be cc e4 07 3e
       0.06412793 -0.035658844 -0.17477196 0.13270873
000180 31 1e b9 bd e1 17 84 3d 9b c2 d2 bb e9 60 43 3d
       -0.09038962 0.06449867 -0.00643189 0.047699843
000190 ca 62 77 bd 87 00 86 3c b9 81 bd bd 74 79 2f be
       -0.060396947 0.016357673 -0.09253258 -0.17136174
0001a0 0d fa d2 3d 84 d9 f8 3b c3 34 dd bd 78 f3 82 bd
       0.103016 0.0075942893 -0.10801079 -0.06394094
0001b0 bd e0 38 3e bb dc 8e 3d ee e9 c5 3b a3 22 29 3d
       0.18054481 0.06975695 0.0060398495 0.041292798
0001c0 5e f8 0d be ee 53 14 3e 44 2f b1 bd f2 12 29 be
       -0.13864276 0.14485142 -0.08651593 -0.16511133
0001d0 90 6c 8d bd b2 a1 00 be 19 c2 1c 3e f5 cd f5 3c
       -0.06905472 -0.12561682 0.15308417 0.030005435
0001e0 fd db f5 bd d0 59 d9 bc e5 61 49 be b7 bf 3a 3d
       -0.1200485 -0.026532084 -0.1966625 0.04559299
0001f0 cd ae 1b 3e 7d cf 85 bd d2 54 37 3e 71 a7 1a 3e
       0.152034 -0.06533716 0.1790345 0.15102936

lstm.weight_ih_l1 f4 [128, 64]
000000 c3 3c cb 3d 44 09 1e be fc 7b a0 3c c0 41 63 3d
       0.09923699 -0.15433222 0.01959037 0.055482626
000010 31 e9 f0 3d a7 07 e8 bd ff 6e 10 3e ba c9 01 3e
       0.11763228 -0.113295846 0.14104842 0.12674609
000020 67 a7 37 3e 66 e4 c4 3d 2d bf 5a bd ec 34 ca bd
       0.17934953 0.09613876 -0.053404976 -0.09873375
000030 55 de cf 3d 51 46 e0 3b a1 2f e0 3c 9b 28 b8 bd
       0.10149828 0.00684432 0.027366461 -0.0899212
000040 9d f8 92 bc 99 50 b4 bd f3 6e 49 3e e3 68 a5 3c
       -0.017940814 -0.08804435 0.1967123 0.020191615
000050 ed dd 5f bd 67 9a 71 bd 64 db b8 bd c5 3e c9 bd
       -0.054655004 -0.05898514 -0.090262204 -0.098264255
000060 84 cc d6 bd 33 2b a2 bd e9 4b f3 bd 92 d6 8f 3d
       -0.10488227 -0.07918396 -0.11879713 0.07023348
000070 4c 10 2d 3e 2f a0 5f bd 08 ad 93 3d b1 ea 11 3e
       0.16900748 -0.054596122 0.072107375 0.14249684
000080 83 fe 3e be 4e 77 03 be 36 ca 06 3e f9 62 4e 3c
       -0.18651776 -0.1283848 0.13163075 0.012596839
000090 ab 6a 4e 3c 7c 28 3e 3e 49 5d 0b 3e 35 62 e5 3d
       0.012598674 0.18570131 0.13609804 0.11200372
0000a0 79 49 f6 3d 83 a8 fc 3c da 50 89 bd 0d 12 e8 3b
       0.120257325 0.030842071 -0.06704874 0.00708223
0000b0 3d aa b3 bd 48 c3 0d 3d 11 ab 0d be 20 96 16 3e
       -0.08772705 0.034610063 -0.13834788 0.14705706
0000c0 61 0f d3 bd 24 5e a0 bd 65 27 e2 bd 0c c9 f8 3d
       -0.10305668 -0.07830456 -0.1104267 0.12147722
0000d0 b9 05 2e bc b8 9d e2 3d e4 bd c7 3d f6 31 63 bd
       -0.010621482 0.11065239 0.09753016 -0.05546757
0000e0 03 d0 92 3d 7b 66 90 bd 86 d0 a6 bd f4 d8 c8 bd
       0.07168581 -0.070507966 -0.081452414 -0.098070055
0000f0 1c f1 5f bd 84 74 61 bd fe 39 18 be 5a c6 02 bd
       -0.0546733 -0.05504276 -0.14865872 -0.031927444
000100 1c 62 72 3c 4b 7f 29 bd 4e d2 10 3d 69 d7 88 3d
       0.014793899 -0.04138116 0.035356812 0.06681711
000110 7a d2 4c bc c5 01 0a bc 97 97 1c bd 97 df ec 3d
       -0.012501353 -0.008423273 -0.038230505 0.11566084
000120 4b f1 c3 3c b3 99 ce 3d 4b 38 91 bd 1b 74 81 3d
       0.023918768 0.100879095 -0.07090815 0.063209735
000130 90 25 ad 3d ab d7 bb 3d 99 6f 9f 3d f9 07 17 be
       0.0845443 0.09171995 0.077849574 -0.14749135
000140 1d 04 b2 bc 48 fa 89 bd 97 93 80 3d 54 07 8b bc
       -0.021730477 -0.067371905 0.062781505 -0.016971268
000150 5e 03 a4 bd 86 77 54 bd f5 c9 97 bd 62 ac 99 3d
       -0.08008455 -0.0518718 -0.07411567 0.075035825
000160 12 27 eb 3d e6 43 63 3c f0 35 f1 3d 8a 77 3b 3e
       0.114820614 0.013871169 0.11777866 0.1830732
000170 95 35 1d 3d 2a 56 ce 3d a1 94 f3 3d 08 bb f8 3d
       0.038381178 0.10075028 0.11893583 0.121450484
000180 56 26 24 be 8c 34 cd bb 35 f5 0d be 9e ac 39 3c
       -0.16030249 -0.0062623676 -0.1386307 0.011332659
000190 7a 34 d0 bd d2 56 8c bd 52 b2 a0 bd 11 1c 91 bd
       -0.10166259 -0.06852497 -0.07846512 -0.07085431
0001a0 2e fc 47 bb f3 41 1b bd d5 55 9d bd 9f b5 b5 bc
       -0.00305153 -0.03790469 -0.07682387 -0.02218133
0001b0 f0 e7 ff bd ca bd 03 bd 7d 13 64 bd 2f 48 02 bd
       -0.124954104 -0.03216342 -0.055682648 -0.03180712
0001c0 c8 ab eb 3d a3 e8 94 3b a7 1a f5 bd 21 ce 15 3e
       0.11507374 0.004544334 -0.11967974 0.14629413
0001d0 cc a6 04 be a5 86 12 be b7 ee a5 bc 5d 46 c9 3d
       -0.12954253 -0.14309175 -0.02025543 0.09827874
0001e0 33 a2 e0 bd ac 92 e8 3d 3e b8 02 be e9 08 3c 3d
       -0.10968437 0.113561004 -0.12765595 0.045906935
0001f0 c2 62 f5 bc 49 e7 46 3e eb ac a6 3d 6a eb 92 3d
       -0.029954318 0.19424166 0.0813845 0.07173808
000200 17 ea 63 bc 55 d6 56 bd 05 9e 06 be 43 85 22 3e
       -0.013910792 -0.052450497 -0.13146217 0.15871148
000210 a0 2b 20 3d cf 9f f5 bd cc b2 2a be 5d f4 f0 3c
       0.039104104 -0.11993372 -0.16669768 0.029413396
000220 f6 c6 16 bd c1 57 44 3d cc ce 77 3d 19 d9 df bd
       -0.036810838 0.04793525 0.06049995 -0.1093008
000230 06 c7 73 3d 2e 31 0f 3e cc 90 1e be 1f ea c7 bd
       0.059515975 0.13983604 -0.15484923 -0.09761452
000240 16 44 02 be 84 fa 7f 3c 62 c3 22 3e e5 17 07 be
       -0.12721285 0.015623692 0.15894845 -0.13192709
000250 ac 93 ce 3d 69 b9 9e bd 2e d4 7c 3d 4c 05 89 3d
       0.1008676 -0.07750208 0.061725788 0.066904634
000260 37 cc 04 3e a9 5f 93 3d 1b 7f 4c bd 10 e3 46 bc
       0.12968527 0.0719598 -0.049925905 -0.012139097
000270 88 0e 1e be e8 11 6e 3d 28 2e dd bd ce 0e c6 bc
       -0.1543523 0.058122545 -0.10799819 -0.024176981
000280 65 ed fb 3d e7 76 7f 3d 69 15 ff bd 0f 93 1d 3e
       0.12301139 0.062369253 -0.124552555 0.1538813
000290 46 e0 20 3e c2 36 12 be d2 14 93 3c 31 11 b3 bc
       0.15710554 -0.14278701 0.017954264 -0.021858783
0002a0 19 a1 fb bd 6a 37 d4 3d c5 c9 0b bd 59 43 80 3d
       -0.12286586 0.10362132 -0.03412797 0.062628455
0002b0 10 29 25 be 1d d4 02 be 98 da ee 3c 3f b0 e4 bc
       -0.16128945 -0.12776227 0.029156968 -0.027916072
0002c0 9b 4a 1e be 8c ec 24 3d 87 68 c9 3d c3 a5 e3 3d
       -0.15458147 0.04026465 0.0983439 0.11115601
0002d0 38 19 57 3d 6b 83 22 bd 5d ea 22 3e 75 c7 17 be
       0.052514285 -0.03967611 0.15909715 -0.1482218
0002e0 a5 8f 88 bd 95 6f 44 3e bd fe 1d 3e 37 09 0d 3e
       -0.06668023 0.1918319 0.15429206 0.13773046
0002f0 55 cb d9 3d 80 36 3f bd 8f ca e5 3d ac 6d dc 3d
       0.10634486 -0.046682835 0.112202756 0.10763106
000300 4b b4 b7 ba 48 d9 30 bb 0b 53 3b bd 4c 69 36 3e
       -0.0014015523 -0.0026984978 -0.045733493 0.17813605
000310 e8 fa d5 3a f8 b0 b9 bd 96 5b 7f 3d 8f 3c fb 3d
       0.0016325386 -0.09066957 0.062343203 0.1226741
000320 e5 24 0d be 8b 24 06 3d a2 f0 38 bd c7 35 b4 bd
       -0.13783605 0.032749694 -0.04515136 -0.0879932
000330 52 d7 c3 3a 50 6d d3 bd 49 f4 ec 3d 75 60 34 be
       0.001494149 -0.10323584 0.11570031 -0.1761492
000340 f2 ab 36 3e 18 87 bf bc a7 5b 9e 3d fc 65 ac 3d
       0.1783903 -0.023379847 0.07732325 0.084178895
000350 cf 48 b9 bd 6b 3a e3 bd e6 d6 fc bc b0 b5 38 bd
       -0.0904709 -0.11095127 -0.03086419 -0.045095146
000360 02 02 05 3e fe d1 af 3d 23 84 87 bb 69 b2 2c 3e
       0.12989047 0.08584975 -0.004135625 0.16864933
000370 f6 f0 e1 3d fc fc 87 bc 87 04 18 3d 19 db ec bd
       0.11032288 -0.016600125 0.037113693 -0.11565227
000380 20 90 64 3d 82 94 07 3e 24 d9 8a bd e1 c1 9e 3b
       0.05580151 0.13240245 -0.067796975 0.0048448895
000390 1b 73 d3 3d a1 db 06 3e 6d c9 44 be 5d 2e 0b be
       0.10324689 0.1316972 -0.19217463 -0.13591905
0003a0 8e f2 78 bc 45 1d 15 3e c4 04 11 be e2 5a e4 3c
       -0.015194548 0.14561947 -0.14161974 0.027875368
0003b0 1c a1 09 be c4 11 da bb 04 e3 5a bd e1 61 de bd
       -0.13440365 -0.00665495 -0.053439155 -0.10858513
0003c0 76 83 d1 bd 47 d7 07 be e0 42 c4 3d 37 ea 91 bc
       -0.10230152 -0.13265716 0.09583068 -0.017811878
0003d0 f9 31 0c be 44 e3 14 bd 14 75 ea bd 76 c5 0d be
       -0.13690938 -0.03634955 -0.11448112 -0.13844857
0003e0 15 e3 bc 3d 78 a9 7f bd 55 bb 1b be 30 2e 00 be
       0.09223 -0.062417477 -0.1520818 -0.12517619
0003f0 f4 d1 f2 bc 27 51 1d bd 58 07 06 be 3f 47 7e 3d
       -0.02964113 -0.03840747 -0.13088739 0.062079664
