result_train/seqmodel_ep10.pth (torch, 390389 bytes, 44 tensors)

lstm.weight_ih_l0 f4 [128, 7]
0	0x3e0b49b0	0.13602328
1	0x3d96b988	0.07359606
2	0x3dd1031c	0.10205671
3	0xbe184d39	-0.14873208
4	0xbe2660c8	-0.16247857
5	0x3de898c6	0.11357264
6	0xbe0ffd57	-0.14061485
7	0x3e2340b0	0.15942645
8	0xbc75a4b5	-0.0149928825
9	0xbd1e792a	-0.03868977
10	0xbd01ed64	-0.031720534
11	0x3deac2ad	0.11462913
12	0x3e0f0f5b	0.13970701
13	0x3d9027d5	0.07038847
14	0x3e25bd03	0.16185383
15	0xbd99519d	-0.074862696
16	0x3db36120	0.087587595
17	0x3da73eea	0.08166297
18	0x3d0358da	0.032067157
19	0xbd036c89	-0.03208593
20	0x3d4171ab	0.047227543
21	0x3d9cdbfd	0.07659147
22	0xbd842cec	-0.06453881
23	0xbd763097	-0.060104933
24	0xbd94c717	-0.07264536
25	0xba317c87	-0.000677057
26	0xbdaf21a7	-0.085513406
27	0xbd34eb89	-0.044169936
28	0xbbf1d22a	-0.00737979
29	0x3cf1c43b	0.029512515
30	0x3e32386b	0.17404334
31	0x3e19daaa	0.1502482
32	0xbdbe4761	-0.09290958
33	0xbdfafc5e	-0.122551665
34	0x3dde2de6	0.10848598
35	0x3e2e8241	0.17041875
36	0xbe135dd4	-0.14391261
37	0x3cba0d5b	0.022711447
38	0xbd522b0e	-0.05131059
39	0xbd26d867	-0.04073372
40	0x3cb27bba	0.021787513
41	0x3d09061d	0.033453096
42	0xbd9539c0	-0.072864056
43	0xbda70ca4	-0.08156708
44	0x3decf961	0.11571003
45	0x3e4937a5	0.19650133
46	0x3da7c5c3	0.08192017
47	0xbd273b5e	-0.0408281
48	0xbe241604	-0.16024023
49	0x3e30f360	0.1728034
50	0x3de93436	0.113869116
51	0x3d63fb45	0.05565955
52	0xbd89a56b	-0.06721004
53	0x3d6058a3	0.05477203
54	0xbd53cbfe	-0.051708214
55	0xbd0bda41	-0.03414369
56	0xbd8ce159	-0.06878919
57	0x3d490551	0.049077336
58	0xbe0720aa	-0.13196054
59	0x3e075adb	0.13218252
60	0x3b0c4283	0.0021401949
61	0xbd8b6c74	-0.06807795
62	0xbd59c9ed	-0.053171087
63	0x3cffbc8d	0.031217838
64	0x3d598d67	0.053113367
65	0xbca939bc	-0.020657413
66	0xbd86ae13	-0.06576171
67	0x3d02dfec	0.03195183
68	0x3d174558	0.036931366
69	0xbdd85fa1	-0.10565115
70	0x3e1db797	0.15402065
71	0xbe0a3076	-0.13495049
72	0xbc7d8244	-0.015472952
73	0x3c715062	0.014728637
74	0x3b9b03da	0.0047306838
75	0x3d39442b	0.045231026
76	0x3dc5969e	0.096478686
77	0xbe1f5568	-0.15559924
78	0x3d27fb44	0.04101111
79	0x3dc9c0d0	0.09851229
80	0x3e4f1c8c	0.20225734
81	0xbd16ccca	-0.036816396
82	0x3bbb7904	0.0057212133
83	0xbe2b3d78	-0.16722667
84	0x3cce2333	0.025163269
85	0xbe2e1a25	-0.17002161
86	0xbe37a9c3	-0.17935853
87	0x3d74308d	0.059616614
88	0xbd291b69	-0.041285906
89	0x3da9045c	0.082527846
90	0xbc0eed4c	-0.008723568
91	0xbdb9f53d	-0.090799786
92	0x3e078b42	0.13236716
93	0x3d97bc74	0.074089915
94	0x3dfc1627	0.12308913
95	0xbe2c3d10	-0.16820168
96	0xbddcfc83	-0.1079035
97	0xbcff5fe1	-0.031173648
98	0x3cb8cec7	0.022559537
99	0xbe3fe7c0	-0.1874075
100	0x3e2e125b	0.1699919
101	0xbbc5c8d4	-0.0060359035
102	0xbdad1f8e	-0.08453284
103	0xbe2e3311	-0.17011668
104	0xbd4267a5	-0.047462124
105	0x3d0e2fef	0.03471368
106	0xbdc18062	-0.09448315
107	0xbd902e66	-0.070401
108	0xbce93e3f	-0.028472064
109	0x3e09edde	0.13469645
110	0x3e18f614	0.14937621
111	0xbe33a98b	-0.17545144
112	0x3cce48bc	0.025181167
113	0x3d6535ad	0.055959392
114	0xbd069253	-0.03285439
115	0x3d2a883a	0.041633822
116	0xbe0caf7b	-0.13738815
117	0xbb4bb3ed	-0.0031082586
118	0x3d3e2a1a	0.04642687
119	0x3e1f075c	0.15530151
120	0x3c518027	0.012786902
121	0xbd452ca7	-0.048138287
122	0xbd8da91f	-0.06917023
123	0x3e04aa06	0.12955484
124	0x3e3b6dce	0.18303606
125	0xbe1d7b72	-0.15379122
126	0xbda8fe5e	-0.08251642
127	0x3deb2e1a	0.114834026
128	0x3de176c0	0.11008978
129	0xbbc81343	-0.006105812
130	0x3e2983dd	0.16554208
131	0xbd75792c	-0.05993001
132	0x3dba405f	0.09094309
133	0x3d2c5502	0.042073257
134	0x3ded2e11	0.11581052
135	0xbe458db1	-0.19292332
136	0x3e087826	0.13327083
137	0x3ca877cc	0.020564936
138	0xbd8f1fcd	-0.069884874
139	0xbd6ea29c	-0.058260545
140	0x3dce8b08	0.10085112
141	0xbd56f43a	-0.052479006
142	0x3e2c7da8	0.16844809
143	0x3d98e4ae	0.07465492
144	0x3de27a6a	0.11058505
145	0x3d59be92	0.053160258
146	0x3da6f467	0.08152085
147	0x3cd637bd	0.026149625
148	0x3d25f4b4	0.04051657
149	0xbd931b61	-0.071829565
150	0x3d544f6b	0.05183355
151	0x3cc9c943	0.024632102
152	0xbd8ef570	-0.06980407
153	0xbc4c6d05	-0.012477164
154	0xbe19dec4	-0.15026385
155	0xbe1071ea	-0.14105955
156	0xbdbcf265	-0.092259206
157	0x3cd30ce5	0.025762985
158	0xbdcaaab6	-0.09895842
159	0xbd2fef2d	-0.042952705
160	0x3e25e9f9	0.16202535
161	0x3ca9e86d	0.020740712
162	0xbddbbab2	-0.10728969
163	0x3cb1e77b	0.021716824
164	0x3e2c8751	0.16848494
165	0xbe0b784b	-0.13620107
166	0xbe1f3af6	-0.15549836
167	0x3d5f0503	0.05444814
168	0xbd7dc96d	-0.061959673
169	0xbd259bae	-0.04043167
170	0x3ccd985e	0.025097068
171	0xbd820ba2	-0.06349875
172	0xbe0f7794	-0.14010459
173	0xbd044b78	-0.032298535
174	0xbe0c503e	-0.13702485
175	0xbe07de43	-0.1326838
176	0xbe0f57d5	-0.13998349
177	0x3db6dbe3	0.08928659
178	0xbdeeeb9c	-0.11666033
179	0x3d487bea	0.0489463
180	0xbde2109e	-0.11038326
181	0xbc2efee8	-0.010680892
182	0x3e1660dc	0.14685386
183	0x3dacbdfe	0.08434676
184	0x3de19c24	0.110161096
185	0x3da905c0	0.0825305
186	0xbd49036e	-0.049075536
187	0xbbb1ac80	-0.005422175
188	0xbcad7320	-0.02117306
189	0x3c9277a8	0.017879322
190	0x3e02cd79	0.12773694
191	0x3e38e18f	0.18054794
192	0xbd93ca51	-0.07216323
193	0x3e0183f3	0.12647991
194	0x3e1899e8	0.1490246
195	0x3dbe0de9	0.09279997
196	0x3c207c8c	0.009795319
197	0xbe3da5b8	-0.18520248
198	0xbda1ffb5	-0.079101
199	0xbe13365c	-0.14376205
200	0x3e35a5bf	0.17739008
201	0xbd771e08	-0.060331374
202	0xbda298f2	-0.07939328
203	0xbd93c90e	-0.072160825
204	0xbda52f2c	-0.08065638
205	0xbc1cccf5	-0.00957035
206	0xbe0340f7	-0.12817751
207	0x3d69d2ab	0.057085674
208	0xbe26d9f1	-0.16294076
209	0x3db8cdfc	0.090236634
210	0xbd62ea04	-0.055398956
211	0xbd0b0ac0	-0.0339458
212	0xbda31b14	-0.07964149
213	0x3dd47f71	0.1037587
214	0x3e1e6853	0.15469484
215	0xbdce005f	-0.100586645
216	0xbd814a46	-0.06312995
217	0x3e041eb5	0.12902339
218	0x3dc62d12	0.09676565
219	0xbda01a81	-0.07817555
220	0xbdc1541e	-0.09439872
221	0xbe394fd2	-0.18096855
222	0x3e025a34	0.12729722
223	0xbdd5917c	-0.104281396
224	0x3d3aae56	0.045576416
225	0xbd6d3848	-0.057915002
226	0x3d3b465a	0.04572139
227	0x3d6f3090	0.058395922
228	0xbb0a3d5f	-0.002109371
229	0x3ce3786e	0.027767386
230	0xbd7f91c6	-0.06239488
231	0xbdd33c64	-0.10314253
232	0xbe148c65	-0.14506681
233	0xbb113e2c	-0.0022162301
234	0xbe058fa5	-0.13043077
235	0xbc94b703	-0.018153673
236	0xbe26fa04	-0.16306311
237	0xbb1e3edf	-0.002414636
238	0xbcf70d70	-0.030157775
239	0xbe315a96	-0.17319712
240	0xbd1ed0a7	-0.038773205
241	0x3e12b3d9	0.14326419
242	0xbdcf2f58	-0.10116452
243	0xbdc78a8c	-0.097432226
244	0xbdeb5190	-0.11490166
245	0xbe1169b7	-0.14200483
246	0xbd6dc0fd	-0.058045376
247	0x3d4bf054	0.04978974
248	0xbe2a5e39	-0.16637506
249	0xbe2e1f24	-0.17004067
250	0xbc8b3d6f	-0.016997067
251	0x3e25e384	0.16200072
252	0xbe13bc91	-0.14427401
253	0x3ddeb827	0.10874968
254	0x3e2f1569	0.17098011
255	0xbe3b1630	-0.18270183

lstm.weight_hh_l0 f4 [128, 32]
0	0xbda0b972	-0.07847871
1	0x3e2f26d5	0.17104657
2	0xbddbdd35	-0.10735551
3	0xbd82eee0	-0.06393218
4	0xbe43a0ce	-0.19104311
5	0xbe2fec1d	-0.17179914
6	0xbe0b64de	-0.13612697
7	0x3dd90ca1	0.10598112
8	0x3dc5c099	0.09655876
9	0xbe2db8a8	-0.16964972
10	0xbe109542	-0.14119437
11	0x3dbcda3e	0.09221314
12	0x3d65be26	0.056089543
13	0xbe02b4e4	-0.12764317
14	0x3bc5a902	0.00603211
15	0xbe3d8a4d	-0.18509789
16	0xbe285169	-0.16437306
17	0x3ddf7107	0.1091023
18	0x3e1b2a05	0.15152748
19	0x3d93c7a4	0.07215813
20	0x3dc0c115	0.094118275
21	0xbdccae78	-0.09994215
22	0xbda92206	-0.082584426
23	0x3e1dcb15	0.15409501
24	0xbdffd6c2	-0.12492134
25	0xbe1e66b3	-0.15468864
26	0x3e170875	0.1474932
27	0x3d43021a	0.047609426
28	0x3d1312fe	0.035906784
29	0xbcc0a7d4	-0.023517527
30	0x3dce1168	0.10061914
31	0x3e2a8e16	0.16655764
32	0x3e3647ca	0.17800823
33	0xbd14bb86	-0.03631165
34	0xbd094c0b	-0.033519786
35	0xbde39a86	-0.111134574
36	0x3d8e8dbd	0.06960628
37	0xbd820f59	-0.063505836
38	0x3c9a7fb8	0.01885973
39	0x3dc2a315	0.09503762
40	0xbe065120	-0.13116884
41	0x3de92c74	0.11385432
42	0xbe1b2464	-0.151506
43	0xbe01c0b8	-0.12671173
44	0xbcdf22a1	-0.027238192
45	0xbd60262f	-0.054723915
46	0x3d53131e	0.051531903
47	0xbdcab3fc	-0.098976105
48	0xbd1144ec	-0.03546612
49	0xbe0e3023	-0.1388555
50	0xbd24bacc	-0.040217206
51	0x3dc85b05	0.097829856
52	0x3dfdab9a	0.12386246
53	0x3dcdc7ab	0.10047849
54	0xbdf0b652	-0.11753525
55	0x3db2d8eb	0.0873278
56	0x3e245acf	0.16050266
57	0xbd39033a	-0.045169093
58	0xbdabed34	-0.08394852
59	0xbd15cdbe	-0.036573164
60	0xbe08025f	-0.13282155
61	0xbe0e9e9c	-0.13927692
62	0xbe092c30	-0.13395762
63	0xbc3fad51	-0.011699037
64	0x3d3c9fa9	0.0460507
65	0xbb4ac69c	-0.0030941134
66	0xbd899142	-0.06717159
67	0xbcbb0891	-0.022831233
68	0x3d350d99	0.04420242
69	0x3d1ea335	0.038729865
70	0xbe1924ec	-0.14955491
71	0x3df324d3	0.11872258
72	0xbe3a1e8b	-0.18175714
73	0xbc4110cb	-0.011783789
74	0x3b6679e1	0.003516786
75	0xbdc6b12a	-0.0970176
76	0x3e1c55ae	0.15267059
77	0xbb1fc442	-0.0024378453
78	0xbb69341c	-0.0035584038
79	0xbe029437	-0.12751852
80	0x3e3e3971	0.185766
81	0xbd5772bb	-0.05259965
82	0x3df58c21	0.11989618
83	0xbe13e309	-0.14442076
84	0x3dbebba2	0.09313132
85	0x3de55769	0.11198313
86	0xbe133bf4	-0.14378339
87	0xbc489c3b	-0.0122442795
88	0x3d929e04	0.07159045
89	0x3deb4679	0.11488051
90	0xbe03ce51	-0.12871672
91	0xbc75450b	-0.014970074
92	0x3dea034b	0.11426409
93	0x3cde6e69	0.027152257
94	0x3e3ddb0a	0.18540588
95	0x3c950fbd	0.018195981
96	0xbd33ce5d	-0.043897975
97	0x3e0d21b4	0.13782388
98	0x3e13ea0e	0.14444754
99	0x3e245c73	0.16050892
100	0xbd4c0a2d	-0.049814392
101	0xbd8db228	-0.06918746
102	0xbd891c7d	-0.06694887
103	0x3da49e21	0.08037973
104	0x3e2a9c4a	0.16661182
105	0x3df7262c	0.120678276
106	0xbd51b32d	-0.051196266
107	0xbcff616c	-0.031174384
108	0x3d3ae400	0.045627594
109	0x3dcef4e5	0.10105304
110	0xbd1f2ba4	-0.03885998
111	0x3de62b25	0.11238698
112	0xbe132035	-0.14367755
113	0xbdc1736a	-0.094458416
114	0xbc19604b	-0.009361337
115	0xbdd0ccbc	-0.101953
116	0xbd8c0358	-0.06836575
117	0xbdf6cd46	-0.120508716
118	0x3d809bf3	0.06279745
119	0xbde3aee8	-0.11117345
120	0x3e1660b1	0.14685322
121	0x3ceefcf1	0.029173346
122	0x3c6cbc5e	0.014449207
123	0xbe2e5658	-0.17025125
124	0x3dbd9637	0.09257167
125	0xbe3940d3	-0.18091135
126	0xbe08508d	-0.13311978
127	0x3c3d72cb	0.011563013
128	0xbcc74dbe	-0.024329063
129	0x3e03d94e	0.12875864
130	0xbd961931	-0.07329024
131	0x3d50d1df	0.0509814
132	0xbdd7dd90	-0.105403066
133	0xbe310a3e	-0.17289063
134	0x3d3a8de2	0.045545466
135	0xbe315250	-0.17316556
136	0x3bb91cb5	0.005649174
137	0xbdf03255	-0.1172835
138	0x3e11b2bd	0.1422834
139	0x3e1339df	0.14377545
140	0xbcedb8bc	-0.029018752
141	0x3cc93db1	0.02456555
142	0x3ccc0e4d	0.024909163
143	0xbdceb1c8	-0.10092503
144	0xbd15abc2	-0.036540754
145	0xbe2078eb	-0.15671127
146	0xbdc4ee4b	-0.09615763
147	0xbe0c64a7	-0.13710271
148	0xbdcc5e5b	-0.099789344
149	0x3d363001	0.044479374
150	0xbde40b32	-0.11134948
151	0xbd8c0470	-0.06836784
152	0xbe1371ac	-0.14398831
153	0xbdf7f86c	-0.121079296
154	0x3d4e4035	0.0503542
155	0x3dd254ed	0.102701046
156	0xbdb821ab	-0.08990797
157	0x3dc77afa	0.09740253
158	0x3ddb23db	0.10700198
159	0xbdb8fd75	-0.09032718
160	0xbc3e23c9	-0.0116052115
161	0x3d8bebe1	0.068321
162	0xbd841692	-0.064496174
163	0xbe0433be	-0.12910363
164	0x3e3e5d04	0.1859017
165	0xbd8bd2c8	-0.06827313
166	0x3ce77721	0.028255047
167	0x3e155f59	0.14587153
168	0x3dc12b02	0.09432031
169	0x3df8cf9f	0.121489756
170	0x3d95d563	0.07316091
171	0x3dd2fde6	0.103023335
172	0x3e0abde0	0.13548994
173	0x3e2861c1	0.1644354
174	0xbd1b35b6	-0.03789302
175	0x3da79344	0.081823856
176	0xbcf8eb78	-0.030385718
177	0x3d14556a	0.03621427
178	0xbe393b59	-0.18089046
179	0x3dd923a9	0.10602505
180	0x3e2741be	0.16333672
181	0x3df9bea8	0.12194568
182	0xbe1f71f4	-0.15570813
183	0x3d48bde0	0.049009204
184	0x3c1b3303	0.009472611
185	0xbe17437b	-0.14771836
186	0xbdfb1c0c	-0.12261209
187	0xbe2a06ff	-0.16604231
188	0x3c33773f	0.010953723
189	0x3e26076a	0.16213766
190	0xbd44ce40	-0.048048258
191	0x3de080d0	0.10962069
192	0x3d493494	0.049122408
193	0x3e3d1e68	0.1846863
194	0xbe04585f	-0.12924336
195	0xbbebfda1	-0.007201866
196	0x3e0dbb99	0.13841094
197	0x3e075ecc	0.13219756
198	0xbe155e2e	-0.14586708
199	0xbd64198f	-0.055688437
200	0xbd507294	-0.05089052
201	0xbbfdde86	-0.007747474
202	0x3e2efca3	0.17088561
203	0x3d8a1ed0	0.06744158
204	0xbd493fda	-0.04913316
205	0x3d302db8	0.04301235
206	0xbe1797b4	-0.14803964
207	0xbdc8c0f6	-0.098024294
208	0xbd908b37	-0.07057803
209	0xbc7d036e	-0.015442712
210	0x3d9d04b8	0.07666916
211	0x3e00a7d7	0.12564026
212	0x3d9f2504	0.07770732
213	0xbe2f435a	-0.17115536
214	0xbd949459	-0.072548576
215	0xbe076a96	-0.13224253
216	0xbd1acf42	-0.037795313
217	0xbe25ce9e	-0.161921
218	0x3d9e4f19	0.077299304
219	0xbdb2147a	-0.08695312
220	0x3de6bf99	0.11267013
221	0xbd724c74	-0.059154943
222	0x3e1c3e8f	0.15258239
223	0x3c8745a6	0.016512703
224	0xbe280e4f	-0.16411708
225	0x3e2dc03b	0.16967861
226	0xbd7d027b	-0.061769944
227	0xbe282945	-0.16421993
228	0xbd8b89ce	-0.068133935
229	0xbc873b51	-0.016507776
230	0xbd69968e	-0.057028346
231	0x3c68cfe4	0.014209721
232	0xbda88df7	-0.08230203
233	0xbdd8e478	-0.10590452
234	0xbd9a1e54	-0.07525316
235	0x3dd957eb	0.10612472
236	0x3d60533d	0.054766882
237	0xbe1939fd	-0.14963527
238	0x3e2c466f	0.16823743
239	0x3db21631	0.08695639
240	0xbdcadc93	-0.099053524
241	0x3cbcc094	0.023041047
242	0x3d5f8c8d	0.0545774
243	0x3d6dc3a6	0.058047913
244	0x3df4d808	0.11955267
245	0x3d0dc976	0.034615956
246	0x3ce5ed84	0.028067358
247	0xbde62756	-0.112379715
248	0x3d86c4f4	0.065805346
249	0xbd99c445	-0.075081386
250	0x3d00b142	0.031419046
251	0xbe2a0907	-0.16605006
252	0x3ddef629	0.10886795
253	0x3d43b815	0.047782976
254	0xbdde32cd	-0.10849533
255	0xbd95eedb	-0.07320949

lstm.bias_ih_l0 f4 [128]
0	0x3e182e5e	0.14861438
1	0x3d0bd87e	0.03414201
2	0x3d909b57	0.07060879
3	0x3e2f1241	0.17096807
4	0x3bf7789d	0.00755222
5	0xbda31d26	-0.07964544
6	0x3d7da7a2	0.061927445
7	0xbd8c1d9f	-0.06841587
8	0xbe2420f9	-0.16028203
9	0xbded25cc	-0.11579475
10	0x3e0dea55	0.13858922
11	0x3df45166	0.11929588
12	0xbe2a74b3	-0.1664608
13	0xbe0dbaec	-0.13840836
14	0x3dafb2f5	0.08579055
15	0x3b1ac88f	0.0023618077
16	0xbe0867d0	-0.13320851
17	0xbe46c6d8	-0.1941179
18	0xbd9d6154	-0.076845795
19	0x3e44f368	0.19233477
20	0xbda3a118	-0.079897106
21	0xbe0833a7	-0.13300954
22	0x3dc1ed9e	0.0946915
23	0xbd65ecb3	-0.056133937
24	0xbd51eba2	-0.051250108
25	0xbdf53c1d	-0.11974356
26	0x3dbd234a	0.092352465
27	0x3b26d938	0.0025459062
28	0xbb25fc91	-0.0025327543
29	0x3e2e3050	0.17010617
30	0xbe064803	-0.13113408
31	0x3e30a579	0.17250623
32	0x3d544cd1	0.05183107
33	0x3e390dd8	0.18071687
34	0xbdd50759	-0.10401792
35	0x3e15ad00	0.14616776
36	0xbda7ae97	-0.08187597
37	0xbe251401	-0.16120912
38	0x3d883070	0.06649864
39	0xbbe30a49	-0.0069287163
40	0xbbc6ba3c	-0.0060646813
41	0xbe1c0f1d	-0.1524014
42	0x3d938a47	0.07204109
43	0x3dc6cce6	0.0970705
44	0xbe268d8e	-0.16264936
45	0xbe1cf56f	-0.15328
46	0xbdb5968b	-0.088666044
47	0x3c6f7334	0.014614869
48	0xbdfd7cfa	-0.12377353
49	0x3cfc6796	0.030811112
50	0x3e214cad	0.15751906
51	0x3e27d337	0.16389166
52	0x3d5d8fdf	0.054092284
53	0x3aebdb02	0.0017994347
54	0x3e17f9b5	0.1484135
55	0xbd33b44c	-0.043873116
56	0xbde24284	-0.11047843
57	0xbddfb2ae	-0.10922752
58	0x3e160fa6	0.14654407
59	0x3d337ccb	0.043820184
60	0xbd657e27	-0.05602851
61	0x3d048b98	0.03235969
62	0x3d66f403	0.05638505
63	0x3e207231	0.1566856
64	0xbe0a19c7	-0.13486396
65	0x3caa7d86	0.020811807
66	0xbdd29877	-0.102829866
67	0x3bef3e4c	0.0073011275
68	0xbd0abd30	-0.03387183
69	0xbdfef291	-0.124486096
70	0xbe125029	-0.14288391
71	0x3ccd4096	0.025055211
72	0x3db212dc	0.086950034
73	0x3e1011f5	0.1406935
74	0x3e0b547c	0.13606447
75	0x3d4806c0	0.048834562
76	0xbcde18c5	-0.02711142
77	0xbcd1bab5	-0.025601724
78	0xbe1af02d	-0.15130682
79	0xbe153251	-0.14569975
80	0x3d86bd75	0.06579105
81	0x3c4700e4	0.012146208
82	0xbdcc8cde	-0.09987806
83	0xbc75c579	-0.015000694
84	0xbdfdac47	-0.12386375
85	0x3dcb0632	0.09913291
86	0xbdaec04c	-0.085327715
87	0x3dd9bcbc	0.10631701
88	0x3ddc21e0	0.10748649
89	0x3ddce951	0.10786689
90	0x3d9765f5	0.07392494
91	0xbd954775	-0.0728902
92	0xbd9934f5	-0.07480804
93	0xbd980f99	-0.0742485
94	0x3e2a3296	0.1662086
95	0xbd5fa079	-0.054596398
96	0x3cdbed36	0.02684651
97	0xbd76bc63	-0.060238253
98	0xbd9953b5	-0.07486669
99	0x3db32999	0.087481685
100	0x3d8da250	0.06915724
101	0x3de94569	0.11390192
102	0x3e2b67ac	0.16738766
103	0xbd8df190	-0.0693084
104	0x3deeeb6c	0.11665997
105	0x3e0bc896	0.13650736
106	0x3cd64e7f	0.026160477
107	0x3cb0bc5f	0.021574197
108	0x3dd5bff6	0.10437004
109	0x3c55e036	0.013053944
110	0xbdfb107e	-0.12259005
111	0x3e0ff8f9	0.1405982
112	0xbda52161	-0.08063007
113	0xbd9cb4b0	-0.07651651
114	0x3d883632	0.06650962
115	0xbc82f783	-0.015987163
116	0x3dc6ce65	0.097073354
117	0xbdb72df9	-0.089443155
118	0x3e033489	0.1281301
119	0xbcfab7b2	-0.03060517
120	0xbd6a679f	-0.057227727
121	0x3cade688	0.02122809
122	0xb9a17bf1	-0.00030800657
123	0xbe1a2a28	-0.15055144
124	0x3ddb1237	0.106968336
125	0xbdb51fc8	-0.088439524
126	0xbd9a75a8	-0.075419724
127	0xbdf30ae4	-0.118673116

lstm.bias_hh_l0 f4 [128]
0	0xbd79ac29	-0.0609552
1	0x3d336df2	0.043806024
2	0xbdc7c7c7	-0.097549014
3	0x3d5924af	0.0530135
4	0xbde1485b	-0.11000129
5	0xbe0c2549	-0.13686098
6	0xbd8afb81	-0.06786252
7	0x3d2c87ac	0.042121574
8	0xbe269249	-0.16266741
9	0x3e1384d8	0.14406145
10	0x3e05f51b	0.13081782
11	0x3dc0d1de	0.09415029
12	0x3d628f30	0.055312335
13	0xbc5d6fbe	-0.013515411
14	0x3d44e6eb	0.048071783
15	0xbc6ef3f5	-0.014584531
16	0x3e0ce717	0.13760029
17	0xbe22a102	-0.15881732
18	0x3d857924	0.06517246
19	0xbcbb7df2	-0.022887204
20	0xbde2ba98	-0.11070746
21	0x3c756ca7	0.014979518
22	0x3c80f202	0.015740398
23	0xbe1a1fe8	-0.15051234
24	0xbca62aeb	-0.020284137
25	0xbe1b2f8b	-0.15154855
26	0x3dde9c57	0.10869663
27	0x3e015af0	0.12632346
28	0xbe2af69a	-0.16695634
29	0x3d9ed362	0.07755162
30	0xbc599970	-0.013281211
31	0xbd86fc1d	-0.065910555
32	0xbe13a27d	-0.14417453
33	0x3d95c17e	0.07312296
34	0x3e1648fc	0.14676279
35	0x3e0a9a18	0.13535345
36	0x3ca56a9b	0.020192435
37	0x3db09a41	0.086231716
38	0xbe2766ac	-0.1634776
39	0xbdf436ff	-0.11924552
40	0xbda1505d	-0.07876656
41	0x3d857ced	0.06517968
42	0x3d7f960a	0.062398948
43	0x3c9b091a	0.018925238
44	0xbe0fb9e8	-0.14035761
45	0x3dc1b0b7	0.09457534
46	0xbe1eaf46	-0.15496549
47	0x3d9ff1d3	0.07809796
48	0x3e013d52	0.12621048
49	0xbe40cc86	-0.1882802
50	0x3d347573	0.04405732
51	0xbe216728	-0.15762007
52	0xbddf8dc2	-0.1091571
53	0x3ccbd6e4	0.024882741
54	0xbe0bda56	-0.13657507
55	0xbd875b67	-0.066092305
56	0xbc84f55b	-0.016230276
57	0xbcbafcd3	-0.022825634
58	0xbd58edd8	-0.0529612
59	0x3ddefba1	0.10887838
60	0xbc7c3889	-0.015394338
61	0xbc82a700	-0.015948772
62	0xbdcb5e13	-0.099300526
63	0x3d9a7818	0.07542437
64	0x3e044f2f	0.12920831
65	0x3d786e40	0.060652018
66	0x3e114742	0.14187339
67	0x3d2e79f3	0.04259677
68	0xbdefa34e	-0.1170107
69	0xbdb6d7fd	-0.08927915
70	0xbd996125	-0.07489232
71	0x3e2ece3b	0.17070858
72	0x3d03e212	0.03219802
73	0x3dbb889b	0.09156915
74	0x3d821ea3	0.063535
75	0xbe1a36f6	-0.15060028
76	0x3dfa8936	0.12233202
77	0xbd50c337	-0.05096742
78	0x3e19a400	0.15003967
79	0xbdb746a3	-0.0894902
80	0x3e05564c	0.13021201
81	0xbe202bb7	-0.15641676
82	0x3d3db743	0.04631735
83	0xbe004d4f	-0.12529491
84	0x3e2756d7	0.1634172
85	0xbd37d796	-0.044883333
86	0x3ce73123	0.028221672
87	0x3c23da65	0.0100008
88	0x3d02c151	0.031922642
89	0xbd5499c9	-0.051904473
90	0x3d535e2f	0.051603492
91	0x3e0d831c	0.13819546
92	0x3dd66651	0.10468734
93	0x3db614c4	0.088906795
94	0x3dd2010f	0.10254108
95	0xbdc6e7d3	-0.09712186
96	0x3e2deda4	0.16985184
97	0x3a08bb74	0.0005215921
98	0x3dec788c	0.1154643
99	0x3d986380	0.07440853
100	0xbdf58ba1	-0.11989523
101	0xbe05e140	-0.13074207
102	0x3e347bb6	0.17625317
103	0xbe091a70	-0.13388991
104	0xbda21dfc	-0.07915875
105	0xbd0867ce	-0.03330212
106	0x3d895cd2	0.06707157
107	0x3de4cc23	0.111717485
108	0xbd6da342	-0.058017023
109	0xbdf523f3	-0.119697474
110	0xbde86ebd	-0.11349247
111	0x3d045ffb	0.032318097
112	0xbe21add2	-0.15788963
113	0xbdeb17a6	-0.1147912
114	0xbcdbd014	-0.026832618
115	0x3e14919e	0.14508674
116	0xbe2c3b3f	-0.16819476
117	0x3e3e6555	0.18593343
118	0xbd2c8a01	-0.0421238
119	0xbe20fa99	-0.15720595
120	0xbcdc88aa	-0.026920635
121	0xbd896f96	-0.067107365
122	0x3c16f666	0.009214019
123	0xbd51cde6	-0.05122175
124	0xbe03b894	-0.1286338
125	0xbdd70cf2	-0.10500516
126	0x3d81556e	0.063151225
127	0xbd9ec633	-0.07752647

lstm.weight_ih_l0_reverse f4 [128, 7]
0	0xbe13a3ef	-0.14418004
1	0xbe2e4dae	-0.1702182
2	0xbd138f87	-0.03602555
3	0xbbbbd216	-0.0057318313
4	0xbd234983	-0.039865028
5	0x3e017e09	0.12645735
6	0xbe1850a2	-0.14874509
7	0x3bf2ee5f	0.00741367
8	0x3c3b9b41	0.01145059
9	0xbe15b806	-0.1462098
10	0xbe3078f5	-0.17233641
11	0xbe41fd9f	-0.18944405
12	0xbdad04c1	-0.08448172
13	0xbe3d4fd6	-0.18487486
14	0x3d8e7c01	0.069572456
15	0xbe10831b	-0.14112513
16	0x3be79674	0.007067496
17	0xbe29a35e	-0.16566226
18	0xbe2048ae	-0.15652725
19	0xbd71292c	-0.058877155
20	0x3c9aeae9	0.018910842
21	0xbe06d1e7	-0.13166009
22	0x3d880f42	0.06643535
23	0xbc1309bb	-0.008974488
24	0xbdb72bd1	-0.08943904
25	0x3ca0ca61	0.019627752
26	0xbdc74541	-0.09730006
27	0x3d2f5e7d	0.04281472
28	0x3cc7d9ef	0.024395911
29	0xbddbdce8	-0.10735494
30	0x3df4f11d	0.11960051
31	0x3db31b74	0.08745471
32	0xbb22a074	-0.0024814876
33	0xbd8ae808	-0.06782538
34	0xbdae5b7d	-0.08513544
35	0xbd93616b	-0.071963154
36	0xbd9c7d64	-0.07641104
37	0xbd5b28e2	-0.053505786
38	0x3c720441	0.014771522
39	0x3e04ad56	0.12956747
40	0xbdbb1af3	-0.091359995
41	0x3dfdca05	0.12392048
42	0x3df6cc7c	0.12050721
43	0xbe0a56e1	-0.13509704
44	0xbc87ed96	-0.016592782
45	0xbe146c18	-0.1449436
46	0xbd22fd7b	-0.03979252
47	0x3de89769	0.11357004
48	0xbda8306c	-0.08212361
49	0xbe035711	-0.12826182
50	0x3e1f6ee2	0.15569642
51	0xbe14f015	-0.14544709
52	0xbc8227aa	-0.015888054
53	0x3da361e8	0.079776585
54	0xbdced1e6	-0.10098629
55	0x3cf71715	0.030162374
56	0x3d5e43d9	0.054263923
57	0x3de74f02	0.112943664
58	0x3dfe2fe5	0.12411479
59	0xbdf68c37	-0.120384626
60	0xbce80445	-0.028322348
61	0xbd6a8883	-0.057259094
62	0x3da755f4	0.08170691
63	0xbd3dfcdf	-0.046383735
64	0xbde5046b	-0.11182483
65	0xb8ce52c6	-9.838263e-05
66	0x3b0d3af9	0.0021550043
67	0xbe1052cd	-0.14094086
68	0x3e2cac53	0.16862611
69	0xbdf0739c	-0.11740801
70	0xbdaef1ba	-0.085421994
71	0x3b9268b3	0.0044680475
72	0xbe04eb0b	-0.12980287
73	0x3d2b2306	0.041781448
74	0x3dca6328	0.09882194
75	0xbd825b29	-0.06365044
76	0xbdb3b1b9	-0.08774132
77	0x3d93bbc3	0.07213547
78	0x3e2c269f	0.16811608
79	0x3d0d2ad9	0.03446469
80	0xbd758bb0	-0.05994767
81	0x3d16a1f4	0.036775544
82	0x3c780296	0.015137335
83	0xbdbf21a7	-0.093325906
84	0xbd64f388	-0.055896312
85	0x3d78d2ad	0.06074779
86	0xbe23048b	-0.15919702
87	0x3e40d02f	0.18829416
88	0xbe02240a	-0.1270906
89	0x3e0281f4	0.12744886
90	0xbe1f1a1b	-0.15537302
91	0xbe2a68af	-0.16641496
92	0x3dbca855	0.09211794
93	0x3d9a61ac	0.07538161
94	0xbdfe655b	-0.12421676
95	0x3de4618c	0.11151418
96	0x3ce631e1	0.028099956
97	0x3e1ef1a3	0.15521865
98	0x3dbc7b42	0.09203197
99	0xbe142d97	-0.14470516
100	0x3da5c92f	0.08095013
101	0x3da5edf1	0.08102024
102	0x3db59636	0.08866541
103	0x3db380d3	0.08764806
104	0xbced5cc4	-0.028974898
105	0x3d1cf6bc	0.03832124
106	0x3c2ab826	0.010419881
107	0xbdea0ff8	-0.11428827
108	0xbd737eea	-0.059447207
109	0xbd81b168	-0.06332666
110	0xbdd583be	-0.104255185
111	0x3e2d86f8	0.16946018
112	0x3df306ab	0.11866506
113	0x3de9ed3b	0.11422201
114	0x3d7adfa3	0.061248433
115	0x3d36bd47	0.044614103
116	0xbd005037	-0.0313265
117	0x3e4fce76	0.20293602
118	0xbd34aa16	-0.04410752
119	0xbd59acbd	-0.05314325
120	0xbdb1661c	-0.08662054
121	0x3e0380c8	0.12842095
122	0xbdf7a29e	-0.12091564
123	0x3df624b2	0.12018718
124	0x3e169a95	0.14707406
125	0xbe243001	-0.16033937
126	0x3dd8269b	0.105542384
127	0xbe087d3c	-0.13329023
128	0x3d029917	0.03188428
129	0xbd765ae6	-0.06014528
130	0x3dffec28	0.12496215
131	0xbd2dd38e	-0.042438082
132	0x3c8d7611	0.017268213
133	0xbdec850d	-0.11548815
134	0xbc5c91ad	-0.013462466
135	0xbe195bd4	-0.14976436
136	0xbdb2f214	-0.08737579
137	0xbe069984	-0.13144499
138	0x3d6171ec	0.055040285
139	0x3db81913	0.089891575
140	0xbe0d71de	-0.13812968
141	0xbd10ef36	-0.03538438
142	0xbdc9be86	-0.098507926
143	0x3cb70445	0.022340903
144	0x3e3adb43	0.18247704
145	0x3dc4bd4c	0.09606418
146	0xbc8f926d	-0.017525876
147	0x3db557b0	0.08854616
148	0xbe1a067a	-0.15041533
149	0xbde76fba	-0.11300607
150	0xbd7ae098	-0.061249346
151	0x3d613358	0.054980606
152	0x3c257697	0.010099075
153	0xbdb00cd3	-0.08596196
154	0xbd0fd1fb	-0.035112362
155	0xbdf2553b	-0.11832663
156	0x3d5a3031	0.053268615
157	0xbd8cd27f	-0.068760864
158	0xbe35e8f0	-0.1776464
159	0x3dc17734	0.09446564
160	0xbbda6c7a	-0.0066657634
161	0x3d80ef69	0.06295664
162	0x3d47800f	0.04870611
163	0x3e15a166	0.1461235
164	0xbd9c5705	-0.07633785
165	0xbd7baaf7	-0.06144234
166	0xbde44e3b	-0.11147734
167	0x3d6372e5	0.055529494
168	0xbd9281a1	-0.07153631
169	0x3dc48f5e	0.095976576
170	0xbe0563dd	-0.13026376
171	0xbd1c0864	-0.03809394
172	0x3c94c856	0.018161934
173	0x3d136a60	0.03599012
174	0xbe2029d9	-0.15640964
175	0x3e372c99	0.17888106
176	0xbcffe709	-0.031238096
177	0x3d121ee9	0.03567401
178	0x3e121cdd	0.14268823
179	0xbe25f07f	-0.16205023
180	0xbda73c90	-0.08165848
181	0x3daaa2ae	0.0833181
182	0xbdbe345f	-0.09287333
183	0xbd867b9b	-0.065665446
184	0x3d67a31e	0.056552045
185	0xbd8c7e40	-0.06860018
186	0x3df0c622	0.11756541
187	0xbe2524a1	-0.16127254
188	0x3dbfb888	0.093613684
189	0xbd92f780	-0.07176113
190	0x3cacd9dc	0.021099977
191	0xbe2c39ed	-0.16818972
192	0xbe23528f	-0.15949462
193	0xbd86c3ad	-0.06580291
194	0xbcd70567	-0.026247693
195	0x3d626cb8	0.055279464
196	0xbe33a586	-0.17543611
197	0xbda41143	-0.08011105
198	0x3d548659	0.051885936
199	0xbde76534	-0.112986
200	0xbd9500dd	-0.07275555
201	0x3d45ac09	0.04825977
202	0x3e240fe7	0.16021691
203	0x3d8bdfa0	0.068297625
204	0x3cef3aa9	0.029202776
205	0x3e0dc03e	0.13842866
206	0xbdf38a51	-0.11891616
207	0xbd954712	-0.07288946
208	0x3def51ca	0.11685522
209	0x3dab27c0	0.08357191
210	0x3dcb9a29	0.09941513
211	0xbe1eb77f	-0.15499686
212	0x3d9d8ada	0.076924995
213	0x3e0e77c3	0.13912873
214	0x3cef472a	0.029208738
215	0xbe442ddb	-0.19158117
216	0xbe09f11a	-0.13470879
217	0x3d14a29b	0.036287885
218	0x3e3d6887	0.18496905
219	0xbe23daec	-0.16001481
220	0x3bde94ae	0.0067926263
221	0x3d708e9d	0.058729757
222	0xbd7e71b2	-0.062120147
223	0x3cff6df4	0.03118036
224	0xbdc61e24	-0.096737176
225	0xbdabf16a	-0.083956555
226	0xbdc787ed	-0.09742723
227	0xbc1828b0	-0.009287044
228	0xbdbcf497	-0.09226339
229	0x3df07bc0	0.117423534
230	0xbdb0bd41	-0.08629847
231	0xbd575438	-0.05257055
232	0x3cc30138	0.023804292
233	0x3dc24ba7	0.09487086
234	0x3cbd5659	0.023112463
235	0xbdff04b9	-0.12452073
236	0x3d820e86	0.063504264
237	0x3d10a4d8	0.035313457
238	0x3dbcc24f	0.09216749
239	0x3dce508b	0.10073956
240	0x3da0dc6e	0.078545436
241	0xbe242dd1	-0.16033103
242	0xbcf6affd	-0.030113215
243	0x3dd55b35	0.10417787
244	0xbd5556f2	-0.05208487
245	0xbe372db7	-0.17888533
246	0x3e0b9131	0.13629605
247	0x3ca763d1	0.020433338
248	0x3e56a91e	0.2096295
249	0x3e188ee1	0.14898254
250	0xbd1f35b9	-0.038869593
251	0xbe4ebfd5	-0.20190366
252	0xbdad7c4d	-0.08470974
253	0x3e2325cd	0.15932389
254	0xbd1083e7	-0.035282042
255	0xbdfe9cf9	-0.12432284

lstm.weight_hh_l0_reverse f4 [128, 32]
0	0x3d5201a7	0.051271107
1	0xbe261c43	-0.16221718
2	0xbe115ab5	-0.14194758
3	0xbd643dec	-0.055723116
4	0xbbe636ac	-0.0070255604
5	0xbb6441b0	-0.0034829192
6	0xbe17526b	-0.14777534
7	0xbe0a28b1	-0.13492085
8	0x3d8db665	0.069195546
9	0x3dbda339	0.09259648
10	0x3dbfa47f	0.09357547
11	0x3d8e7039	0.069549985
12	0x3deed821	0.11662317
13	0xbbd63837	-0.006537463
14	0x3d9e6643	0.077343486
15	0xbdb2b3af	-0.08725678
16	0x3e16e1b9	0.14734544
17	0xbbe16031	-0.006877922
18	0x3e07c2da	0.13257924
19	0xbc89c27f	-0.016816376
20	0x3e1eca61	0.15506889
21	0x3d965a6a	0.07341464
22	0x3e0d954e	0.13826486
23	0x3ac373ba	0.0014911809
24	0xbd50f684	-0.051016346
25	0x3c8da027	0.01728828
26	0x3bb9cb83	0.0056700124
27	0x3e2bd09a	0.16778794
28	0x3db479d3	0.088122986
29	0x3d5b4a52	0.053537674
30	0xbd9bf0ce	-0.07614289
31	0x3dd39a58	0.10332173
32	0xbc06160a	-0.008183965
33	0x3e09d8c8	0.13461602
34	0xbd4873e9	-0.048938666
35	0x3df487d9	0.119399734
36	0xbdecc1c0	-0.115603924
37	0x3d08b4b0	0.033375442
38	0xbe361c6d	-0.17784281
39	0xbd94070c	-0.072279066
40	0x3df02e51	0.11727584
41	0xbdcb4780	-0.09925747
42	0x3dc948c8	0.09828335
43	0x3d951b10	0.072805524
44	0xbdae045c	-0.08496925
45	0xbd36521b	-0.044511896
46	0xbdb67536	-0.08909075
47	0x3d9db6f1	0.07700909
48	0xbd1fb439	-0.038990233
49	0xbda0c318	-0.07849711
50	0xbe1ef16f	-0.15521787
51	0x3cd6c183	0.02621532
52	0x3db3ef8c	0.08785924
53	0xbc38471b	-0.011247422
54	0xbdfd3b5e	-0.12364839
55	0x3e1483c0	0.14503384
56	0xbe06ab70	-0.13151336
57	0xbe2d8f7b	-0.16949265
58	0xbda40f9c	-0.0801079
59	0xbdf16d4d	-0.117884256
60	0x3d084ade	0.033274524
61	0x3e3c4cb1	0.1838863
62	0xbd5c42d0	-0.053774655
63	0xbdf2c1ad	-0.11853347
64	0xbde88955	-0.11354319
65	0x3da0435e	0.07825349
66	0x3e220173	0.15820865
67	0xbd8bb6c7	-0.068219714
68	0x3e283a2e	0.16428444
69	0xbe0fd87d	-0.14047427
70	0x3d0df7c7	0.034660127
71	0xbc3cc365	-0.011521195
72	0xbd0f7483	-0.035023224
73	0xbe0beb2a	-0.13663927
74	0x3db779b1	0.08958758
75	0x3d07ce1c	0.033155546
76	0xbe3fb9c8	-0.18723214
77	0x3cface9b	0.030616095
78	0x3dea7d80	0.114497185
79	0x3bddb6ce	0.006766177
80	0x3dbabb67	0.091177754
81	0x3bfa8d8b	0.007646268
82	0x3d73595e	0.0594114
83	0x3d91b27c	0.07114121
84	0xbe1541b6	-0.14575848
85	0x3de86e57	0.11349171
86	0xbd286076	-0.041107617
87	0xbd24276d	-0.04007666
88	0x3cd98677	0.026553376
89	0x3ddc71bc	0.107638806
90	0x3d50f691	0.051016394
91	0x3db5ea68	0.088826
92	0xbd85569c	-0.0651066
93	0x3dbf2f77	0.09335225
94	0x3e295c57	0.16539131
95	0xbdd241dc	-0.10266468
96	0xbd637c81	-0.055538658
97	0x3e16bbae	0.14720032
98	0x3e189b3a	0.14902964
99	0x3e10d84c	0.1414501
100	0xbe1715e8	-0.1475445
101	0x3e3631e8	0.17792475
102	0x3e28ad76	0.1647242
103	0xbe37e0f9	-0.17956914
104	0xbdacd634	-0.084392935
105	0x3a426b8f	0.000741654
106	0x3e4c5ce5	0.19957311
107	0xba1acabd	-0.0005904844
108	0x3e3536a0	0.17696619
109	0x3e30f04d	0.17279167
110	0xbd2534ac	-0.040333435
111	0xbe06b569	-0.1315514
112	0x3d2ff2cc	0.04295616
113	0xbdbaf6f2	-0.09129132
114	0xbe41eed3	-0.1893876
115	0x3ddb1a41	0.10698367
116	0xbe1e1a99	-0.15439834
117	0x3e0fa087	0.1402608
118	0x3b4e8cbe	0.0031516994
119	0x3e48d8a0	0.19613886
120	0xbd80d85c	-0.06291267
121	0x3e3f4adc	0.186809
122	0xbd4f1350	-0.050555527
123	0x3b723e16	0.0036963276
124	0x3c8b29d3	0.016987717
125	0x3da661bd	0.08124111
126	0x3db1d980	0.08684063
127	0xbdc8c542	-0.09803249
128	0xbdf8e8fa	-0.12153812
129	0xbd603902	-0.054741867
130	0x3de95e9c	0.113949984
131	0x3d444606	0.047918342
132	0xbccf801a	-0.025329638
133	0xbd9227ae	-0.071364745
134	0xbdeadf51	-0.114683755
135	0x3d650277	0.055910554
136	0xbe2c87ae	-0.16848633
137	0xbde10c7e	-0.10988711
138	0xbdddc08b	-0.1082774
139	0xbc6cc626	-0.014451539
140	0xbe225930	-0.15854335
141	0xbd7e8a3c	-0.06214355
142	0x3dcea57e	0.10090159
143	0xbdc5467e	-0.09632586
144	0xbe267ed2	-0.16259316
145	0xbdedea8f	-0.11617004
146	0xbd560c06	-0.05225756
147	0xbbbf60fe	-0.00584042
148	0xbe1b5673	-0.15169697
149	0xbe1d7b60	-0.15379095
150	0x3e03a539	0.12855996
151	0x3b55b98b	0.0032611813
152	0x3d7faf7c	0.062423214
153	0xbdb49901	-0.08818246
154	0xbd37bba1	-0.04485667
155	0xbe05455a	-0.13014737
156	0x3d878359	0.066168495
157	0x3dc2e417	0.09516161
158	0x3d9c539a	0.07633133
159	0xbdbd091c	-0.09230253
160	0xbd85ce9e	-0.0653355
161	0xbdd4ef1e	-0.103971705
162	0x3e15c9cb	0.14627759
163	0xbd8a7151	-0.06759895
164	0x3d29024b	0.041261952
165	0xbc4cc1d2	-0.012497382
166	0xbcbae16b	-0.022812566
167	0xbde03895	-0.10948292
168	0xbda0bfc5	-0.07849077
169	0x3e1edacc	0.15513152
170	0xbe01d30d	-0.12678166
171	0x3d1bf237	0.03807279
172	0x3d73e4ee	0.059544496
173	0xbd99dc7e	-0.07512759
174	0x3e2075e5	0.15669973
175	0xbe0e755a	-0.13911954
176	0x3c6e877c	0.014558669
177	0x3df207d5	0.118179
178	0xbe0519de	-0.12998149
179	0x3cca4ae1	0.024693908
180	0x3d93e130	0.072206855
181	0x3e15a4a7	0.14613591
182	0x3c09f6da	0.00842067
183	0xbe20aadb	-0.15690176
184	0x3cb58a8f	0.022160796
185	0xbe0d1452	-0.13777283
186	0x3ddcea03	0.10786822
187	0xba869414	-0.0010267519
188	0xbe2838ef	-0.16427968
189	0xbd1db162	-0.038499244
190	0xbe21661a	-0.15761605
191	0xbe14de50	-0.1453793
192	0x3d38cec5	0.045119066
193	0xbd990c81	-0.07473088
194	0xbceeda3f	-0.029156802
195	0x3e0676ed	0.13131304
196	0xbde8a513	-0.113596104
197	0x3df7e04d	0.12103329
198	0xbdd6fc62	-0.10497357
199	0x3e2bb248	0.16767228
200	0xbe42360b	-0.18965928
201	0x3ba1297a	0.0049182745
202	0xbd1d313b	-0.038377028
203	0x3d973f73	0.07385149
204	0xbd87a6f9	-0.066236444
205	0xbd1bd673	-0.03804631
206	0xbe2327c4	-0.15933138
207	0xbe31494d	-0.17313118
208	0x3da04958	0.07826489
209	0x3da0e9fc	0.07857129
210	0xbe06bef2	-0.13158777
211	0xbe3ba46c	-0.1832444
212	0x3de2ed63	0.11080434
213	0x3e0a9f34	0.13537294
214	0x3ca28a2d	0.019841278
215	0x3d5f6de1	0.054548148
216	0x3d2dfbc6	0.042476438
217	0x3e26daaa	0.16294351
218	0x3deed8df	0.11662459
219	0xbd35fb9e	-0.044429414
220	0x3e080c7f	0.13286017
221	0x3d16338e	0.03667026
222	0x3cd86185	0.026413688
223	0xbdd96098	-0.10614127
224	0xbe15a623	-0.14614157
225	0x3db5f635	0.08884851
226	0xbda24fa3	-0.07925346
227	0x3d211f18	0.039336294
228	0x3c140e6b	0.009036641
229	0xbdbbff61	-0.09179569
230	0xbe3c3bdb	-0.18382208
231	0xbe07fd2c	-0.13280171
232	0xbd9c4336	-0.07630007
233	0xbdadad51	-0.08480323
234	0x3db902c7	0.09033733
235	0x3d34abfc	0.04410933
236	0x3e24a18c	0.1607725
237	0xbde21a82	-0.11040212
238	0xbdc08cb9	-0.09401841
239	0x3df60376	0.12012379
240	0x3d4e6975	0.05039354
241	0xbd83065b	-0.063976966
242	0xbd8c9e6f	-0.06866156
243	0xbe1f5aa2	-0.15561917
244	0x3d7c7f27	0.0616447
245	0xbe2d616b	-0.16931693
246	0x3bf9c1d9	0.0076219854
247	0xbe33919c	-0.17536014
248	0xbda926d8	-0.08259362
249	0xbe23d578	-0.159994
250	0xbe06ea7f	-0.1317539
251	0x3dc651dd	0.09683583
252	0x3ca9e6d6	0.020739954
253	0xbd034281	-0.032045845
254	0xbcbd49e9	-0.023106532
255	0xbcac89fd	-0.021061892

lstm.bias_ih_l0_reverse f4 [128]
0	0x3d34b627	0.044119027
1	0xbe0aecd1	-0.13566901
2	0x3ddec27f	0.10876941
3	0xbd1fd0bb	-0.03901742
4	0xbabc0504	-0.0014344756
5	0xbdf4164f	-0.119183175
6	0xbca73cf6	-0.02041481
7	0x3ce19cfc	0.027540676
8	0xbde35e13	-0.111019276
9	0x3e340d0f	0.17583106
10	0xbdb9f25e	-0.09079431
11	0x3d152c23	0.036419045
12	0x3e21aa9e	0.15787742
13	0x3df8e6f9	0.121534295
14	0x3d582424	0.05276884
15	0xbd9d6c92	-0.07686724
16	0xbdd01530	-0.10160291
17	0xbe00f72f	-0.12594293
18	0xbe1bd15c	-0.15216583
19	0x3dd3b8fa	0.10338016
20	0xbc4e0369	-0.012574055
21	0xbda462ce	-0.08026658
22	0x3d7c0c7a	0.061535336
23	0xbc0e7ba4	-0.00869647
24	0x3de9f842	0.114243045
25	0xbdda62be	-0.10663365
26	0x3da87a44	0.08226445
27	0xbe20d6c5	-0.15706928
28	0x3dcf6497	0.10126608
29	0xbd141e94	-0.036161974
30	0xbd808734	-0.06275788
31	0x3db174eb	0.086648785
32	0xbd43f3ed	-0.047840048
33	0x3bcecfea	0.0063114064
34	0x3d87a379	0.06622977
35	0x3e346bd4	0.17619258
36	0xbdf5a8e7	-0.11995106
37	0xbe100a0a	-0.1406633
38	0x3cbfd4bb	0.023416867
39	0x3cb6f721	0.022334637
40	0x3e0c946d	0.13728495
41	0x3df41aab	0.11919149
42	0xbdaab775	-0.08335773
43	0x3e260b07	0.16215144
44	0x3d96e222	0.0736735
45	0xbd2bbba7	-0.041927006
46	0xbdd0a075	-0.10186855
47	0xbe1bdae3	-0.15220217
48	0xbc871a3e	-0.016492005
49	0x3e2c7257	0.16840492
50	0x3dc8c7ce	0.09803735
51	0x3d90aa66	0.07063751
52	0x3d56e176	0.05246111
53	0x3e206d52	0.15666702
54	0x3dbab874	0.09117213
55	0x3df34637	0.11878627
56	0xbe0c8e98	-0.1372627
57	0xbe0262c8	-0.12732995
58	0xbdc6aebd	-0.097012974
59	0x3cd97a68	0.026547626
60	0x3d24ae33	0.04020519
61	0x3e37fdb4	0.17967874
62	0xbd95a159	-0.07306165
63	0x3d2d1046	0.042251848
64	0x3d1fefb0	0.039046943
65	0xbce51f54	-0.02796904
66	0x3d1f2804	0.03885652
67	0x3d3231c4	0.04350449
68	0xbe32a15d	-0.17444368
69	0xbd897853	-0.06712403
70	0x3d7de86c	0.061989233
71	0x3e33160a	0.17488876
72	0x3e370fa2	0.17877057
73	0xbd8986c9	-0.06715161
74	0xbcf6b981	-0.030117752
75	0xbde59208	-0.11209494
76	0x3d6a2fcd	0.057174493
77	0x3dc4f9cf	0.0961796
78	0x3d1044c7	0.03522184
79	0xbe1b80d7	-0.15185867
80	0x3dd81b94	0.10552135
81	0xbdb72289	-0.08942134
82	0xbdb9563c	-0.09049651
83	0x3cd994a3	0.026560133
84	0x3c5f434b	0.013626884
85	0x3dba45fd	0.090953805
86	0x3d4f5ec1	0.050627474
87	0x3df86c49	0.12130029
88	0x3de60399	0.11231155
89	0x3dffaeaa	0.124844864
90	0xbe1abc0a	-0.15110794
91	0xbdcf667e	-0.10126971
92	0xbe1fdd27	-0.15611707
93	0x3da65d90	0.081233144
94	0x3dabac21	0.0838244
95	0xbcf82975	-0.030293206
96	0x3db05b47	0.0861116
97	0x3e1f6ceb	0.15568893
98	0xbd7b6f68	-0.061385542
99	0xbd864563	-0.06556203
100	0xbdbf31ae	-0.093356475
101	0x3dc7b42f	0.09751164
102	0xbd4c343c	-0.049854502
103	0xbd4b6d00	-0.049664497
104	0x3e12da9c	0.14341205
105	0x3cf6303e	0.0300523
106	0x3e0aadab	0.13542812
107	0x3e2cd276	0.1687716
108	0xbd86da28	-0.06584579
109	0x3da7df31	0.08196867
110	0x3db5a3d4	0.08869138
111	0x3de27bf9	0.11058802
112	0xbe043bf6	-0.12913498
113	0x3df22ae3	0.11824586
114	0x3d26c471	0.040714685
115	0xbdaea0a1	-0.08526731
116	0x3c8c14c0	0.017099738
117	0xbce2036c	-0.027589522
118	0xbe28a7ed	-0.16470309
119	0xbe020302	-0.1269646
120	0xbe1ff09b	-0.15619127
121	0xbe11e40a	-0.14247146
122	0x3a999315	0.0011716807
123	0x3ddfba88	0.1092425
124	0x3bf0b63f	0.007345944
125	0xbc80deb7	-0.015731199
126	0xbdeb5f2e	-0.114927635
127	0xbdfabe1a	-0.1224329

lstm.bias_hh_l0_reverse f4 [128]
0	0xbd92f8b3	-0.07176342
1	0xbd930362	-0.071783796
2	0x3e0f67b8	0.1400441
3	0xbdfe73ea	-0.124244526
4	0xbe332fab	-0.17498653
5	0x3d1f9ab8	0.03896591
6	0xbd4fc5e6	-0.05072584
7	0xbe0ebf32	-0.13940123
8	0x3d1a0a17	0.03760728
9	0xbd022080	-0.031769276
10	0xbdd8ee80	-0.10592365
11	0x3dfd821b	0.12378331
12	0xbd8cd1ef	-0.06875979
13	0x3d69d32e	0.057086162
14	0x3e21dee1	0.15807678
15	0x3d23758e	0.03990703
16	0xbcbef5c9	-0.023310559
17	0xbdf90ff3	-0.12161245
18	0x3e09b16b	0.13446586
19	0xbdef4576	-0.116831705
20	0x3ca723e7	0.020402862
21	0x3d8d6fef	0.06906115
22	0xbd0529f7	-0.032510724
23	0x3db1c5ee	0.0868033
24	0xbe267e38	-0.16259086
25	0x3e0884d6	0.13331923
26	0x3d4a444c	0.04938154
27	0xba1a5116	-0.00058867165
28	0xbddce4c2	-0.107858196
29	0xbdea859d	-0.11451266
30	0x3c787598	0.015164755
31	0x3da14d59	0.07876081
32	0x3d8c8277	0.06860822
33	0x3db98585	0.0905867
34	0xbbcf0706	-0.006317976
35	0xbd3c1665	-0.045919795
36	0x3df2a4fa	0.11847873
37	0xbd1c9c37	-0.038234916
38	0xbd155a84	-0.036463276
39	0xbe332866	-0.1749588
40	0x3e103408	0.14082348
41	0x3deab81b	0.114608966
42	0xbcb8a3d8	-0.022539064
43	0x3e03f3a8	0.12885916
44	0x3ddc9188	0.107699454
45	0xbe0f17d3	-0.13973932
46	0x3e0f6354	0.14002734
47	0x3d3bb38f	0.045825537
48	0x3c6b6e20	0.014369518
49	0x3ca3da37	0.020001514
50	0x3dc54009	0.09631354
51	0x3df48949	0.119402476
52	0xbe1cc033	-0.15307693
53	0xbd93f058	-0.07223576
54	0xbd8b2fe9	-0.067962475
55	0x3d02fa27	0.031976845
56	0xbb5fce2d	-0.003414999
57	0x3d96ae82	0.073575035
58	0xbd446160	-0.047944427
59	0x3d0d6c6e	0.034527235
60	0x3c39f7eb	0.011350612
61	0x3d9ca4f1	0.076486476
62	0xbdd65539	-0.10465474
63	0x3e114f63	0.1419044
64	0x3b6e8c20	0.003639944
65	0x3db54632	0.08851279
66	0xbe1bc0cf	-0.1521027
67	0x3e3e0a37	0.18558584
68	0xbc82ba89	-0.015958088
69	0xbc889e2f	-0.01667699
70	0x3d2410f3	0.040055227
71	0xba8b4b42	-0.0010627287
72	0xbe257352	-0.16157272
73	0x3d961d4d	0.073298074
74	0x3e055d44	0.1302386
75	0x3d52d5b3	0.05147333
76	0x3e1a1ae7	0.15049325
77	0x3df78206	0.12085347
78	0x3cd40e6e	0.025885787
79	0xbe2858ae	-0.16440079
80	0xbbef5baf	-0.0073046307
81	0xbdbd202a	-0.092346504
82	0x3dcfc7aa	0.10145505
83	0xbd999125	-0.07498387
84	0xbddba7aa	-0.10725339
85	0x3dbf823e	0.093510136
86	0xbdfe853e	-0.12427758
87	0x3e27dcdd	0.16392846
88	0x3dc72f1e	0.09725784
89	0x3e07334b	0.1320316
90	0xbcdca7e4	-0.026935525
91	0x3e2e5436	0.17024311
92	0x3d7bee0c	0.061506316
93	0xbd09210c	-0.03347878
94	0xbe30691e	-0.17227599
95	0x3e089842	0.13339332
96	0xbdbe9d40	-0.09307337
97	0x3d74f294	0.059801653
98	0xbbf1eae7	-0.007382739
99	0x3d2efe52	0.042723008
100	0xbd72018d	-0.05908351
101	0x3c4bcbeb	0.012438755
102	0xbdc1bb82	-0.094595924
103	0xbe338bc6	-0.17533788
104	0x3dd752f7	0.10513871
105	0x3bf5f557	0.0075060534
106	0xbddef665	-0.1088684
107	0xbd83e102	-0.06439401
108	0x3e3a1eca	0.18175808
109	0x3d85d6c8	0.06535107
110	0x3bc24d36	0.0059296144
111	0x3d238e0d	0.039930392
112	0xbe0af17e	-0.13568684
113	0x3e131337	0.14362799
114	0xbdaf0d56	-0.085474655
115	0xbe2b2ab6	-0.16715512
116	0xbd902fc6	-0.07040362
117	0xbe00d165	-0.12579878
118	0x3e1b6f5d	0.151792
119	0x3cf83912	0.03030065
120	0xbdf7d262	-0.12100674
121	0xbce721bf	-0.028214334
122	0xbe4cdd38	-0.20006263
123	0x3d3fdaa3	0.046839368
124	0x3e18d346	0.14924344
125	0xbd872788	-0.06599337
126	0x3e34cbf3	0.17655925
127	0x3e19e44d	0.15028496

lstm.weight_ih_l1 f4 [128, 64]
0	0x3dc55201	0.09634782
1	0xbe1fc058	-0.15600717
2	0x3c9c79a0	0.019100964
3	0x3d625d4b	0.055264752
4	0x3df17bce	0.11791192
5	0xbde92cfd	-0.11385534
6	0x3e111777	0.14169107
7	0x3e01f067	0.12689362
8	0x3e383aac	0.17991132
9	0x3dc71299	0.09720344
10	0xbd59932f	-0.05311888
11	0xbdc9bb8b	-0.09850224
12	0x3dcfc8ca	0.10145719
13	0x3b6fe420	0.003660448
14	0x3ce8ec7b	0.028433075
15	0xbdb637f2	-0.088973895
16	0xbc98ca80	-0.018651247
17	0xbdb221a6	-0.08697824
18	0x3e49c924	0.19705635
19	0x3cbec42c	0.023286901
20	0xbd5fe7dc	-0.054664478
21	0xbd6eac79	-0.05826995
22	0xbdb25648	-0.08707863
23	0xbdcd31b0	-0.10019243
24	0xbdd6ca11	-0.1048776
25	0xbda33f6a	-0.0797108
26	0xbdf5e221	-0.12006021
27	0x3d8e1d99	0.06939239
28	0x3e2ccd49	0.16875185
29	0xbd669cec	-0.056301996
30	0x3d93fa1e	0.072254404
31	0x3e0f967e	0.14022252
32	0xbe3f5662	-0.18685296
33	0xbe018c04	-0.12651068
34	0x3e0433ea	0.12910429
35	0x3c3d6f34	0.011562157
36	0x3c5088d6	0.012727937
37	0x3e3bad74	0.18327886
38	0x3e0c4b79	0.13700666
39	0x3de1a33e	0.11017464
40	0x3df7d23b	0.12100645
41	0x3cfffff8	0.031249985
42	0xbd8c02fd	-0.068365075
43	0x3be3f869	0.006957103
44	0xbdb5b004	-0.08871463
45	0x3d062560	0.032750487
46	0xbe0cadba	-0.13738146
47	0x3e12787a	0.1430377
48	0xbdd3846c	-0.10327992
49	0xbd9f7c62	-0.07787396
50	0xbde13540	-0.10996485
51	0x3df5e5cd	0.12006722
52	0xbc0e9383	-0.008702162
53	0x3de7f7c9	0.11326558
54	0x3dc0d465	0.09415511
55	0xbd6542fd	-0.055972088
56	0x3d971f5d	0.07379029
57	0xbd917a76	-0.07103436
58	0xbda592bb	-0.08084627
59	0xbdc78cce	-0.09743653
60	0xbd57e093	-0.052704405
61	0xbd65ee57	-0.0561355
62	0xbe1750dc	-0.14776939
63	0xbce48b11	-0.027898343
64	0x3c45aed4	0.012065608
65	0xbd283a8a	-0.041071452
66	0x3d147b17	0.0362502
67	0x3d8a0013	0.067382954
68	0xbc61da3d	-0.013784942
69	0xbc22ef8d	-0.009944809
70	0xbd220a5d	-0.039560664
71	0x3dee43ff	0.11634063
72	0x3ccca08e	0.024978902
73	0x3dd06162	0.10174824
74	0xbd8ee113	-0.06976523
75	0x3d7e6608	0.062109023
76	0x3dab14c6	0.083535716
77	0x3db6c968	0.08925134
78	0x3da34469	0.079720326
79	0xbe130283	-0.14356427
80	0xbca650f8	-0.02030228
81	0xbd86c6b9	-0.06580872
82	0x3d81cc34	0.06337777
83	0xbc6d9a08	-0.014502056
84	0xbda1103c	-0.078644246
85	0xbd49fd3c	-0.04931377
86	0xbd93933e	-0.072058186
87	0x3d9c34be	0.07627247
88	0x3dee145e	0.116249785
89	0x3c6d51bc	0.014484819
90	0x3dee6f90	0.116423726
91	0x3e3a8746	0.18215665
92	0x3d2529ba	0.040322997
93	0x3dc88105	0.097902335
94	0x3df66a99	0.12032051
95	0x3dfb531f	0.122717135
96	0xbe243692	-0.16036442
97	0xbbd15af9	-0.0063890186
98	0xbe0e27ab	-0.1388232
99	0x3c41f1f3	0.01183747
100	0xbdd2722b	-0.10275682
101	0xbd8e2c76	-0.06942074
102	0xbda17003	-0.07882693
103	0xbd917326	-0.07102041
104	0xbb197d18	-0.002342051
105	0xbd19680a	-0.037452735
106	0xbd9cc0d7	-0.07653969
107	0xbcae09c3	-0.02124489
108	0xbdff1cd1	-0.12456668
109	0xbd03cfa1	-0.032180432
110	0xbd66fd4f	-0.056393918
111	0xbd04e500	-0.032444954
112	0x3deb0c16	0.114769146
113	0x3ba97668	0.005171586
114	0xbdf052ab	-0.11734518
115	0x3e14d93e	0.14535996
116	0xbe03aa80	-0.1285801
117	0xbe1250ef	-0.14288686
118	0xbca8ed91	-0.020621093
119	0x3dcbf15e	0.099581465
120	0xbde016bc	-0.10941836
121	0x3dea50ce	0.114411935
122	0xbe02a4d7	-0.12758194
123	0x3d3c1560	0.045918822
124	0xbcf27f3d	-0.029601688
125	0x3e47ae02	0.19499972
126	0x3da47420	0.080299616
127	0x3d93bccc	0.072137445
128	0xbc802115	-0.015640775
129	0xbd5a0711	-0.053229395
130	0xbe094d8d	-0.1340849
131	0x3e224c88	0.15849507
132	0x3d1cc9e3	0.03827847
133	0xbdf5badc	-0.11998531
134	0xbe2ad1ce	-0.16681597
135	0x3cdda762	0.027057353
136	0xbd175d88	-0.036954433
137	0x3d457a01	0.048212055
138	0x3d7696f1	0.060202543
139	0xbde209f5	-0.110370554
140	0x3d64e6cb	0.055884164
141	0x3e0ee69d	0.1395516
142	0xbe1ae1a2	-0.15125135
143	0xbdc4589e	-0.09587215
144	0xbe01f01b	-0.12689249
145	0x3c99fdb0	0.018797725
146	0x3e238f4d	0.15972634
147	0xbe05ea35	-0.13077624
148	0x3dcf2139	0.101137586
149	0xbda05f59	-0.07830686
150	0x3d829479	0.06375975
151	0x3d8814b7	0.06644576
152	0x3e04e9db	0.12979834
153	0x3d91baf0	0.071157336
154	0xbd4c8a4c	-0.049936578
155	0xbc86ae1f	-0.01644045
156	0xbe1b5506	-0.15169153
157	0x3d65513f	0.055985685
158	0xbddd0c15	-0.1079332
159	0xbcb5a4af	-0.022173254
160	0x3e0016d3	0.12508707
161	0x3d804e77	0.06264966
162	0xbdf89b3c	-0.121389836
163	0x3e1da556	0.15395102
164	0x3e208293	0.1567481
165	0xbe113312	-0.14179638
166	0x3c8b74f3	0.01702354
167	0xbcb0691b	-0.021534493
168	0xbdf8107c	-0.12112519
169	0x3dd0dbc3	0.10198166
170	0xbd097e32	-0.033567615
171	0x3d8ab844	0.06773427
172	0xbe255542	-0.16145805
173	0xbe029b47	-0.12754546
174	0x3d048e32	0.03236217
175	0xbce11eb2	-0.027480457
176	0xbe1e91f7	-0.15485369
177	0x3d2ba692	0.0419069
178	0x3dd162a9	0.10223896
179	0x3debad30	0.11507642
180	0x3d5af89d	0.053459752
181	0xbd218aa2	-0.03943885
182	0x3e236bbb	0.15959065
183	0xbe18eea1	-0.1493478
184	0xbd883b6e	-0.0665196
185	0x3e43a5de	0.19106242
186	0x3e1fb412	0.15596035
187	0x3e0de229	0.13855805
188	0x3dd91f17	0.10601633
189	0xbd3ec21f	-0.046571847
190	0x3de6fd6a	0.11278804
191	0x3ddbd867	0.10734635
192	0x3b0e188d	0.0021682114
193	0xbb0177dc	-0.001975528
194	0xbd3b17e9	-0.0456771
195	0x3e36be29	0.17845978
196	0x3b0839a9	0.0020786321
197	0xbdb071b0	-0.08615434
198	0x3d7dbacc	0.06194572
199	0x3df5e507	0.12006574
200	0xbe0ebb14	-0.13938552
201	0x3cef315e	0.029198345
202	0xbd43bcd1	-0.04778749
203	0xbdb498c0	-0.08818197
204	0xb935d0f7	-0.0001733935
205	0xbdcb52d8	-0.099279106
206	0x3de75347	0.11295181
207	0xbe35713d	-0.17718978
208	0x3e35af8f	0.17742752
209	0xbcbd0431	-0.023073288
210	0x3d9f35ab	0.07773908
211	0x3da6d2e6	0.081456944
212	0xbdb84fac	-0.08999571
213	0xbdec480d	-0.1153718
214	0xbd0b5ad8	-0.034022182
215	0xbd323eb7	-0.04351684
216	0x3e02882a	0.12747255
217	0x3db065fd	0.08613203
218	0xbb1bce93	-0.002377425
219	0x3e2eee1f	0.17083023
220	0x3de6a504	0.11261943
221	0xbc7d01b3	-0.0154423
222	0x3d0847be	0.033271544
223	0xbde4b58c	-0.1116744
224	0x3d6aa030	0.057281673
225	0x3e031b45	0.12803371
226	0xbd855dbe	-0.065120205
227	0x3bb0f7db	0.0054006404
228	0x3dd5ffc5	0.10449175
229	0x3e0556c3	0.13021378
230	0xbe41c1a6	-0.18921527
231	0xbe076c1d	-0.13224836
232	0xbc8b25e4	-0.016985841
233	0x3e13d380	0.1443615
234	0xbe0fc8a5	-0.14041384
235	0x3ce6d28f	0.028176574
236	0xbe0b4ce9	-0.13603558
237	0xbb914e7d	-0.0044344054
238	0xbd501338	-0.05079958
239	0xbdd75c72	-0.105156794
240	0xbdd36095	-0.10321156
241	0xbe0551a2	-0.13019422
242	0x3dbc38ab	0.09190496
243	0xbc6b515b	-0.014362658
244	0xbe0ea228	-0.13929045
245	0xbd13e6c2	-0.03610874
246	0xbde2cf67	-0.11074715
247	0xbe0f3c02	-0.13987735
248	0x3db3ed5b	0.08785506
249	0xbd8168d8	-0.063188255
250	0xbe1e3c0d	-0.15452595
251	0xbe007aaa	-0.12546793
252	0xbd02beb2	-0.031920142
253	0xbd20bbc3	-0.039241564
254	0xbe08813d	-0.1333055
255	0x3d71dd5b	0.05904899
