result_train/seqmodel_ep30.pth (torch, 390389 bytes, 44 tensors)

lstm.weight_ih_l0 f4 [128, 7]
0.13237508 0.072229825 0.10466406 -0.14907344 -0.16422525 0.11890234 -0.14600208 0.16205099
-0.019908126 -0.04364664 -0.03269566 0.11667738 0.14276741 0.06860474 0.1610514 -0.07127595
0.090297006 0.08140087 0.033176202 -0.035623208 0.04889242 0.07351547 -0.061675213 -0.05625376
-0.069059126 -0.0024812059 -0.08933817 -0.044542205 -0.009544753 0.026387272 0.17638539 0.15618195
-0.09287102 -0.117922276 0.103557974 0.1689636 -0.14037472 0.025347635 -0.050322622 -0.041754983
0.01675517 0.03232193 -0.07577236 -0.0794491 0.11785447 0.19855511 0.08174231 -0.04567686
-0.16437495 0.17683256 0.11180225 0.059401054 -0.07316463 0.059527263 -0.053214666 -0.0286704
-0.06987766 0.04684629 -0.1290794 0.13442521 0.002623587 -0.061714053 -0.05755392 0.031167256
0.051226225 -0.018900065 -0.06737128 0.031044165 0.04263371 -0.10600326 0.1550835 -0.13769633
-0.01326122 0.014923299 0.0057162954 0.0496958 0.096300445 -0.16031268 0.0402377 0.10286268
0.20501038 -0.034192603 0.003541456 -0.1736853 0.02589412 -0.17468077 -0.17803927 0.06232697
-0.041109197 0.08740923 -0.013666102 -0.09324336 0.13057332 0.07744009 0.12252296 -0.1695195
-0.102406345 -0.03457441 0.02138134 -0.18256815 0.1725665 -0.0046954164 -0.0848804 -0.16656765
-0.051577963 0.030602759 -0.093343236 -0.06971435 -0.027425932 0.13434732 0.15202056 -0.17214732
0.026487062 0.058794275 -0.036467522 0.041441917 -0.13611045 -0.0064002424 0.043632247 0.15630482
0.017103706 -0.048446633 -0.069634035 0.12810907 0.17875406 -0.15428264 -0.082986474 0.112445146
0.11429562 -0.0067907735 0.16964528 -0.055779245 0.0883056 0.04048074 0.11858484 -0.19517869
0.13671573 0.018043056 -0.069379404 -0.06111453 0.099791124 -0.05522419 0.16767018 0.07409779
0.11037658 0.057778522 0.07776087 0.02720173 0.037785545 -0.06784703 0.057107516 0.024018291
-0.06670268 -0.007725954 -0.15443753 -0.13594288 -0.092205256 0.028300991 -0.10137399 -0.039163817
0.1575696 0.021383435 -0.105489954 0.021745948 0.16865633 -0.13682885 -0.15863694 0.055114
-0.06313074 -0.04240502 0.027743079 -0.062092353 -0.13880783 -0.027331091 -0.14295879 -0.13696896
-0.13654628 0.08990998 -0.11280166 0.043230783 -0.111134 -0.012799692 0.14876083 0.08519888
0.10985459 0.08291667 -0.049918517 -0.000566432 -0.019268997 0.017447704 0.13175946 0.18354225
-0.07064163 0.123345725 0.14953497 0.09002972 0.009058245 -0.18164669 -0.07956892 -0.14469759
0.17674065 -0.056323115 -0.08082333 -0.07562223 -0.07786671 -0.004616845 -0.12417838 0.05696317
-0.15705141 0.08447484 -0.056298908 -0.03438704 -0.07683369 0.10486859 0.15396446 -0.102660395
-0.06587606 0.12745702 0.09605396 -0.07533981 -0.09232848 -0.18082048 0.12995262 -0.10298487
0.044701144 -0.06010281 0.04514008 0.05718582 -0.00269987 0.030557124 -0.065586194 -0.09966734
-0.1478099 -0.007169437 -0.13336341 -0.015570438 -0.16401109 -0.0034615782 -0.0297144 -0.17420633
-0.043524265 0.1393567 -0.09915451 -0.10267413 -0.11029968 -0.1447354 -0.0544962 0.054986652
-0.1648513 -0.17064063 -0.022390073 0.16088802 -0.14694336 0.1048908 0.17050493 -0.18307632
00000000: 558d 073e 3bed 933d 1c5a d63d b5a6 18be
00000010: aa2a 28be 1283 f33d 9281 15be b2f0 253e
00000020: 5e16 a3bc d2c6 32bd e2eb 05bd 8df4 ee3d
00000030: 9f31 123e a480 8c3d a8ea 243e 20f9 91bd
00000040: a3ed b83d 80b5 a63d c5e3 073d a4e9 11bd
00000050: 6b43 483d 478f 963d 269f 7cbd 586a 66bd
00000060: df6e 8dbd ba9b 22bb eef6 b6bd e371 36bd
00000070: 9861 1cbc 1f2a d83c 5f9e 343e 29ee 1f3e
00000080: 2933 bebd 3c81 f1bd 3416 d43d cb04 2d3e
00000090: 64be 0fbe d8a5 cf3c 181f 4ebd 4607 2bbd
000000a0: 2342 893c 0064 043d 8a2e 9bbd 36b6 a2bd
000000b0: af5d f13d 0852 4b3e 8368 a73d a917 3bbd
000000c0: e851 28be 9813 353e 94f8 e43d 854e 733d
000000d0: 56d7 95bd dcd2 733d 9ff7 59bd 30de eabc
000000e0: 051c 8fbd e5e1 3f3d 642d 04be c3a6 093e
000000f0: 7cf0 2b3b e0c7 7cbd a9bd 6bbd 7952 ff3c
00000100: 97d2 513d 4fd4 9abc f4f9 89bd 5550 fe3c
00000110: afa0 2e3d 3d18 d9bd 36ce 1e3e 4400 0dbe
00000120: 9745 59bc da80 743c c34f bb3b d38d 4b3d
00000130: 2b39 c53d 0229 24be 49d0 243d aba9 d23d
00000140: 3eee 513e 8b0d 0cbd c617 683b 8fda 31be
00000150: e81f d43c 84df 32be ed4f 36be 914a 7f3d
00000160: 1e62 28bd 9c03 b33d c9e7 5fbc 60f6 bebd
00000170: 03b5 053e e998 9e3d 51ed fa3d 8596 2dbe
00000180: 6bba d1bd e69d 0dbd ec27 af3c 25f3 3abe
00000190: 46b5 303e 02dc 99bb c6d5 adbd b690 2abe
000001a0: 6a43 53bd a3b2 fa3c bd2a bfbd 66c6 8ebd
000001b0: 59ac e0bc 5892 093e 47ab 1b3e 6347 30be
000001c0: 65fb d83c 44d2 703d f85e 15bd 00bf 293d
000001d0: 8a60 0bbe 20b9 d1bb bab7 323d 5f0e 203e
000001e0: 121d 8c3c fa6f 46bd 4a9c 8ebd 062f 033e
000001f0: 4e0b 373e 45fc 1dbe d0f4 a9bd a449 e63d
00000200: d213 ea3d 2385 debb 7eb7 2d3e c778 64bd
00000210: 91d9 b43d 22cf 253d 9cdc f23d ecdc 47be
00000220: 35ff 0b3e 08cf 933c ca16 8ebd 3b53 7abd
00000230: 4a5f cc3d c332 62bd bbb1 2b3e 95c0 973d
00000240: 1e0d e23d 2ca9 6c3d 1741 9f3d 2ad6 de3c
00000250: 04c5 1a3d 62f3 8abd 92e9 693d 02c2 c43c
00000260: 6a9b 88bd 002a fdbb df24 1ebe 9c34 0bbe
00000270: 1cd6 bcbd 7bd7 e73c 2b9d cfbd 3d6a 20bd
00000280: ed59 213e 502c af3c 1e0b d8bd 8f24 b23c
00000290: 3fb4 2c3e dd1c 0cbe b971 22be 38bf 613d
000002a0: b04a 81bd e3b0 2dbd 7445 e33c 8d54 7ebd
000002b0: a423 0ebe 74e5 dfbc ca63 12be 9741 0cbe
000002c0: cad2 0bbe b922 b83d 8f04 e7bd c312 313d
000002d0: 399a e3bd cdb5 51bc c254 183e c07c ae3d
000002e0: 71fb e03d 37d0 a93d 5c77 4cbd 9c7c 14ba
000002f0: 04da 9dbc 7dee 8e3c f4eb 063e 80f2 3b3e
00000300: 8fac 90bd af9c fc3d b21f 193e 8061 b83d
00000310: 0969 143c 9701 3abe 08f5 a2bd 9b2b 14be
00000320: 80fb 343e 11b3 66bd b486 a5bd d4df 9abd
00000330: 9578 9fbd e748 97bb 3c51 febd 3752 693d
00000340: 16d2 20be 2501 ad3d af99 66bd 6dd9 0cbd
00000350: fb5a 9dbd 58c5 d63d dca8 1d3e 9d3f d2bd
00000360: 07ea 86bd 1884 023e f0b7 c43d c24b 9abd
00000370: b716 bdbd 0129 39be 4d12 053e bbe9 d2bd
00000380: 8c18 373d 5d2e 76bd cee4 383d ae3b 6a3d
00000390: 4df0 30bb ef52 fa3c 0e52 86bd 641e ccbd
000003a0: 7a5b 17be 99ed eabb 6b90 08be 261b 7fbc
000003b0: 86f2 27be a5db 62bb 9d6b f3bc 2563 32be
000003c0: 8046 32bd 86b3 0e3e 8511 cbbd d046 d2bd
000003d0: cce4 e1bd 8435 14be 6837 5fbd af39 613d
000003e0: c7ce 28be 6bbc 2ebe 636b b7bc d4bf 243e
000003f0: 5278 16be fdd0 d63d d898 2e3e 5c78 3bbe

lstm.weight_hh_l0 f4 [128, 32]
-0.08161536 0.16779514 -0.10464511 -0.059785523 -0.19427843 -0.17137718 -0.13999842 0.109056376
0.09999299 -0.17016661 -0.13856262 0.090341836 0.051579 -0.12948062 0.008748933 -0.18612528
-0.1620506 0.10672474 0.15626991 0.07292396 0.09063044 -0.09676206 -0.08147197 0.1583165
-0.12202566 -0.15136372 0.14306872 0.04972393 0.040676966 -0.027381452 0.1001468 0.16923642
0.17846748 -0.034904983 -0.035665724 -0.11394216 0.07290644 -0.062344693 0.021167565 0.091607116
-0.13187476 0.11316005 -0.15345551 -0.12543218 -0.026722528 -0.05433945 0.050384123 -0.09637846
-0.036733933 -0.13547651 -0.042071152 0.10068794 0.12217723 0.09740549 -0.11253171 0.08516158
0.15854254 -0.047938813 -0.08382349 -0.038239427 -0.13649032 -0.13832568 -0.13484132 -0.010288587
0.04945283 -0.002100428 -0.065985136 -0.023434611 0.04245227 0.038711563 -0.1499745 0.12104102
-0.18534084 -0.012965801 0.0018985311 -0.0946624 0.15505591 5.710446e-05 -0.0037827813 -0.13004063
0.18460253 -0.055440214 0.11778339 -0.14773123 0.09230204 0.11508458 -0.14710319 -0.0090968935
0.07034516 0.11395519 -0.12572832 -0.012601596 0.11320285 0.030619223 0.18642868 0.016954653
-0.04084753 0.14008585 0.14827 0.16353674 -0.051479157 -0.07183719 -0.07042454 0.083483264
0.16813557 0.12154759 -0.049320325 -0.03351763 0.045641437 0.10375389 -0.043563396 0.10903437
-0.14061007 -0.09775459 -0.0074034836 -0.106264986 -0.06596328 -0.11905227 0.057542924 -0.10683114
0.14887214 0.033286955 0.014222731 -0.16606025 0.09474784 -0.18058336 -0.13051128 0.014638481
-0.027544675 0.12727365 -0.07374382 0.05277608 -0.104321755 -0.17557342 0.044724382 -0.17387651
0.009654551 -0.11595431 0.14579712 0.14022279 -0.03076004 0.02245767 0.02727418 -0.09806261
-0.03205963 -0.15496121 -0.09435647 -0.13426635 -0.09776426 0.04342929 -0.10768527 -0.07118377
-0.14065748 -0.117312446 0.047872134 0.10038505 -0.08715812 0.092640765 0.10580719 -0.08805814
-0.0083872955 0.06732149 -0.06383136 -0.12788188 0.18473889 -0.065799676 0.027575038 0.14522204
0.09398532 0.11916365 0.07088443 0.10379876 0.13341814 0.16719136 -0.036692113 0.08255121
-0.031110357 0.03601416 -0.17988865 0.1063291 0.16247961 0.121535644 -0.156223 0.052527577
0.0083259335 -0.14655961 -0.1230052 -0.16520928 0.0141436 0.16123404 -0.04948975 0.11351246
0.050791614 0.1833156 -0.13005489 -0.00737095 0.13667426 0.13475236 -0.14581327 -0.055723924
-0.051382016 -0.0065965108 0.16991486 0.06714463 -0.050717622 0.0458361 -0.14775646 -0.09996464
-0.07080246 -0.016968964 0.07619546 0.12385526 0.07481339 -0.17272568 -0.075169615 -0.13198592
-0.037951462 -0.16146639 0.078621134 -0.08654045 0.11310417 -0.058667734 0.1524965 0.014902314
-0.15731645 0.17490397 -0.062493104 -0.16375147 -0.06783213 -0.018620558 -0.05978585 0.013163117
-0.08499059 -0.107731394 -0.076228544 0.10737332 0.060035557 -0.14382489 0.16901825 0.08579416
-0.0998442 0.025378194 0.051135827 0.05189355 0.12433833 0.040825695 0.022501914 -0.10604386
0.06472692 -0.07146163 0.03608208 -0.16675565 0.10747302 0.049895816 -0.10652627 -0.0687901
00000000: f425 a7bd 7dd2 2b3e 2d50 d6bd aae1 74bd
00000010: edf0 46be 807d 2fbe bf5b 0fbe f358 df3d
00000020: 20c9 cc3d 2840 2ebe 5ce3 0dbe 2405 b93d
00000030: 8044 533d 9196 04be af57 0f3c a097 3ebe
00000040: 98f0 25be 8092 da3d 3805 203e 2859 953d
00000050: 749c b93d 302b c6bd c7da a6bd b81d 223e
00000060: 97e8 f9bd 17ff 1abe 9b80 123e 52ab 4b3d
00000070: e49c 263d 114f e0bc c419 cd3d 504c 2d3e
00000080: 2ec0 363e 87f8 0ebd 3916 12bd 825a e9bd
00000090: f94f 953d 265d 7fbd 9a67 ad3c 839c bb3d
000000a0: 2d0a 07be 75c0 e73d 7123 1dbe 4b71 00be
000000b0: 34e9 dabc 0b93 5ebd 955f 4e3d 1262 c5bd
000000c0: 5276 16bd 5bba 0abe cd52 2cbd 7b35 ce3d
000000d0: 0e38 fa3d 887c c73d 0677 e6bd 3269 ae3d
000000e0: fa58 223e 7d5b 44bd a6ab abbd f2a0 1cbd
000000f0: 1ec4 0bbe 3fa5 0dbe d813 0abe 7691 28bc
00000100: 0d8f 4a3d 56a7 09bb 3723 87bd f1f9 bfbc
00000110: 6ee2 2d3d 0490 1e3d ea92 19be 5be4 f73d
00000120: fdc9 3dbe 836e 54bc 22d8 f83a 5cde c1bd
00000130: fac6 1e3e 7283 6f38 8ae8 77bb 5f29 05be
00000140: 7208 3d3e 4715 63bd 6b38 f13d db46 17be
00000150: da08 bd3d 77b1 eb3d 38a2 16be 230b 15bc
00000160: 2011 903d 5761 e93d edbe 00be ed76 4ebc
00000170: e5d6 e73d 2ad5 fa3c 29e7 3e3e 7ce4 8a3c
00000180: bd4f 27bd aa72 0f3e 17d4 173e 2d76 273e
00000190: cfdb 52bd 601f 93bd be3a 90bd 46f9 aa3d
000001a0: bb2b 2c3e f1ed f83d 1c04 4abd c849 09bd
000001b0: 84f2 3a3d eb7c d43d 886f 32bd 694d df3d
000001c0: 16fc 0fbe 8f33 c8bd ec98 f2bb 75a1 d9bd
000001d0: c217 87bd add1 f3bd 21b2 6b3d 49ca dabd
000001e0: f071 183e e757 083d 7506 693c b30b 2abe
000001f0: 280b c23d d8ea 38be c0a4 05be 3dd6 6f3c
00000200: 5fa5 e1bc 0654 023e 0007 97bd bb2b 583d
00000210: a5a6 d5bd 85c9 33be ea30 373d af0c 32be
00000220: 1f2e 1e3c 7479 edbd d74b 153e 9096 0f3e
00000230: 7bfc fbbc 26f9 b73c 1a6e df3c 0dd5 c8bd
00000240: f550 03bd 27ae 1ebe f73d c1bd 1e7d 09be
00000250: a138 c8bd e9e2 313d 188a dcbd ccc8 91bd
00000260: 8408 10be 8241 f0bd 9215 443d ad96 cd3d
00000270: f57f b2bd 71ba bd3d 71b1 d83d d357 b4bd
00000280: de6a 09bc d9df 893d 04ba 82bd 78f3 02be
00000290: 312c 3d3e fbc1 86bd 0ce5 e13c 16b5 143e
000002a0: 607b c03d 120c f43d db2b 913d 7294 d43d
000002b0: c49e 083e 3634 2b3e 784a 16bd 9c10 a93d
000002c0: 26db febc 9583 133d bb34 38be 12c3 d93d
000002d0: 0e61 263e aee7 f83d ecf8 1fbe 2827 573d
000002e0: 7f69 083c b913 16be 26ea fbbd 9f2c 29be
000002f0: 8fba 673c 891a 253e c4b5 4abd 3879 e83d
00000300: de0a 503d 16b7 3b3e 1c2d 05be 0388 f1bb
00000310: 56f4 0b3e 86fc 093e 1350 15be c53e 64bd
00000320: f375 52bd 8b27 d8bb 29fe 2d3e 2083 893d
00000330: 48bd 4fbd a2be 3b3d 784d 17be 43ba ccbd
00000340: e100 91bd 7f02 8bbc 5e0c 9c3d d4a7 fd3d
00000350: c337 993d 00df 30be 87f2 99bd 5127 07be
00000360: fe72 1bbd 7257 25be 1e04 a13d 1f3c b1bd
00000370: 29a3 e73d 944d 70bd 0b28 1c3e d628 743c
00000380: 9017 21be 071a 333e c5f8 7fbd 77ae 27be
00000390: 92eb 8abd 248a 98bc 02e2 74bd 1daa 573c
000003a0: 8c0f aebd 47a2 dcbd b61d 9cbd 8be6 db3d
000003b0: d8e7 753d d546 13be 1f13 2d3e d9b4 af3d
000003c0: 1e7b ccbd eee5 cf3c cd73 513d 558e 543d
000003d0: 18a5 fe3d d838 273d ef55 b83c 862d d9bd
000003e0: 8c8f 843d 7a5a 92bd ceca 133d fec1 2abe
000003f0: d11a dc3d 8e5f 4c3d 722a dabd d3e1 8cbd

lstm.bias_ih_l0 f4 [128]
0.14944775 0.032322038 0.071166135 0.17397119 0.006757978 -0.08134913 0.06272227 -0.067141615
-0.15856335 -0.11334262 0.14089242 0.12044365 -0.16904531 -0.13382934 0.08864798 0.00090106274
-0.13340855 -0.19265148 -0.07679048 0.19714382 -0.080153234 -0.12693541 0.100138426 -0.05382097
-0.049020387 -0.119244605 0.09596052 0.004960125 -0.00090049836 0.17313606 -0.13279244 0.17619972
0.047393642 0.17844796 -0.1074263 0.14684609 -0.08725911 -0.16450636 0.063591786 -0.0061450363
-0.0058278893 -0.15273236 0.0714859 0.09424138 -0.16561148 -0.15278713 -0.09367613 0.008993091
-0.12609921 0.032414366 0.15756099 0.16839984 0.050134707 0.007410366 0.15123227 -0.045873582
-0.11071838 -0.11200654 0.14823858 0.043928444 -0.058564644 0.03179144 0.054953054 0.1522934
-0.13534933 0.02116751 -0.10206103 0.0028906264 -0.033264965 -0.122324355 -0.1407976 0.025729857
0.086539365 0.13728066 0.13463663 0.050621897 -0.03023461 -0.022266436 -0.15056568 -0.14624245
0.06299067 0.011053303 -0.101496294 -0.015759503 -0.12537535 0.09611205 -0.08571651 0.106444515
0.10763674 0.10835056 0.0736965 -0.07193709 -0.07617573 -0.06959867 0.16743122 -0.052573442
0.028135814 -0.061382115 -0.07440004 0.090541035 0.06787385 0.111978434 0.1691267 -0.068081945
0.11811121 0.13909593 0.028830798 0.023404693 0.10244139 0.0174879 -0.12038809 0.13777968
-0.08052763 -0.075303175 0.06660151 -0.011376484 0.09593066 -0.08317165 0.13373382 -0.027813032
-0.05566937 0.02157601 0.003684036 -0.14779587 0.10842754 -0.085642785 -0.076574095 -0.11535485
00000000: d508 193e 1d64 043d 8dbf 913d 8125 323e
00000010: 0772 dd3b 5f9a a6bd 8974 803d 8b81 89bd
00000020: 6e5e 22be 2d20 e8bd 1a46 103e 29ab f63d
00000030: 371a 2dbe 8f0a 09be 128d b53d 4c35 6c3a
00000040: 409c 08be 6e46 45be 5444 9dbd 12e0 493e
00000050: 6127 a4bd 5bfb 01be 6015 cd3d 6173 5cbd
00000060: 9ac9 48bd 8436 f4bd f386 c43d 8b88 a23b
00000070: 6c0f 6cba 944a 313e befa 07be b36d 343e
00000080: d61f 423d 10bb 363e 5202 dcbd d25e 163e
00000090: e7b4 b2bd 5b74 28be 693c 823d 4d5c c9bb
000000a0: e1f7 bebb df65 1cbe 3367 923d a001 c13d
000000b0: 0e96 29be 3b74 1cbe 45d9 bfbd c257 133c
000000c0: 2720 01be edc4 043d ab57 213e 0271 2c3e
000000d0: 0d5a 4d3d a8d2 f23b a2dc 1a3e f0e5 3bbd
000000e0: 51c0 e2bd af63 e5bd dbcb 173e 50ee 333d
000000f0: 7be1 6fbd be37 023d 7416 613d cdf2 1b3e
00000100: 0499 0abe 7c67 ad3c 6005 d1bd aa70 3d3b
00000110: d840 08bd 3185 fabd 3f2d 10be 6cc7 d23c
00000120: 8d3b b13d 4d93 0c3e 2fde 093e e858 4f3d
00000130: 93ae f7bc 1a68 b6bc e42d 1abe 95c0 15be
00000140: 4101 813d ea18 353c 4add cfbd 131a 81bc
00000150: 6562 00be 65d6 c43d 238c afbd 95ff d93d
00000160: a770 dc3d e6e6 dd3d 31ee 963d c153 93bd
00000170: 0502 9cbd bf89 8ebd 1773 2b3e 4057 57bd
00000180: 147d e63c d06b 7bbd 0c5f 98bd 946d b93d
00000190: 7201 8b3d f354 e53d 8d2f 2d3e 8c6e 8bbd
000001a0: 4ae4 f13d 2a6f 0e3e 912e ec3c 33bb bf3c
000001b0: cbcc d13d c942 8f3c 088e f6bd 1e16 0d3e
000001c0: aceb a4bd 8d38 9abd 5f66 883d 6f64 3abc
000001d0: 4b77 c43d e655 aabd 85f1 083e 28d8 e3bc
000001e0: 9105 64bd 2cc0 b03c de6f 713b cd57 17be
000001f0: 420f de3d 7c65 afbd e1d2 9cbd 2a3f ecbd

lstm.bias_hh_l0 f4 [128]
-0.06012189 0.041986052 -0.096991666 0.056016617 -0.110795565 -0.13856465 -0.06706773 0.043395843
-0.16094872 0.14651354 0.13312101 0.09529806 0.05272782 -0.008936363 0.050929174 -0.016045274
0.13740025 -0.1573509 0.06522778 -0.018078182 -0.11096359 0.021053651 0.021187274 -0.14819938
-0.018054428 -0.15104963 0.11230469 0.12873769 -0.1653241 0.08058152 -0.014939563 -0.06221696
-0.14861196 0.07085404 0.1433544 0.13603178 0.014809333 0.08293441 -0.16638449 -0.11846182
-0.07852979 0.06484879 0.061843764 0.01609612 -0.14331973 0.0950682 -0.15997553 0.07247616
0.12388475 -0.18667698 0.04409925 -0.15311189 -0.11311467 0.030493667 -0.1337563 -0.06809278
-0.016470227 -0.025604662 -0.05126666 0.10898664 -0.017930478 -0.016517011 -0.10073253 0.07103211
0.12872294 0.061007723 0.14264232 0.038186263 -0.11640379 -0.08711741 -0.072806045 0.1713832
0.031787332 0.088156216 0.06210714 -0.14881288 0.11920884 -0.04763215 0.15078081 -0.09003293
0.12741166 -0.15750964 0.044699132 -0.12605374 0.1619056 -0.0479042 0.027832843 0.010128313
0.032072905 -0.05142078 0.05137505 0.13914856 0.10331965 0.09355663 0.10376376 -0.09509889
0.17114115 -0.00062228483 0.11593095 0.07746788 -0.12117862 -0.13266549 0.17799221 -0.13266335
-0.077707514 -0.030713527 0.06974193 0.113547996 -0.05994569 -0.11526354 -0.11129051 0.029499592
-0.15778711 -0.113577865 -0.02674072 0.14969744 -0.1693374 0.19220492 -0.036520056 -0.15441382
-0.025362283 -0.06675944 0.013206066 -0.04846609 -0.1271746 -0.10220842 0.06199685 -0.074208215
00000000: 5f42 76bd 91f9 2b3d 91a3 c6bd ae71 653d
00000010: c9e8 e2bd e4e3 0dbe ce5a 89bd d7bf 313d
00000020: becf 24be a507 163e e050 083e a12b c33d
00000030: 20f9 573d d369 12bc 1c9b 503d 6171 83bc
00000040: a7b2 0c3e 9820 21be 2496 853d b218 94bc
00000050: e140 e3bd b578 ac3c ef90 ad3c 94c1 17be
00000060: e1e6 93bc c1ac 1abe 0000 e63d d0d3 033e
00000070: b94a 29be ed07 a53d 12c5 74bc 36d7 7ebd
00000080: bc2d 18be ec1b 913d 7fcb 123e ea4b 0b3e
00000090: d8a2 723c 84d9 a93d b260 2abe 1c9c f2bd
000000a0: 3ad4 a0bd 71cf 843d e34f 7d3d 03dc 833c
000000b0: 68c2 12be 1eb3 c23d a0d0 23be 626e 943d
000000c0: 4ab7 fd3d 4028 3fbe 6aa1 343d 5dc9 1cbe
000000d0: aaa8 e7bd dbcd f93c 69f7 08be 3a74 8bbd
000000e0: 92ec 86bc dec0 d1bc fdfc 51bd 6334 df3d
000000f0: f0e2 92bc af4e 87bc db4c cebd 4879 913d
00000100: f2cf 033e 3ce3 793d d410 123e 3369 1c3d
00000110: 1c65 eebd 9d6a b2bd 561b 95bd 147f 2f3e
00000120: 6f33 023d 3f8b b43d 0e64 7e3d 6762 18be
00000130: c423 f43d ee19 43bd 4966 1a3e 2f63 b8bd
00000140: 3478 023e 354a 21be 7016 373d 3b14 01be
00000150: 95ca 253e 3237 44bd b401 e43c 39f1 253c
00000160: e15e 033d 999e 52bd a56e 523d f67c 0e3e
00000170: 4199 d33d 9e9a bf3d 1882 d43d 35c3 c2bd
00000180: a03f 2f3e d420 23ba 356d ed3d 7ba7 9e3d
00000190: 7f2c f8bd 76d9 07be 9743 363e e7d8 07be
000001a0: 1e25 9fbd ef9a fbbc dbd4 8e3d da8b e83d
000001b0: 9d89 75bd 4a0f ecbd 47ec e3bd 21a9 f13c
000001c0: f292 21be 839b e8bd 5b0f dbbc 494a 193e
000001d0: c966 2dbe 5ed1 443e 0e96 15bd a81e 1ebe
000001e0: 90c4 cfbc 2cb9 88bd 415e 583c 6184 46bd
000001f0: 0f3a 02be a652 d1bd 69f0 7d3d 7afa 97bd

lstm.weight_ih_l0_reverse f4 [128, 7]
-0.14585663 -0.17116831 -0.032781433 -0.0018631477 -0.041073535 0.12425474 -0.1480599 0.0034422802
0.01643168 -0.14876522 -0.16802466 -0.19508348 -0.07961473 -0.18661796 0.06738012 -0.14024304
0.007561552 -0.16301568 -0.15506801 -0.0569785 0.017680883 -0.13345301 0.06595024 -0.007931762
-0.08454417 0.020226462 -0.09955999 0.0378708 0.022372847 -0.105310366 0.11797725 0.08924314
-0.0018493036 -0.07110746 -0.088691086 -0.06798736 -0.07155832 -0.050569132 0.012119696 0.12711653
-0.08892331 0.12554823 0.11989916 -0.13293433 -0.01839789 -0.14821869 -0.038406834 0.11891952
-0.085976146 -0.13246049 0.1592514 -0.14634041 -0.015009257 0.080381155 -0.10286746 0.027040394
0.052758887 0.11113319 0.12471376 -0.122796476 -0.024614254 -0.05351973 0.07799669 -0.04443561
-0.11285306 -0.0016278945 0.0053575323 -0.14287582 0.1697976 -0.11607549 -0.08944216 0.006102373
-0.12586236 0.043347873 0.09905022 -0.06278616 -0.092870496 0.073398374 0.17230442 0.032340724
-0.058384743 0.036189657 0.012262548 -0.09454742 -0.055950455 0.063263595 -0.16337661 0.19066446
-0.12671763 0.123067595 -0.15737748 -0.16835341 0.093816556 0.07439532 -0.122102745 0.11230247
0.025443697 0.1526645 0.09256498 -0.14427555 0.07969553 0.08220899 0.08848899 0.0898438
-0.028151128 0.03674695 0.010438473 -0.109822206 -0.06297889 -0.06452354 -0.09982535 0.17371333
0.117639326 0.11191242 0.059441008 0.042426325 -0.029633904 0.20708129 -0.048151404 -0.05150063
-0.08991371 0.12809017 -0.118323065 0.11857064 0.15203376 -0.16214384 0.102938846 -0.13222598
0.03305654 -0.058951795 0.12644488 -0.0370757 0.012453907 -0.11903175 -0.011764883 -0.14845723
-0.08724458 -0.12846544 0.0590847 0.08988043 -0.14118998 -0.03131908 -0.09477117 0.023676077
0.18008089 0.091613956 -0.015150715 0.08533243 -0.14712502 -0.10591369 -0.05480489 0.056082487
0.013782752 -0.088860355 -0.037165575 -0.11201 0.051635314 -0.06552469 -0.18288434 0.098996416
-0.010186577 0.06319644 0.046240643 0.14805602 -0.07779137 -0.060477987 -0.10790529 0.057315994
-0.06951128 0.09627683 -0.1286892 -0.03762092 0.01728567 0.03843964 -0.1579661 0.1777573
-0.03208148 0.035430472 0.14279602 -0.16204888 -0.078143254 0.08485982 -0.09186962 -0.060550094
0.059219487 -0.07144354 0.1155363 -0.16128297 0.08858398 -0.07358407 0.017942166 -0.17078635
-0.16254586 -0.06314102 -0.021846628 0.050639834 -0.17914674 -0.07630289 0.05110733 -0.109074935
-0.073333144 0.045626905 0.15767728 0.06417078 0.027460326 0.13817917 -0.11420014 -0.07428485
0.11899353 0.08226926 0.096020386 -0.15118445 0.07853293 0.14138275 0.027308326 -0.19522484
-0.13895439 0.03370951 0.18831837 -0.1569284 0.0099404985 0.05585621 -0.058547974 0.031202089
-0.09343392 -0.085171 -0.09838582 -0.0126875695 -0.09124132 0.115931965 -0.08060032 -0.050153244
0.02965919 0.087827615 0.018651448 -0.1252454 0.0630373 0.03714025 0.08957056 0.10265386
0.078783184 -0.16457471 -0.027652938 0.1060394 -0.054010276 -0.18005317 0.13602002 0.021051925
0.21432844 0.15014556 -0.041793715 -0.20665929 -0.08632291 0.16114236 -0.037315633 -0.12268992
00000000: 715b 15be bf46 2fbe d345 06bd dd34 f4ba
00000010: b93c 28bd 4579 fe3d 049d 17be e197 613b
00000020: bb9b 863c e955 18be a80e 2cbe f7c3 47be
00000030: 0c0d a3bd c718 3fbe 97fe 893d df9b 0fbe
00000040: e5c6 f73b 95ed 26be 26ca 1ebe 4a62 69bd
00000050: 80d7 903c e8a7 08be eb10 873d 39f4 01bc
00000060: 7e25 adbd f7b1 a53c 1ce6 cbbd 691e 1b3d
00000070: 4347 b73c f6ac d7bd 0e9e f13d 1bc5 b63d
00000080: 5564 f2ba caa0 91bd aca3 b5bd f53c 8bbd
00000090: 2b8d 92bd 9421 4fbd b091 463c d62a 023e
000000a0: 6d1d b6bd b78f 003e b18d f53d f01f 08be
000000b0: 2cb7 96bc a4c6 17be 7c50 1dbd 148c f33d
000000c0: 4314 b0bd b9a3 07be cd12 233e 43da 15be
000000d0: 63e9 75bc e09e a43d 2dac d2bd d183 dd3c
000000e0: b419 583d cc99 e33d ee69 ff3d b87c fbbd
000000f0: d5a3 c9bc 8137 5bbd bbbc 9f3d 1d02 36bd
00000100: 811f e7bd 135f d5ba 3d8e af3b 0a4e 12be
00000110: 6cdf 2d3e fdb8 edbd 742d b7bd 6af6 c73b
00000120: 10e2 00be 8a8d 313d d7da ca3d 0896 80bd
00000130: e332 bebd e351 963d 9270 303e b577 043d
00000140: d724 6fbd 9b3b 143d dbe8 483c 14a2 c1bd
00000150: 4e2c 65bd 5890 813d 334c 27be 8b3d 433e
00000160: 44c2 01be dd0a fc3d 9027 21be d664 2cbe
00000170: e522 c03d 935c 983d 0111 fabd d6fe e53d
00000180: 4d6f d03c 1554 1c3e b592 bd3d f8bc 13be
00000190: 6937 a33d 305d a83d b739 b53d 0700 b83d
000001a0: 329d e6bc f883 163d 2106 2b3c 77ea e0bd
000001b0: 14fb 80bd eb24 84bd 3c71 ccbd e8e1 313e
000001c0: e3ec f03d 5732 e53d 6a78 733d 3ac7 2d3d
000001d0: cdc2 f2bc 1e0d 543e 683a 45bd 53f2 52bd
000001e0: ae24 b8bd 122a 033e 5d53 f2bd 2ad5 f23d
000001f0: bdae 1b3e 0909 26be 9ad1 d23d 3f66 07be
00000200: 4b66 073d 7077 71bd c47a 013e b0dc 17bd
00000210: 790b 4c3c ebc6 f3bd 7fc1 40bc 2c05 18be
00000220: 49ad b2bd 728c 03be cc02 723d 3b13 b83d
00000230: 1b94 10be 7048 00bd 6317 c2bd 55f4 c13c
00000240: 2067 383e 19a0 bb3d b43a 78bc c5c2 ae3d
00000250: f1a7 16be 47e9 d8bd 187b 60bd c0b6 653d
00000260: 0dd1 613c 6bfc b5bd ee3a 18bd 8065 e5bd
00000270: 8d7f 533d cf31 86bd 0846 3bbe a2be ca3d
00000280: 9ae5 26bc 236d 813d d466 3d3d ff9b 173e
00000290: 1551 9fbd c4b7 77bd 73fd dcbd 2dc4 6a3d
000002a0: ee5b 8ebd c92c c53d 1ac7 03be 6518 1abd
000002b0: ad9a 8d3c e272 1d3d dec1 21be 0206 363e
000002c0: df67 03bd 8b1f 113d 1f39 123e 24f0 25be
000002d0: 9209 a0bd fcca ad3d 2426 bcbd 6003 78bd
000002e0: 2290 723d fe50 92bd 4c9e ec3d 5d27 25be
000002f0: 856b b53d 3fb3 96bd 73fb 923c 9ee2 2ebe
00000300: 6c72 26be 1450 81bd b3f7 b2bc b76b 4f3d
00000310: 3e72 37be b144 9cbd eb55 513d ae62 dfbd
00000320: b02f 96bd 47e3 3a3d 2776 213e f86b 833d
00000330: 7af4 e03c d77e 0d3e c3e1 e9bd a822 98bd
00000340: e1b2 f33d c97c a83d 56a6 c43d 19d0 1abe
00000350: dfd5 a03d a4c6 103e b6b5 df3c 05e9 47be
00000360: 0f4a 0ebe fc12 0a3d 88d6 403e d7b1 20be
00000370: 79dd 223c 7bc9 643d 00d0 6fbd 869b ff3c
00000380: 485a bfbd 226e aebd 817e c9bd 86df 4fbc
00000390: bbdc babd bd6d ed3d c811 a5bd 7d6d 4dbd
000003a0: d4f7 f23c f7de b33d ecca 983c 5540 00be
000003b0: b319 813d 6020 183d c570 b73d 303c d23d
000003c0: 1459 a13d 4686 28be 6a88 e2bc 2f2b d93d
000003d0: e139 5dbd dc5f 38be d548 0b3e 1675 ac3c
000003e0: ea78 5b3e c2bf 193e e32f 2bbd 7e9e 53be
000003f0: 11ca b0bd 8102 253e 47d8 18bd da44 fbbd

lstm.weight_hh_l0_reverse f4 [128, 32]
0.05032996 -0.16527066 -0.14501081 -0.052884255 -0.010410066 -0.008524155 -0.14417644 -0.13080844
0.07066132 0.09487955 0.09642787 0.06530336 0.12048186 -0.0031616334 0.074237615 -0.09047212
0.14734285 -0.009511384 0.12946388 -0.02020736 0.15283355 0.07689298 0.13862766 0.0054205516
-0.048162404 0.021089142 0.0021757444 0.16690132 0.0846639 0.056881994 -0.0800725 0.10416527
-0.0064823776 0.12646796 -0.05531841 0.124045976 -0.12240355 0.026178671 -0.17790416 -0.064796835
0.11727234 -0.09216312 0.1045395 0.06909688 -0.07922121 -0.039702944 -0.096089795 0.07573576
-0.037031777 -0.08318098 -0.15247889 0.018935509 0.085291505 -0.010602721 -0.120714575 0.15093535
-0.12680699 -0.1634084 -0.082059205 -0.12345318 0.02695304 0.19013998 -0.061571125 -0.11917382
-0.10822021 0.07519836 0.15780786 -0.06634352 0.16076505 -0.14346123 0.03220331 -0.009263891
-0.035600614 -0.13447267 0.091831505 0.034830704 -0.18679483 0.032811385 0.11476116 0.007006398
0.09356275 0.00851733 0.06355352 0.07041863 -0.14394638 0.11379239 -0.04006381 -0.038668424
0.029133605 0.10934866 0.05097989 0.085826986 -0.06692693 0.09489254 0.16279806 -0.101828635
-0.060252346 0.15111952 0.14905709 0.14646296 -0.14950831 0.18034607 0.16638172 -0.17569922
-0.08375642 -0.00011800832 0.20328961 -0.0056893923 0.18239653 0.17787915 -0.039898276 -0.13327546
0.0472186 -0.09277047 -0.19186373 0.10743869 -0.15615268 0.14141953 0.0035053717 0.1987642
-0.060638588 0.1904245 -0.054670397 0.004334044 0.014540922 0.08118454 0.086784914 -0.095966324
-0.12383312 -0.052921895 0.1163557 0.04517487 -0.02480144 -0.07170686 -0.115211874 0.055936724
-0.16623968 -0.11075732 -0.11012882 -0.016517378 -0.16061762 -0.062292688 0.10148573 -0.09549861
-0.16296099 -0.11425839 -0.04930899 -0.0038503835 -0.15061478 -0.15392081 0.1276597 0.0001851325
0.062143728 -0.090037726 -0.042421672 -0.13001625 0.06637076 0.093363106 0.08162549 -0.092487335
-0.058970116 -0.11169473 0.14054547 -0.06415196 0.036076095 -0.018502835 -0.017853376 -0.10326588
-0.08388832 0.16022739 -0.12277762 0.032645937 0.06342482 -0.0700311 0.15189546 -0.14313036
0.019454686 0.11374147 -0.13447875 0.019009192 0.06825446 0.1518249 0.005999778 -0.15154463
0.027346179 -0.13291802 0.10222574 -0.0057931817 -0.16893865 -0.03709305 -0.16351117 -0.14184009
0.049659554 -0.079331316 -0.031096397 0.13380207 -0.11698156 0.11548143 -0.10475604 0.17161538
-0.19212012 0.0054304698 -0.034198858 0.071260825 -0.06504308 -0.03397184 -0.15896918 -0.17367469
0.08252323 0.078456156 -0.12924276 -0.18429954 0.11099527 0.13599965 0.019270517 0.05796803
0.04432683 0.1671113 0.11409693 -0.045957934 0.12789121 0.036926523 0.021070773 -0.10522921
-0.14287084 0.083399594 -0.08172211 0.043590248 0.005948669 -0.09729945 -0.18203235 -0.1285881
-0.07790241 -0.08317474 0.09456294 0.042230565 0.16513532 -0.1063839 -0.09428398 0.11884055
0.05430428 -0.066421695 -0.0691333 -0.15826428 0.060313467 -0.16817935 0.010487039 -0.17023395
-0.08046464 -0.15435597 -0.13565868 0.0954013 0.016606163 -0.030198539 -0.028471801 -0.020180639
00000000: ca26 4e3d b63c 29be b77d 14be 299d 58bd
00000010: fb8e 2abc e6a8 0bbc fda2 13be a6f2 05be
00000020: e2b6 903d 3650 c23d fa7b c53d c5bd 853d
00000030: 32bf f63d 6833 4fbb e409 983d 7249 b9bd
00000040: 0be1 163e a3d5 1bbc 2e92 043e e889 a5bc
00000050: 6680 1c3e 117a 9d3d 69f4 0d3e e29e b13b
00000060: f145 45bd 23c3 ac3c ef96 0e3b 2ee8 2a3e
00000070: 4464 ad3d 18fd 683d 0dfd a3bd 9a54 d53d
00000080: 206a d4bb d180 013e 8f95 62bd d10b fe3d
00000090: b6ae fabd a774 d63c 822c 36be 34b4 84bd
000000a0: 7b2c f03d 05c0 bcbd ce18 d63d aa82 8d3d
000000b0: bb3e a2bd 8e9f 22bd baca c4bd 5a1b 9b3d
000000c0: a2ae 17bd ca5a aabd 6d23 1cbe a41e 9b3c
000000d0: 50ad ae3d 09b7 2dbc 3439 f7bd cc8e 1a3e
000000e0: b1d9 01be 8854 27be a80e a8bd 05d5 fcbd
000000f0: 9fcc dc3c 0eb4 423e 0132 7cbd 6711 f4bd
00000100: 8fa2 ddbd 9901 9a3d 6298 213e 1ddf 87bd
00000110: 989f 243e 80e7 12be 9ee7 033d 93c7 17bc
00000120: f3d1 11bd 34b3 09be 2812 bc3d a4aa 0e3d
00000130: 2547 3fbe 3b65 063d e607 eb3d ed95 e53b
00000140: d49d bf3d 458c 0b3c 5928 823d a537 903d
00000150: ae66 13be fc0b e93d f319 24bd c862 1ebd
00000160: 99a9 ee3c 31f2 df3d 4ad0 503d 0fc6 af3d
00000170: fc10 89bd 0557 c23d 89b4 263e 888b d0bd
00000180: 2acb 76bd 13bf 1a3e 6ca2 183e 63fa 153e
00000190: b518 19be a4ac 383e f85f 2a3e 7fea 33be
000001a0: 7c88 abbd 3c7b f7b8 272b 503e 156e babb
000001b0: 28c6 3a3e f425 363e 606c 23bd 5d79 08be
000001c0: 4a68 413d 72fe bdbd ed77 44be d108 dc3d
000001d0: 7de6 1fbe 48d0 103e 61ba 653b d888 4b3e
000001e0: 2b60 78bd a4fe 423e 11ee 5fbd 9904 8e3b
000001f0: 0c3d 6e3c 1544 a63d 4abc b13d fe89 c4bd
00000200: 389c fdbd a1c4 58bd e64b ee3d 4909 393d
00000210: 642c cbbc 0cdb 92bd 34f4 ebbd e81d 653d
00000220: bc3a 2abe bcd4 e2bd 388b e1bd 744f 87bc
00000230: f278 24be 9e26 7fbd c0d7 cf3d c694 c3bd
00000240: 3fdf 26be 4e00 eabd 39f8 49bd b756 7cbb
00000250: c33a 1abe 6b9d 1dbe 39b9 023e 2120 4239
00000260: 6c8a 7e3d b365 b8bd 59c2 2dbd fb22 05be
00000270: 65ed 873d 2835 bf3d 442b a73d 006a bdbd
00000280: a68a 71bd 35c0 e4bd 27eb 0f3e 1a62 83bd
00000290: 87c4 133d 4293 97bc 3e41 92bc 107d d3bd
000002a0: a4cd abbd a612 243e d572 fbbd bfb7 053d
000002b0: dfe4 813d 776c 8fbd 7c8a 1b3e c490 12be
000002c0: 6f5f 9f3c 4af1 e83d ccb4 09be 2ab9 9b3c
000002d0: ffc8 8b3d fd77 1b3e c999 c43b 842e 1bbe
000002e0: 1805 e03c a91b 08be bb5b d13d bbd4 bdbb
000002f0: 41fe 2cbe e2ee 17bd 796f 27be 873e 11be
00000300: d167 4b3d 7578 a2bd dfbd febc 6903 093e
00000310: 0794 efbd 8781 ec3d 568a d6bd f1bb 2f3e
00000320: 23bb 44be 15f2 b13b 1a14 0cbd 32f1 913d
00000330: 4e35 85bd 0e26 0bbd d1c8 22be c7d7 31be
00000340: f001 a93d 9fad a03d 3758 04be 05b9 3cbe
00000350: 7d51 e33d 7e43 0b3e 34dd 9d3c e36f 6d3d
00000360: 0d90 353d 3a1f 2b3e a7ab e93d 633e 3cbd
00000370: eaf5 023e 4440 173d 9d9c ac3c 6982 d7bd
00000380: bc4c 12be 68cd aa3d ec5d a7bd b08b 323d
00000390: 0ded c23b ef44 c7bd b066 3abe 99ac 03be
000003a0: 4c8b 9fbd 8557 aabd 37aa c13d f5f9 2c3d
000003b0: 3c19 293e cddf d9bd f617 c1bd ad62 f33d
000003c0: 2a6e 5e3d 1908 88bd c295 8dbd 0810 22be
000003d0: 410b 773d 3537 2cbe d4d1 2b3c cf51 2ebe
000003e0: a5ca a4bd 7e0f 1ebe 1cea 0abe c261 c33d
000003f0: a609 883c ed62 f7bc b23d e9bc de51 a5bc

lstm.bias_ih_l0_reverse f4 [128]
0.04794744 -0.12984842 0.1101122 -0.03286374 -0.003060854 -0.11417484 -0.01796434 0.032237936
-0.11331551 0.17602907 -0.090136856 0.036445104 0.15608047 0.12625214 0.053198725 -0.074666835
-0.105500095 -0.124302365 -0.15292382 0.105669014 -0.010629872 -0.07949043 0.06278026 -0.0057288045
0.11556415 -0.103268385 0.08768421 -0.1581343 0.10470156 -0.035406485 -0.059909754 0.087956764
-0.047670256 0.007450559 0.06459758 0.17803079 -0.12270948 -0.13661057 0.023008917 0.025084222
0.13352604 0.11786856 -0.08527656 0.15776303 0.07235899 -0.040486753 -0.10361826 -0.15151595
-0.020877091 0.17001133 0.09481463 0.07103717 0.05337031 0.15583238 0.090715334 0.11941506
-0.13709018 -0.1232679 -0.09334309 0.025052087 0.039037716 0.17847145 -0.0726098 0.041732863
0.039391827 -0.027232002 0.03772302 0.042765953 -0.1735012 -0.06904582 0.058738563 0.17731825
0.1761567 -0.068196714 -0.030932901 -0.11423463 0.057324514 0.093548134 0.034525637 -0.1537042
0.10502073 -0.08894695 -0.089430846 0.028012952 0.009720317 0.096242875 0.048351582 0.12499553
0.11394688 0.12586422 -0.15387093 -0.10311848 -0.15271594 0.078681774 0.08088561 -0.030682633
0.08990837 0.16144855 -0.060193885 -0.05922797 -0.09502752 0.10258237 -0.047390003 -0.04528626
0.14107119 0.030338574 0.13664435 0.16956623 -0.06694008 0.087266706 0.08907916 0.11218772
-0.13264371 0.119619064 0.039597705 -0.08278496 0.018719075 -0.027341513 -0.16320212 -0.126803
-0.15488619 -0.13991688 0.005657491 0.10780313 0.010607466 -0.01507104 -0.112124234 -0.12153547
00000000: 8964 443d fcf6 04be 8182 e13d 219c 06bd
00000010: 9c98 48bb 80d4 e9bd f429 93bc ed0b 043d
00000020: f611 e8bd f740 343e ac99 b8bd 7647 153d
00000030: 8fd3 1f3e 3e48 013e e8e6 593d edea 98bd
00000040: 6f10 d8bd 3d92 febd 1098 1cbe ff68 d83d
00000050: ea28 2ebc e1cb a2bd f092 803d b2b8 bbbb
00000060: e6ac ec3d 607e d3bd c793 b33d f5ed 21be
00000070: c66d d63d 6406 11bd ee63 75bd ad22 b43d
00000080: e341 43bd d223 f43b bc4b 843d b44d 363e
00000090: 1c4f fbbd a4e3 0bbe 327d bc3c 6d7d cd3c
000000a0: 0dbb 083e 1265 f13d 7aa5 aebd a28c 213e
000000b0: f330 943d 70d5 25bd cf35 d4bd ff26 1bbe
000000c0: 6f06 abbc 7317 2e3e 2c2e c23d f07b 913d
000000d0: d49a 5a3d 8692 1f3e f6c8 b93d e28f f43d
000000e0: 5e61 0cbe e173 fcbd a92a bfbd 093a cd3c
000000f0: 03e6 1f3d 38c1 363e 72b4 94bd 14f0 2a3d
00000100: 5359 213d a615 dfbc 7483 1a3d 5a2b 2f3d
00000110: 4caa 31be e567 8dbd d997 703d ea92 353e
00000120: 6c62 343e b8aa 8bbd ff66 fdbc d8f3 e9bd
00000130: 1ccd 6a3d 2a96 bf3d c16a 0d3d a264 1dbe
00000140: 1c15 d73d d229 b6bd 8527 b7bd 6b7b e53c
00000150: f741 1f3c fc1a c53d 4f0c 463d a8fd ff3d
00000160: fb5c e93d 8de2 003e 5790 1dbe c82f d3bd
00000170: 9161 1cbe e923 a13d 5ba7 a53d 255a fbbc
00000180: e121 b83d c552 253e dd8d 76bd 0799 72bd
00000190: ca9d c2bd b516 d23d 051c 42bd 167e 39bd
000001a0: f774 103e 9a88 f83c 7fec 0b3e c5a2 2d3e
000001b0: e117 89bd e3b8 b23d 226f b63d adc2 e53d
000001c0: c1d3 07be d7fa f43d 3431 223d 298b a9bd
000001d0: bf58 993c 4ffb dfbc 751e 27be a5d8 01be
000001e0: 7c9a 1ebe 5f46 0fbe 7962 b93b e3c7 dc3d
000001f0: f0ca 2d3c 86ec 76bc 64a1 e5bd 97e7 f8bd

lstm.bias_hh_l0_reverse f4 [128]
-0.067935 -0.06596318 0.14138684 -0.118090846 -0.17661288 0.04397427 -0.048275385 -0.13470398
0.03531105 -0.03157122 -0.1052662 0.12380936 -0.070556775 0.06180402 0.15850663 0.04210744
-0.027207745 -0.119971894 0.13370787 -0.11454285 0.022347054 0.0698373 -0.031265777 0.089770965
-0.16126974 0.1366845 0.054801308 -0.0016537128 -0.10442271 -0.11375715 0.018012876 0.08006879
0.06877801 0.09172585 -0.0079501625 -0.044081584 0.11572031 -0.034182165 -0.036871232 -0.17220923
0.13706458 0.11328603 -0.02445792 0.12447073 0.10638494 -0.13829906 0.13827766 0.046511743
0.009984437 0.021607881 0.093090825 0.11980214 -0.15216772 -0.07307037 -0.06841927 0.03260562
-0.0032424673 0.0776371 -0.044274528 0.033031706 0.010183139 0.07527921 -0.10420288 0.14138544
0.0039848243 0.08924986 -0.15323623 0.18484731 -0.015015583 -0.018598778 0.036804557 0.0013667695
-0.1641866 0.072252974 0.12942342 0.04933365 0.15064332 0.118222006 0.025189586 -0.16624631
-0.0078052846 -0.09187212 0.10252071 -0.07353102 -0.11115998 0.09879921 -0.12655342 0.16762365
0.098893166 0.13305096 -0.029698472 0.16839439 0.06490739 -0.03603015 -0.17521483 0.1330039
-0.0892766 0.06556125 -0.0061910795 0.049057063 -0.06075456 0.017509447 -0.092131406 -0.17095964
0.10279788 0.007792326 -0.10765218 -0.06359938 0.18066382 0.0706491 0.006317369 0.041530054
-0.13919558 0.14500117 -0.08659164 -0.16467276 -0.068784274 -0.12555075 0.15329297 0.030462326
-0.119701676 -0.025659742 -0.19557683 0.04540001 0.15250504 -0.06533319 0.17936267 0.15118238
00000000: 8121 8bbd b417 87bd b6c7 103e 9dd9 f1bd
00000010: 02da 34be 5d1e 343d 69bc 45bd d7ef 09be
00000020: 52a2 103d d350 01bd ce95 d7bd c38f fd3d
00000030: 1280 90bd 3626 7d3d 904f 223e da78 2c3d
00000040: c7e2 debc d3b3 f5bd b7ea 083e 7195 eabd
00000050: 2b11 b73c dc06 8f3d 8b10 00bd d7d9 b73d
00000060: e523 25be 06f7 0b3e 5677 603d 65c1 d8ba
00000070: 93db d5bd 82f9 e8bd bd8f 933c 1bfb a33d
00000080: 7cdb 8c3d c3da bb3d 6641 02bc e48e 34bd
00000090: c5fe ec3d 9902 0cbd 4a06 17bd 9e57 30be
000000a0: a85a 0c3e 8202 e83d fa5b c8bc 83ea fe3d
000000b0: 59e0 d93d 459e 0dbe a998 0d3e 1983 3e3d
000000c0: c495 233c 0303 b13c 67a6 be3d d35a f53d
000000d0: dbd1 1bbe eba5 95bd 671f 8cbd 788d 053d
000000e0: 937f 54bb 3300 9f3d 3559 35bd 414c 073d
000000f0: 2ed7 263c fd2b 9a3d 5268 d5bd 58c7 103e
00000100: 2193 823b a1c8 b63d f5e9 1cbe 9d48 3d3e
00000110: eb03 76bc 775c 98bc 60c0 163d 2d25 b33a
00000120: 8820 28be 5ef9 933d 9387 043e 1512 4a3d
00000130: 3e42 1a3e 611e f23d 645a ce3c 793c 2abe
00000140: 79c3 ffbb 7327 bcbd 61f6 d13d 6e97 96bd
00000150: d8a7 e3bd 3d57 ca3d 3897 01be 89a5 2b3e
00000160: 8088 ca3d 833e 083e 364a f3bc 946f 2c3e
00000170: 2aee 843d 5a94 13bd 846b 33be 2d32 083e
00000180: a6d6 b6bd fa44 863d 8ade cabb 0ff0 483d
00000190: c6d9 78bd f96f 8f3c 64af bcbd 0b10 2fbe
000001a0: b287 d23d c556 ff3b bf78 dcbd 6440 82bd
000001b0: f0ff 383e 7ab0 903d ef01 cf3b 6b1b 2a3d
000001c0: 4989 0ebe 307b 143e f556 b1bd fa9f 28be
000001d0: c5de 8cbd 6090 00be d5f8 1c3e 218c f93c
000001e0: 2726 f5bd 6134 d2bc 4b45 48be 5cf5 393d
000001f0: 482a 1c3e 68cd 85bd d9aa 373e 8ecf 1a3e

lstm.weight_ih_l1 f4 [128, 64]
0.099588625 -0.15446262 0.020017583 0.055809315 0.11720141 -0.11335914 0.14064951 0.12714218
0.1795487 0.0961866 -0.05310881 -0.099089175 0.10099652 0.0073007895 0.027232789 -0.090420246
-0.017498942 -0.088742144 0.19700295 0.019316925 -0.055024587 -0.059074663 -0.09126266 -0.09763854
-0.10449816 -0.07890222 -0.118967675 0.070664346 0.16936177 -0.0543849 0.07238891 0.14274965
-0.18651351 -0.12858656 0.1320913 0.01309091 0.012393249 0.18620847 0.13526244 0.11251064
0.119805425 0.03129376 -0.06646522 0.0068714167 -0.08719478 0.035305765 -0.13918935 0.14823745
-0.10260392 -0.07887409 -0.11013785 0.121315256 -0.011387142 0.109491885 0.09861525 -0.05508503
0.071361184 -0.07004075 -0.08167704 -0.09890889 -0.055414952 -0.054418776 -0.14911975 -0.033073746
0.015250371 -0.041392174 0.03508895 0.06653627 -0.01258749 -0.0081278365 -0.037951514 0.11546854
0.023267612 0.10074439 -0.07132501 0.06339151 0.08461848 0.09222668 0.07758788 -0.14845309
-0.022067426 -0.06756935 0.06258833 -0.018049834 -0.08044646 -0.052230503 -0.074584186 0.07482671
0.11443206 0.013402507 0.11832976 0.18316925 0.037900325 0.1015467 0.118738525 0.121272594
-0.16013841 -0.006490722 -0.13828321 0.011170179 -0.101591155 -0.06855883 -0.0782241 -0.070460744
-0.0030310152 -0.03822866 -0.07691273 -0.022078969 -0.12504312 -0.032119397 -0.055159893 -0.031767473
0.115027405 0.004731527 -0.12003497 0.14680387 -0.12945198 -0.14294732 -0.020295018 0.097883135
-0.10953349 0.11324474 -0.12742189 0.046093106 -0.030012963 0.19391154 0.08157932 0.07176286
-0.013502692 -0.05229312 -0.13067149 0.15904178 0.039375067 -0.1199662 -0.16674717 0.030217204
-0.036417633 0.04795738 0.06080392 -0.10908224 0.06070298 0.1398582 -0.15618904 -0.098271266
-0.12718888 0.014508061 0.15911588 -0.13226546 0.10071422 -0.07734781 0.06113956 0.067000255
0.12982656 0.07233611 -0.050135832 -0.010588419 -0.15512206 0.058644146 -0.10799904 -0.024958082
0.12211458 0.06292443 -0.12581053 0.15396412 0.15722604 -0.14325139 0.018209303 -0.021920446
-0.123732276 0.10432161 -0.034179013 0.06085432 -0.16115713 -0.12774692 0.028032348 -0.028047761
-0.15411595 0.039477434 0.09693263 0.10980404 0.0518684 -0.039778277 0.15884466 -0.14780624
-0.066687204 0.19222164 0.15366843 0.1371886 0.10630477 -0.04663982 0.11197488 0.107730865
-0.0017933833 -0.0022309797 -0.045503814 0.17811474 0.0015377292 -0.091537304 0.06236053 0.12327991
-0.13787301 0.03294025 -0.04505066 -0.08747537 0.0021267058 -0.10353202 0.11609221 -0.17604369
0.1784158 -0.023384843 0.07725631 0.08375674 -0.09049377 -0.10961392 -0.030401127 -0.045003835
0.13001491 0.08586442 -0.0042599905 0.16850327 0.10983697 -0.01652085 0.037780967 -0.11615256
0.055887662 0.13242717 -0.068309925 0.0045676534 0.102793455 0.13186306 -0.19238085 -0.13611576
-0.014825848 0.14566597 -0.14189716 0.027844526 -0.13430448 -0.007050456 -0.053717434 -0.10923483
-0.102428086 -0.13281037 0.09655788 -0.018392494 -0.1363269 -0.036075275 -0.115267865 -0.13809721
0.093162425 -0.062437896 -0.15173559 -0.124855205 -0.029192198 -0.038500313 -0.13065654 0.062620044
00000000: 1ff5 cb3d 732b 1ebe eafb a33c 4f98 643d
00000010: 4b07 f03d d628 e8bd 6d06 103e 8f31 023e
00000020: 9ddb 373e 7bfd c43d a088 59bd 44ef cabd
00000030: 43d7 ce3d 763b ef3b 4c17 df3c 402e b9bd
00000040: f159 8fbc 71be b5bd 24bb 493e 873e 9e3c
00000050: 7661 61bd 46f8 71bd ebe7 babd b7f6 c7bd
00000060: 2203 d6bd 7d97 a1bd 53a5 f3bd 78b8 903d
00000070: 2c6d 2d3e b3c2 5ebd a340 943d f72c 123e
00000080: 66fd 3ebe 32ac 03be f142 073e 427b 563c
00000090: 0e0d 4b3c 6fad 3e3e 3d82 0a3e fa6b e63d
000000a0: 8c5c f53d e32d 003d eb1e 88bd 9f29 e13b
000000b0: 2d93 b2bd c79c 103d a787 0ebe 8fcb 173e
000000c0: 0122 d2bd bd88 a1bd f48f e1bd 2274 f83d
000000d0: 2391 3abc 483d e03d cbf6 c93d d7a0 61bd
000000e0: d025 923d 8671 8fbd 4b46 a7bd be90 cabd
000000f0: cafa 62bd 39e6 5ebd d9b2 18be 5678 07bd
00000100: b1dc 793c d78a 29bd 6eb9 0f3d 2b44 883d
00000110: c23b 4ebc 9e2a 05bc 0c73 1bbd c57a ec3d
00000120: b89b be3c 1353 ce3d d912 92bd 68d3 813d
00000130: 744c ad3d 57e1 bc3d 65e6 9e3d 1604 18be
00000140: bfc6 b4bc cd61 8abd 4f2e 803d 3fdd 93bc
00000150: 1dc1 a4bd a7ef 55bd 98bf 98bd bf3e 993d
00000160: 5b5b ea3d 3096 5b3c e056 f23d b890 3b3e
00000170: 5f3d 1b3d b7f7 cf3d 2f2d f33d c45d f83d
00000180: 53fb 23be 1fb0 d4bb 1d9a 0dbe 2003 373c
00000190: 060f d0bd 9268 8cbd f533 a0bd b94d 90bd
000001a0: ffa3 46bb a895 1cbd 6c84 9dbd f4de b4bc
000001b0: 4e0b 00be a18f 03bd 57ef 61bd 9c1e 02bd
000001c0: 7d93 eb3d ed0a 9b3b e5d4 f5bd c153 163e
000001d0: 0f8f 04be c860 12be bd41 a6bc f476 c83d
000001e0: 1853 e0bd dcec e73d e27a 02be 20cc 3c3d
000001f0: bfdd f5bc bf90 463e 0f13 a73d 68f8 923d
00000200: 653a 5dbc 5031 56bd bfce 05be d9db 223e
00000210: c047 213d d7b0 f5bd c5bf 2abe 128a f73c
00000220: a82a 15bd f56e 443d 880d 793d 8266 dfbd
00000230: b0a3 783d fd36 0f3e 05f0 1fbe 7242 c9bd
00000240: cd3d 02be 38b3 6d3c 46ef 223e 9970 07be
00000250: 4243 ce3d 8768 9ebd 7a6d 7a3d 6e37 893d
00000260: 41f1 043e f424 943d 3b5b 4dbd 0c7b 2dbc
00000270: 51d8 1ebe d834 703d 9a2e ddbd e474 ccbc
00000280: 3517 fa3d 86de 803d 7ad4 00be c5a8 1d3e
00000290: ddff 203e 7eb0 12be ad2b 953c 8292 b3bc
000002a0: 5967 fdbd 91a6 d53d 4bff 0bbd 6142 793d
000002b0: 6006 25be 17d0 02be 18a4 e53c 6bc4 e5bc
000002c0: 92d0 1dbe 17b3 213d 9d84 c63d f1e0 e03d
000002d0: f673 543d 8cee 22bd 2da8 223e 855a 17be
000002e0: 4d93 88bd c0d5 443e 425b 1d3e 2b7b 0c3e
000002f0: 51b6 d93d 6509 3fbd 1653 e53d 00a2 dc3d
00000300: f50f ebba a135 12bb 3562 3abd b663 363e
00000310: a18d c93a e977 bbbd c16d 7f3d 2d7a fc3d
00000320: 952e 0dbe 5bec 063d 0a87 38bd 4926 b3bd
00000330: 3460 0b3b 9808 d4bd c1c1 ed3d cc44 34be
00000340: a2b2 363e 9291 bfbc 8e38 9e3d a788 ab3d
00000350: cc54 b9bd 437d e0bd c90b f9bc f155 38bd
00000360: a122 053e afd9 af3d 6497 8bbb 1f8c 2c3e
00000370: 35f2 e03d bc56 87bc 37c0 1a3d 65e1 edbd
00000380: 76ea 643d fd9a 073e 13e6 8bbd 41ac 953b
00000390: 6085 d23d 1c07 073e 7cff 44be ee61 0bbe
000003a0: 1de8 72bc 7629 153e 7d4d 11be 341a e43c
000003b0: 1d87 09be 8307 e7bb d006 5cbd 83b6 dfbd
000003c0: d1c5 d1bd 71ff 07be 23c0 c53d dbab 96bc
000003d0: 4799 0bbe abc3 13bd 8f11 ecbd 5b69 0dbe
000003e0: f1cb be3d e1be 7fbd 9360 1bbe 16b4 ffbd
000003f0: 7a24 efbc 81b2 1dbd d4ca 05be f03e 803d

lstm.weight_hh_l1 f4 [128, 32]
0.14540508 0.14900073 -0.036615428 0.10420652 0.031099193 -0.07905562 0.11693385 -0.087655626
0.14302702 -0.10805615 -0.050137307 -0.12059387 0.15139684 0.17804448 -0.08136976 0.023800487
0.15311405 0.041947626 -0.07242293 0.10167344 0.035925303 0.005514937 0.07051941 0.13005741
0.17614129 -0.1472987 0.027570035 0.1697822 -0.17311321 0.024025269 0.04860848 -0.0353532
-0.15623519 0.07595932 0.09966408 0.17958714 0.13915886 -0.0992208 0.0939268 -0.07043547
0.028697584 -0.092929386 0.02500808 0.081835926 0.11946567 0.07598121 -0.102834135 0.12952675
0.10773256 0.069148414 0.018195918 0.10671871 -0.006450966 0.09407344 -0.081526786 0.00021735039
0.08620445 0.09360696 0.07999475 0.08501295 -0.07698875 0.013047088 -0.07246677 -0.16756825
0.048066 0.07940191 0.18594998 -0.07101667 0.023948543 0.10056655 -0.015509588 -0.10802301
0.101351835 -0.046502158 -0.032613665 0.041850656 0.03340873 0.059895188 0.051598452 0.10077091
0.072591595 0.050337054 -0.14566004 0.11754342 0.01908803 0.14418437 0.109322004 0.1425775
0.14679956 0.022695571 -0.04023574 0.107352786 -0.13073194 0.11478677 -0.0853245 -0.035795685
0.16673468 0.018754054 0.034157556 0.021784011 0.073562495 -0.03363959 -0.06819016 -0.06910318
-0.11877254 -0.0042925356 -0.14577235 -0.0060358946 -0.09032875 -0.16233547 -0.10690913 -0.0074803
-0.08702596 -0.030715693 0.13931161 -0.017480263 0.11653136 -0.1572412 0.12917916 -0.080256
0.06718591 -0.057881165 0.10725516 -0.1352907 0.03045978 0.051399715 0.097418234 0.064862624
-0.123384945 0.048804216 -0.14275645 0.038172644 -0.0107247615 -0.091892116 -0.058658198 0.102548204
-0.085928865 0.015397124 0.09595279 -0.00644332 0.13955373 0.030507173 0.11228685 -0.008172547
0.06593302 -0.02505532 0.07801006 0.014123878 0.04282743 -0.14379169 0.17139573 0.039136995
0.0346667 0.022372609 0.02645097 0.12544824 -0.10344343 0.11424602 0.032320686 -0.04972329
-0.14753969 0.05306922 0.08839737 -0.013057778 -0.10621335 -0.13800094 -0.18108448 0.12710476
-0.16800308 -0.03127212 -0.13225298 -0.07843182 -0.08693248 0.11927457 -0.08505565 0.12829614
-0.034242056 -0.18071805 -0.094017826 -0.07996404 0.18008219 0.004133562 0.028891873 0.10135966
-0.122770734 0.18975864 0.15538923 0.09654537 -0.043166414 0.040164895 0.16019677 -0.028462183
0.02083905 0.12730832 -0.112418875 0.16064163 0.07458013 0.06703208 -0.1538339 0.11801012
-0.07083569 -0.12288238 0.045570474 -0.11443649 -0.17355306 -0.16096845 0.086804636 -0.14135872
-0.03671032 0.18322106 -0.11324943 -0.09820465 0.018560791 0.1303603 0.036122505 -0.0037724145
-0.16726105 -0.12050287 -0.05473455 0.00920347 -0.12161262 0.07264336 0.08819373 0.0850682
-0.15246977 0.12093409 -0.001699003 0.13126044 -0.012135397 -0.00516781 0.180934 -0.07620501
0.07086483 0.025525948 -0.049668536 -0.03376861 0.021114945 -0.09936493 -0.074810326 -0.07894624
-0.18896122 0.022098001 -0.09919143 -0.13481398 -0.11436289 0.090941824 -0.12679954 0.14242238
-0.09178826 -0.0005611995 -0.08176509 0.06728482 0.105069414 0.0775394 -0.092104346 -0.071883924
00000000: 12e5 143e a693 183e 0ffa 15bd 3a6a d53d
00000010: bcc3 fe3c eae7 a1bd 047b ef3d cb84 b3bd
00000020: ad75 123e 8b4c ddbd c75c 4dbd ebf9 f6bd
00000030: c607 1b3e 4b51 363e 30a5 a6bd 3df9 c23c
00000040: eec9 1c3e 46d1 2b3d 7952 94bd 2a3a d03d
00000050: 6926 133d a5b6 b43b 7b6c 903d c52d 053e
00000060: 625e 343e 78d5 16be 8eda e13c 63db 2d3e
00000070: 9744 31be a4d0 c43c af19 473d 84ce 10bd
00000080: 1efc 1fbe 8f90 9b3d ae1c cc3d b1e5 373e
00000090: a97f 0e3e 4634 cbbd b25c c03d 7940 90bd
000000a0: 3217 eb3c c351 bebd bfdd cc3c 9899 a73d
000000b0: 6baa f43d 099c 9b3d b49a d2bd a9a2 043e
000000c0: e3a2 dc3d af9d 8d3d 9b0f 953c 578f da3d
000000d0: a062 d3bb 93a9 c03d 84f7 a6bd 8de8 6339
000000e0: f58b b03d 01b5 bf3d 4ad4 a33d 451b ae3d
000000f0: 47ac 9dbd 74c3 553c 7569 94bd 0397 2bbe
00000100: dbe0 443d 789d a23d ac69 3e3e 3071 91bd
00000110: bc2f c43c d6f5 cd3d ed1b 7ebc 2b3b ddbd
00000120: 8d91 cf3d 0c79 3ebd e895 05bd 986b 2b3d
00000130: 98d7 083d a854 753d e658 533d fb60 ce3d
00000140: e7aa 943d 3a2e 4e3d e827 15be 9bba f03d
00000150: 805e 9c3c 11a5 133e 37e4 df3d d6ff 113e
00000160: a052 163e 10ec b93c 3bce 24bd c7db db3d
00000170: 98de 05be 5315 eb3d 9dbe aebd 7f9e 12bd
00000180: 7fbc 2a3e 1aa2 993c cbe8 0b3d 6274 b23c
00000190: efa7 963d abc9 09bd 48a7 8bbd f885 8dbd
000001a0: 043f f3bd 66a8 8cbb 5945 15be c1c8 c5bb
000001b0: 48fe b8bd 453b 26be 2df3 dabd 4e1d f5bb
000001c0: ab3a b2bd 7a9f fbbc b4a7 0e3e c532 8fbc
000001d0: fea7 ee3d d603 21be 8b47 043e 425d a4bd
000001e0: c498 893d cd14 6dbd 98a8 db3d a589 0abe
000001f0: ca86 f93c 8288 523d 3683 c73d b2d6 843d
00000200: 3fb1 fcbd eee6 473d bf2e 12be eb5a 1c3d
00000210: e9b6 2fbc ef31 bcbd 9443 70bd cb04 d23d
00000220: 79fb afbd 3844 7c3c e582 c43d 7c22 d3bb
00000230: 2ce7 0e3e 2eea f93c a6f6 e53d 26e6 05bc
00000240: e407 873d d040 cdbc bdc3 9f3d d767 673c
00000250: d16b 2f3d 213e 13be 5d82 2f3e 1d4e 203d
00000260: abfe 0d3d c346 b73c b4af d83c 8175 003e
00000270: 26da d3bd d1f9 e93d b262 043d a6aa 4bbd
00000280: a514 17be 1c5f 593d ae09 b53d 4af0 55bc
00000290: 6386 d9bd 1e50 0dbe 366e 39be c027 023e
000002a0: 0009 2cbe 3217 00bd 536d 07be dda0 a0bd
000002b0: a809 b2bd 3a46 f43d a831 aebd 1060 033e
000002c0: 6641 0cbd 270e 39be 6b8c c0bd 30c4 a3bd
000002d0: 7767 383e d572 873b a6ae ec3c a795 cf3d
000002e0: 396f fbbd 1750 423e 5b1e 1f3e 94b9 c53d
000002f0: 44cf 30bd f283 243d 9f0a 243e 8629 e9bc
00000300: a8b6 aa3c 1d5d 023e de3b e6bd 3d7f 243e
00000310: 78bd 983d 1d48 893d a286 1dbe 4aaf f13d
00000320: 4d12 91bd c2a9 fbbd 1ba8 3a3d ae5d eabd
00000330: e5b7 31be ead4 24be a1c6 b13d 57c0 10be
00000340: 8f5d 16bd 4d9e 3b3e 51ef e7bd 851f c9bd
00000350: cd0c 983c 2c7d 053e 31f5 133d 9d3a 77bb
00000360: 7b46 2bbe 35ca f6bd 5631 60bd 27ca 163c
00000370: 0a10 f9bd 0bc6 943d ea9e b43d 3d38 ae3d
00000380: 0921 1cbe 4bac f73d 15b1 deba 2369 063e
00000390: 8bd3 46bc bb56 a9bb c346 393e 5f11 9cbd
000003a0: 9421 913d cb1b d13c 3c71 4bbd f450 0abd
000003b0: 40f9 ac3c d77f cbbd 2836 99bd 91ae a1bd
000003c0: 0d7f 41be de06 b53c e024 cbbd ad0c 0abe
000003d0: 1737 eabd b53f ba3d bdd7 01be 2cd7 113e
000003e0: 7cfb bbbd 761d 13ba 7574 a7bd a0cc 893d
000003f0: a22e d73d facc 9e3d 34a1 bcbd e137 93bd
