result_train/seqmodel_ep35.pth (torch, 390389 bytes, 44 tensors)

lstm.weight_ih_l0 f4 [128, 7]
0.1322178 0.072043315 0.105516836 -0.14933042 -0.16435982 0.11949136 -0.146506 0.16258015
-0.021103188 -0.044653505 -0.032611556 0.11731898 0.14260639 0.06842127 0.16084296 -0.07090895
0.09120337 0.08147841 0.03332762 -0.036084987 0.04939295 0.0726901 -0.06109968 -0.05535202
-0.06815806 -0.002936678 -0.089525886 -0.044858664 -0.00948893 0.02613948 0.17654085 0.15751855
-0.09277463 -0.1172895 0.10257532 0.16866437 -0.13978882 0.026057975 -0.050054688 -0.042170607
0.01593415 0.032563508 -0.07642416 -0.079156995 0.11852604 0.19889325 0.0818981 -0.04649856
-0.16522403 0.17777596 0.11154746 0.06009011 -0.07453323 0.06041832 -0.05339647 -0.027261797
-0.06994102 0.046643738 -0.12859258 0.13461736 0.0029908493 -0.06096648 -0.05816367 0.031234512
0.05103138 -0.018555528 -0.06779518 0.03106798 0.043444976 -0.106151566 0.15502223 -0.13809076
-0.012852461 0.014970457 0.005995145 0.05033298 0.09641666 -0.16155115 0.040266275 0.10372133
0.20564364 -0.03346656 0.0030621812 -0.17529628 0.026647538 -0.17549025 -0.17846927 0.06262635
-0.040791765 0.08785714 -0.01427781 -0.09324992 0.13031214 0.07794457 0.122270584 -0.16951239
-0.10170349 -0.03475863 0.021191314 -0.181578 0.17309272 -0.004193047 -0.084905714 -0.16598482
-0.05233047 0.02979067 -0.0931352 -0.069717966 -0.027039727 0.13420008 0.15235347 -0.17100805
0.02649605 0.058769528 -0.03687926 0.04145795 -0.13585114 -0.0063273087 0.042843476 0.15627891
0.0177543 -0.048797816 -0.06961963 0.12768777 0.17839462 -0.15424988 -0.082786456 0.112535626
0.115684204 -0.006924636 0.17062172 -0.05573555 0.08812167 0.040351365 0.11883921 -0.19588417
0.13779756 0.017758252 -0.06934011 -0.062093012 0.09962941 -0.055305637 0.1680444 0.07400606
0.11034299 0.05827016 0.07715224 0.02775132 0.037757587 -0.06735548 0.05850636 0.02381895
-0.06649315 -0.0068475995 -0.15512268 -0.13534138 -0.09201298 0.028838126 -0.10177854 -0.038964946
0.15705 0.02145239 -0.105257295 0.021915441 0.16859865 -0.13706554 -0.15937705 0.05512646
-0.063886724 -0.042441104 0.028074155 -0.061782856 -0.13850573 -0.02655562 -0.14454927 -0.13797556
-0.13637914 0.090409994 -0.1120392 0.042025883 -0.11202697 -0.01319642 0.14925012 0.08570051
0.11003392 0.08326584 -0.04995771 -0.00018849711 -0.018542353 0.017524185 0.13193691 0.18361782
-0.07037836 0.12300859 0.1500016 0.08970724 0.008795592 -0.18111257 -0.0791877 -0.1447841
0.17641978 -0.055417214 -0.08150615 -0.07593458 -0.07793898 -0.0039376062 -0.12340021 0.05709241
-0.15610962 0.08352017 -0.05690292 -0.034392048 -0.076306194 0.1051522 0.15395407 -0.103446454
-0.0666988 0.12714747 0.09599794 -0.074267 -0.091484025 -0.18097124 0.1303321 -0.102399975
0.04482882 -0.060583223 0.044806287 0.056787327 -0.002506081 0.030245887 -0.06546031 -0.09903566
-0.14910232 -0.0080526965 -0.13393927 -0.0147544285 -0.16425279 -0.003477602 -0.029624065 -0.17477034
-0.04453973 0.13857125 -0.09868821 -0.103713885 -0.109191604 -0.145429 -0.053601254 0.056296628
-0.16443689 -0.17102359 -0.023142627 0.16045055 -0.14718676 0.10437575 0.16991362 -0.18327947
00000000: 1a64 073e 728b 933d 3619 d83d 13ea 18be
00000010: f14d 28be e3b7 f43d ab05 16be 697b 263e
00000020: 98e0 acbc 98e6 36bd b293 05bd ef44 f03d
00000030: 6907 123e 7320 8c3d 04b4 243e b638 91bd
00000040: d5c8 ba3d 27de a63d 8b82 083d dacd 13bd
00000050: 4350 4a3d 8cde 943d a843 7abd cdb8 62bd
00000060: 7496 8bbd 4875 40bb 5959 b7bd b8bd 37bd
00000070: 7577 1bbc 7622 d63c 20c7 343e 8b4c 213e
00000080: a000 bebd 7a35 f0bd 0213 d23d 5ab6 2c3e
00000090: cd24 0fbe 8977 d53c 2506 4dbd 16bb 2cbd
000000a0: 5688 823c 5061 053d 4584 9cbd 101d a2bd
000000b0: c8bd f23d acaa 4b3e 31ba a73d 4675 3ebd
000000c0: 7d30 29be e70a 363e ff72 e43d 0c21 763d
000000d0: e1a4 98bd 3379 773d 42b6 5abd 2254 dfbc
000000e0: 3d3d 8fbd 810d 3f3d c6ad 03be 22d9 093e
000000f0: 2002 443b fdb7 79bd 073d 6ebd 85df ff3c
00000100: 4806 513d c301 98bc 33d8 8abd 4782 fe3c
00000110: 5cf3 313d fe65 d9bd 26be 1e3e aa67 0dbe
00000120: 2193 52bc a646 753c ec72 c43b f429 4e3d
00000130: 1976 c53d aa6d 25be 40ee 243d d96b d43d
00000140: 3f94 523e 3b14 09bd e0ae 483b de80 33be
00000150: f04b da3c b7b3 33be a6c0 36be 3e42 803d
00000160: 4415 27bd 72ee b33d 7aed 69bc d0f9 bebd
00000170: 8c70 053e 67a1 9f3d 0069 fa3d a894 2dbe
00000180: eb49 d0bd 115f 0ebd 6899 ad3c 95ef 39be
00000190: 383f 313e d465 89bb 0ce3 adbd edf7 29be
000001a0: 7a58 56bd 900b f43c abbd bebd 4bc8 8ebd
000001b0: 6b82 ddbc bf6b 093e 8c02 1c3e bc1c 2fbe
000001c0: 3f0e d93c 51b8 703d b50e 17bd d0cf 293d
000001d0: 901c 0bbe 5055 cfbb a47c 2f3d 9407 203e
000001e0: 7771 913c 38e0 47bd bd94 8ebd 95c0 023e
000001f0: 14ad 363e aef3 1dbe f28b a9bd 1479 e63d
00000200: d7eb ec3d 0fe8 e2bb 76b7 2e3e f64a 64bd
00000210: 2279 b43d 7947 253d f961 f33d dc95 48be
00000220: ce1a 0d3e c179 913c 3002 8ebd 3e55 7ebd
00000230: 810a cc3d 2a88 62bd d513 2c3e 7d90 973d
00000240: 81fb e13d b1ac 6e3d fe01 9e3d bc56 e33c
00000250: b3a7 1a3d abf1 89bd 5da4 6f3d f51f c33c
00000260: 902d 88bd d461 e0bb 7bd8 1ebe ee96 0abe
00000270: 4d71 bcbd ef3d ec3c 4471 d0bd b599 1fbd
00000280: b7d1 203e ecbc af3c 2391 d7bd 0388 b33c
00000290: 20a5 2c3e e95a 0cbe bd33 23be 48cc 613d
000002a0: 0bd7 82bd b9d6 2dbd c5fb e53c 0510 7dbd
000002b0: 72d4 0dbe 2c8b d9bc b904 14be 7749 0dbe
000002c0: f9a6 0bbe e028 b93d cf74 e5bd 5523 2c3d
000002d0: 656e e5bd cc35 58bc 06d5 183e c083 af3d
000002e0: 7759 e13d 4887 aa3d 75a0 4cbd 4fa7 45b9
000002f0: 22e6 97bc e18e 8f3c 781a 073e 4f06 3c3e
00000300: 8822 90bd edeb fb3d 059a 193e 6eb8 b73d
00000310: 631b 103c 9375 39be 292d a2bd 4842 14be
00000320: 63a7 343e 29fd 62bd b2ec a6bd 9783 9bbd
00000330: 799e 9fbd 0907 81bb 40b9 fcbd bbd9 693d
00000340: 33db 1fbe 9f0c ab3d 0913 69bd adde 0cbd
00000350: 6c46 9cbd 095a d73d 23a6 1d3e bcdb d3bd
00000360: 6199 88bd f232 023e 919a c43d 4c19 98bd
00000370: fa5b bbbd 8650 39be c775 053e 14b7 d1bd
00000380: 6d9e 373d 1d26 78bd cc86 373d d499 683d
00000390: 103d 24bb 39c6 f73c 0e10 86bd 35d3 cabd
000003a0: 47ae 18be 75ef 03bc 6027 09be 8fbc 71bc
000003b0: e231 28be 7be8 63bb 2bae f2bc fff6 32be
000003c0: 4b6f 36bd 9fe5 0d3e 0b1d cabd f267 d4bd
000003d0: d99f dfbd 57eb 14be fd8c 5bbd 4b97 663d
000003e0: 2562 28be cf20 2fbe 9b95 bdbc 264d 243e
000003f0: 20b8 16be f4c2 d53d d6fd 2d3e 9dad 3bbe

lstm.weight_hh_l0 f4 [128, 32]
-0.081636295 0.16761413 -0.1040245 -0.059119422 -0.19455834 -0.17153178 -0.14079559 0.10960597
0.100258514 -0.17041087 -0.13830516 0.09030866 0.051372893 -0.12936015 0.008629137 -0.18643223
-0.16169769 0.10646767 0.15694872 0.0727685 0.090628214 -0.09585663 -0.08173906 0.15928093
-0.12178069 -0.15078238 0.14247696 0.05046201 0.04126371 -0.02765549 0.10010643 0.17000133
0.17862123 -0.034351192 -0.03616079 -0.11461544 0.07375248 -0.062313013 0.021503234 0.0907732
-0.1321149 0.113113806 -0.153761 -0.12524919 -0.026300047 -0.05424965 0.050101954 -0.09580027
-0.03686826 -0.13447149 -0.042666063 0.10117138 0.12223419 0.09703779 -0.111601904 0.084875755
0.15821649 -0.048579674 -0.08351383 -0.03885526 -0.13740319 -0.13813984 -0.13483106 -0.009863689
0.050031032 -0.0018123749 -0.06560847 -0.023494033 0.042036116 0.038436737 -0.15021434 0.12179399
-0.1859712 -0.013046897 0.0018368879 -0.094296806 0.15569259 0.0003240353 -0.00375577 -0.13074903
0.184462 -0.05623407 0.117175266 -0.14854658 0.092418246 0.11589787 -0.14794716 -0.00834228
0.07029779 0.113855705 -0.124864586 -0.012131786 0.11289159 0.031327248 0.18690811 0.016200544
-0.04059014 0.1405743 0.14919949 0.1643809 -0.052073274 -0.072751835 -0.07138735 0.084396414
0.16868334 0.122018605 -0.048629433 -0.034265313 0.045400638 0.10401663 -0.04441474 0.10820692
-0.13969636 -0.09858419 -0.0067837825 -0.10722164 -0.065345354 -0.118509546 0.056346588 -0.105749145
0.14960732 0.034338363 0.013892252 -0.16515346 0.09541218 -0.18070373 -0.1294753 0.015109411
-0.028345043 0.12729532 -0.07372635 0.05309574 -0.10438792 -0.1765764 0.044300884 -0.17373906
0.010168953 -0.11538792 0.14634885 0.13947754 -0.031149905 0.022000924 0.027217196 -0.09807172
-0.030729672 -0.15492661 -0.09381294 -0.1343872 -0.09767294 0.043705933 -0.10748955 -0.071574405
-0.13987447 -0.1168432 0.047396068 0.100402944 -0.08693247 0.09213904 0.10594988 -0.088144936
-0.007565469 0.067175515 -0.06341566 -0.12745026 0.18459158 -0.06560926 0.027141813 0.14568508
0.09406912 0.11879049 0.07088053 0.10394882 0.13347247 0.16760819 -0.036657244 0.08221224
-0.03116348 0.035571497 -0.17975408 0.1063252 0.16256952 0.1217863 -0.15679258 0.053719208
0.008367091 -0.1460584 -0.12306439 -0.16477114 0.014684317 0.16116935 -0.049594853 0.1138773
0.050533626 0.1830323 -0.13027675 -0.007478619 0.13579006 0.13484828 -0.14593372 -0.055705335
-0.0515223 -0.0055212174 0.16981961 0.06667923 -0.05158721 0.045785494 -0.14695361 -0.10034478
-0.070677705 -0.01718257 0.076031245 0.12347491 0.07435318 -0.17281231 -0.07565692 -0.13182305
-0.03773107 -0.16151927 0.07893932 -0.08668429 0.11333456 -0.058764286 0.15318584 0.01455612
-0.15603568 0.1760512 -0.062220477 -0.16349939 -0.06776288 -0.019630343 -0.060579814 0.013822058
-0.0856522 -0.10790643 -0.07623201 0.107743636 0.061419345 -0.14290023 0.16870229 0.084890276
-0.099936165 0.025418693 0.050486613 0.05027951 0.12534471 0.042453427 0.02095307 -0.10466934
0.064574845 -0.070732765 0.036973987 -0.1664222 0.10674247 0.05071135 -0.105781026 -0.06861512
00000000: ee30 a7bd 0aa3 2b3e cc0a d5bd 3527 72bd
00000010: 4d3a 47be 07a6 2fbe b82c 10be 1879 e03d
00000020: 5654 cd3d 3080 2ebe de9f 0dbe bff3 b83d
00000030: 626c 523d fd76 04be 3961 0d3c 17e8 3ebe
00000040: 1494 25be b90b da3d 2ab7 203e a707 953d
00000050: 499b b93d 7b50 c4bd cf66 a7bd 8a1a 233e
00000060: 2868 f9bd b266 1abe 7be5 113e 41b1 4e3d
00000070: 2304 293d c48d e2bc 9a04 cd3d d414 2e3e
00000080: 7ce8 363e d6b3 0cbd 561d 14bd 80bb eabd
00000090: 8a0b 973d ee3b 7fbd 8d27 b03c 4de7 b93d
000000a0: 2149 07be 36a8 e73d 8673 1dbe 5341 00be
000000b0: 3273 d7bc e234 5ebd b537 4d3d ef32 c4bd
000000c0: 2c03 17bd e5b2 09be 9cc2 2ebd f132 cf3d
000000d0: eb55 fa3d c0bb c63d 8a8f e4bd 57d3 ad3d
000000e0: 8103 223e 7bfb 46bd 4d09 abbd b126 1fbd
000000f0: 6cb3 0cbe 8874 0dbe 2711 0abe 4f9b 21bc
00000100: 57ed 4c3d 368d edba bc5d 86bd 8f76 c0bc
00000110: 102e 2c3d d76f 1d3d cad1 19be 216f f93d
00000120: 3c6f 3ebe a7c2 55bc bbc3 f03a af1e c1bd
00000130: e16d 1f3e 48e3 a939 5d23 76bb 13e3 05be
00000140: 9be3 3c3e b255 66bd 96f9 ef3d 981c 18be
00000150: c745 bd3d dd5b ed3d 767f 17be 0fae 08bc
00000160: 4af8 8f3d 2e2d e93d 01b9 ffbd 66c4 46bc
00000170: b533 e73d 0051 003d d764 3f3e 01b7 843c
00000180: d941 26bd b6f2 0f3e c0c7 183e 7753 283e
00000190: c94a 55bd eafe 94bd 8833 92bd 07d8 ac3d
000001a0: 53bb 2c3e e4e4 f93d a82f 47bd c959 0cbd
000001b0: 05f6 393d ac06 d53d 3bec 35bd 979b dd3d
000001c0: 900c 0fbe 82e6 c9bd 7e4a debb 0597 dbbd
000001d0: c9d3 85bd 22b5 f2bd aecb 663d 0293 d8bd
000001e0: a932 193e 62a6 0c3d 549c 633c fd1d 29be
000001f0: 7667 c33d 660a 39be 2c95 04be 778d 773c
00000200: dd33 e8bc b459 023e d7fd 96bd eb7a 593d
00000210: 55c9 d5bd 72d0 34be d874 353d a7e8 31be
00000220: ae9b 263c 8050 ecbd 79dc 153e 33d3 0e3e
00000230: 162e ffbc 483b b43c 99f6 de3c d3d9 c8bd
00000240: cbbc fbbc 15a5 1ebe 0021 c0bd cc9c 09be
00000250: c008 c8bd fe04 333d 7b23 dcbd 9a95 92bd
00000260: 413b 0fbe 7d4b efbd 6122 423d 0fa0 cd3d
00000270: a709 b2bd 65b3 bc3d 40fc d83d 5585 b4bd
00000280: c1e7 f7bb 5193 893d 12e0 81bd 5282 02be
00000290: 9305 3d3e 265e 86bd 8258 de3c 782e 153e
000002a0: 50a7 c03d 6e48 f33d d029 913d 1ee3 d43d
000002b0: 02ad 083e 7ba1 2b3e e825 16bd e45e a83d
000002c0: 8e4a ffbc 6bb3 113d 7411 38be 07c1 d93d
000002d0: a078 263e 186b f93d 3c8e 20be ac08 5c3d
000002e0: 2016 093c 5590 15be 2f09 fcbd c4b9 28be
000002f0: 7d96 703c 9409 253e f923 4bbd 8038 e93d
00000300: 59fc 4e3d d26c 3b3e 4567 05be 340f f5bb
00000310: 8d0c 0b3e ab15 0a3e a66f 15be 472b 64bd
00000320: 0c09 53bd 54eb b4bb 31e5 2d3e 1f8f 883d
00000330: 1c4d 53bd 9289 3b3d 027b 16be 9081 cdbd
00000340: 79bf 90bd 76c2 8cbc 45b6 9b3d 6ae0 fc3d
00000350: 7b46 983d b6f5 30be 04f2 9abd 9ffc 06be
00000360: e58b 1abd 4f65 25be f0aa a13d 8887 b1bd
00000370: f31b e83d d2b2 70bd c0dc 1c3e cb7c 6e3c
00000380: d1c7 1fbe c446 343e e6da 7ebd 626c 27be
00000390: 44c7 8abd d0cf a0bc 8a22 78bd ea75 623c
000003a0: 6c6a afbd 0cfe dcbd 871f 9cbd b2a8 dc3d
000003b0: da92 7b3d 7054 12be 4bc0 2c3e f4da ad3d
000003c0: 55ab ccbd dd3a d03c 0dcb 4e3d e3f1 4d3d
000003d0: 5d5a 003e a5e3 2d3d c6a5 ab3c e15c d6bd
000003e0: d13f 843d 57dc 90bd 0972 173d 956a 2abe
000003f0: cc9b da3d b4b6 4f3d b9a3 d8bd 1686 8cbd

lstm.bias_ih_l0 f4 [128]
0.14963068 0.03204777 0.071505055 0.17486995 0.007313335 -0.081354044 0.0630809 -0.06650102
-0.15842022 -0.11289356 0.14116096 0.120952666 -0.16917834 -0.13300426 0.08962669 0.0008595673
-0.13327482 -0.19235642 -0.07651279 0.19811206 -0.07951277 -0.12545836 0.101067 -0.053372316
-0.04861749 -0.118994206 0.09674025 0.005081574 -0.00048929785 0.1738441 -0.13284141 0.17727987
0.04638765 0.1780795 -0.1080083 0.1473232 -0.08823318 -0.16481858 0.06311459 -0.0056337574
-0.0059487517 -0.15275592 0.07084965 0.09388405 -0.16619763 -0.1530512 -0.09491901 0.007908618
-0.12634969 0.032706916 0.15784419 0.16922507 0.0497764 0.008935224 0.15142551 -0.046364255
-0.111124456 -0.11234246 0.14870974 0.043350186 -0.058888044 0.031670414 0.05491414 0.15154424
-0.13552292 0.021074751 -0.10199139 0.0022728464 -0.03309284 -0.12202619 -0.14053081 0.025891757
0.08655146 0.13700868 0.13516027 0.05101738 -0.03083495 -0.021941219 -0.15018854 -0.14625567
0.06267349 0.010907698 -0.101721495 -0.016055332 -0.12560427 0.09589166 -0.08596555 0.10662511
0.10776914 0.108929195 0.07396053 -0.071744524 -0.076201715 -0.06891805 0.16758597 -0.052205842
0.02838643 -0.061486755 -0.07409711 0.09143403 0.06829349 0.11193586 0.16965994 -0.0674407
0.11822605 0.13956195 0.029135324 0.024018042 0.10247278 0.01829798 -0.11949096 0.1373547
-0.08041848 -0.07501245 0.06687922 -0.01045557 0.096481144 -0.081633195 0.13474 -0.027280245
-0.055431176 0.021795854 0.0045543127 -0.14764844 0.10878259 -0.08496665 -0.07652389 -0.11434584
00000000: c938 193e 8644 033d 3e71 923d 1c11 333e
00000010: b3a4 ef3b f39c a6bd 8f30 813d b031 88bd
00000020: e938 22be bd34 e7bd 808c 103e 08b6 f73d
00000030: 163d 2dbe 4532 08be 338e b73d 9654 613a
00000040: 3279 08be 15f9 44be bdb2 9cbd e3dd 4a3e
00000050: 97d7 a2bd 2878 00be 37fc ce3d ee9c 5abd
00000060: 2223 47bd 3cb3 f3bd c11f c63d 5583 a63b
00000070: 3944 00ba 3004 323e 9407 08be db88 353e
00000080: fa00 3e3d 795a 363e 7533 ddbd e5db 163e
00000090: 99b3 b4bd 34c6 28be 3942 813d 629b b8bb
000000a0: bfed c2bb 0c6c 1cbe 9f19 913d 4846 c03d
000000b0: b62f 2abe 74b9 1cbe e664 c2bd 2693 013c
000000c0: d061 01be b0f7 053d e8a1 213e 5649 2d3e
000000d0: 57e2 4b3d 0c65 123c 4a0f 1b3e 72e8 3dbd
000000e0: 3895 e3bd ce13 e6bd 5e47 183e f78f 313d
000000f0: 9734 71bd d6b8 013d a6ed 603d 6a2e 1b3e
00000100: 85c6 0abe f5a4 ac3c dde0 d0bd 09f4 143b
00000110: 5c8c 07bd dee8 f9bd 4fe7 0fbe f31a d43c
00000120: e441 b13d 014c 0c3e 7467 0a3e 9af7 503d
00000130: 9499 fcbc 12be b3bc 06cb 19be 0cc4 15be
00000140: f55a 803d 34b6 323c 5c53 d0bd 7986 83bc
00000150: 689e 00be d962 c43d b50e b0bd 445e da3d
00000160: 11b6 dc3d 4516 df3d 9e78 973d cbee 92bd
00000170: a50f 9cbd e824 8dbd a89b 2b3e cbd5 55bd
00000180: a98a e83c 89d9 7bbd 3ac0 97bd c441 bb3d
00000190: 75dd 8b3d a13e e53d 56bb 2d3e 5a1e 8abd
000001a0: 8020 f23d 54e9 0e3e 34ad ee3c 7cc1 c43c
000001b0: 40dd d13d a5e5 953c adb7 f4bd b6a6 0c3e
000001c0: 72b2 a4bd 21a0 99bd f9f7 883d d74d 2bbc
000001d0: e897 c53d 4e2f a7bd 48f9 093e d27a dfbc
000001e0: cd0b 63bd 388d b23c 583c 953b 2731 17be
000001f0: 68c9 de3d ff02 aebd 8fb8 9cbd 272e eabd

lstm.bias_hh_l0 f4 [128]
-0.05993895 0.041711785 -0.096652746 0.056915376 -0.11024021 -0.1385696 -0.0667091 0.044036448
-0.1608056 0.14696261 0.13338956 0.095807076 0.05259481 -0.008111282 0.051907897 -0.01608677
0.13753398 -0.15705584 0.06550547 -0.017109945 -0.11032312 0.022530673 0.02211582 -0.14775074
-0.017651532 -0.15079927 0.11308442 0.12885913 -0.1649129 0.08128957 -0.0149885435 -0.061136805
-0.14961793 0.07048563 0.14277238 0.1365089 0.013835284 0.0826222 -0.16686164 -0.11795054
-0.07865067 0.064825214 0.061207507 0.015738789 -0.14390588 0.09480415 -0.16121839 0.071391694
0.12363428 -0.18638445 0.04438246 -0.15228666 -0.11347297 0.032018524 -0.13356306 -0.068583444
-0.016876299 -0.025940584 -0.050795514 0.108408384 -0.01825389 -0.01663804 -0.10077144 0.070282936
0.12854935 0.060914975 0.14271198 0.03756849 -0.11623167 -0.08681925 -0.072539225 0.17154509
0.031799443 0.08788425 0.06263078 -0.14841738 0.1186085 -0.047306933 0.15115796 -0.09004612
0.12709446 -0.15765524 0.04447393 -0.12634957 0.16167668 -0.0481246 0.027583806 0.010308905
0.03220531 -0.050842155 0.05163907 0.13934113 0.103293665 0.094237246 0.1039185 -0.09473128
0.17139174 -0.00072692765 0.11623388 0.07836088 -0.12075899 -0.13270807 0.17852545 -0.13202211
-0.07759267 -0.030247513 0.070046455 0.11416136 -0.05991432 -0.114453465 -0.110393375 0.029074611
-0.157678 -0.11328714 -0.026463028 0.15061834 -0.16878697 0.1937434 -0.03551385 -0.15388106
-0.025124088 -0.066539586 0.014076341 -0.048318677 -0.12681957 -0.10153229 0.062047057 -0.073199205
00000000: 8b82 75bd fad9 2a3d e0f1 c5bd 1920 693d
00000010: 9fc5 e1bd 30e5 0dbe c89e 88bd 905f 343d
00000020: 39aa 24be 5e7d 163e 4697 083e 8036 c43d
00000030: a86d 573d 2fe5 04bc 609d 543d 67c8 83bc
00000040: b5d5 0c3e 3fd3 20be bb27 863d 282a 8cbc
00000050: 17f1 e1bd 3f92 b83c 3c2c b53c f84b 17be
00000060: f299 90bc 206b 1abe ce98 e73d a6f3 033e
00000070: edde 28be 257b a63d 8292 75bc 966a 7abd
00000080: 7135 19be c55a 903d ec32 123e fdc8 0b3e
00000090: 63ad 623c d435 a93d c7dd 2abe 0d90 f1bd
000000a0: 9a13 a1bd 15c3 843d b9b4 7a3d a2ee 803c
000000b0: 105c 13be ae28 c23d 6f16 25be cf35 923d
000000c0: f833 fd3d 91db 3ebe 62ca 353d 09f1 1bbe
000000d0: 8464 e8bd db25 033d c1c4 08be 7a75 8cbd
000000e0: 2a40 8abc 5981 d4bc f50e 50bd 3705 de3d
000000f0: 2f89 95bc 804c 88bc 4261 cebd 80f0 8f3d
00000100: 71a2 033e fb81 793d 1723 123e 6be1 193d
00000110: df0a eebd 4ace b1bd 728f 94bd 84a9 2f3e
00000120: 2240 023d a8fc b33d 9144 803d bafa 17be
00000130: 03e9 f23d eac4 41bd 27c9 1a3e 1a6a b8bd
00000140: 0d25 023e 6070 21be 4c2a 363d c861 01be
00000150: 928e 253e 4d1e 45bd 6ff7 e13c aee6 283c
00000160: b7e9 033d dd3f 50bd 7d83 533d 71af 0e3e
00000170: a18b d33d 75ff c03d 39d3 d43d 7902 c2bd
00000180: 5181 2f3e 4a8f 3eba 070c ee3d ab7b a03d
00000190: 7d50 f7bd a0e4 07be 60cf 363e ce30 07be
000001a0: e8e8 9ebd a2c9 f7bc 8474 8f3d 6ecd e93d
000001b0: b868 75bd 9466 eabd ec15 e2bd e12d ee3c
000001c0: 5776 21be 1703 e8bd fec8 d8bc b23b 1a3e
000001d0: 7ed6 2cbe ab64 463e f976 11bd ff92 1dbe
000001e0: 08d1 cdbc e845 88bd 74a0 663c cee9 45bd
000001f0: fddc 01be 29f0 cfbd 0e25 7e3d 77e9 95bd

lstm.weight_ih_l0_reverse f4 [128, 7]
-0.14639407 -0.17103672 -0.031843036 -0.0008847871 -0.04174437 0.12404133 -0.14783837 0.0028912406
0.01655445 -0.14930235 -0.16696575 -0.1959499 -0.07942482 -0.18547252 0.06687594 -0.14040223
0.0075267176 -0.1621811 -0.1551181 -0.05554795 0.017355956 -0.13395807 0.06582244 -0.007551677
-0.08356446 0.020247046 -0.09983482 0.036685698 0.02176365 -0.10515794 0.11787621 0.089512
-0.0017225893 -0.07133715 -0.089794055 -0.067584984 -0.07076432 -0.05010952 0.011214938 0.1265455
-0.08778549 0.1260596 0.120573945 -0.1331503 -0.01851307 -0.14923257 -0.03810772 0.119388014
-0.085910656 -0.13260517 0.15912166 -0.14651047 -0.015036881 0.08057741 -0.10298324 0.027440682
0.05255104 0.11118397 0.124994725 -0.12357951 -0.023763422 -0.053018413 0.077788986 -0.043949265
-0.11277391 -0.0021343755 0.0061677154 -0.14330259 0.16984887 -0.11580939 -0.09032701 0.00619368
-0.1247782 0.043618843 0.099176876 -0.061925117 -0.09416496 0.07360557 0.1728355 0.03183286
-0.057715584 0.03596841 0.011990805 -0.09461193 -0.056117233 0.06321173 -0.1640101 0.19115832
-0.1266624 0.12255131 -0.15741326 -0.16860467 0.09373079 0.07436038 -0.12179105 0.11245074
0.02525952 0.15211284 0.09228173 -0.14451909 0.079225145 0.08286364 0.08807808 0.09156955
-0.028166302 0.036355898 0.010772348 -0.10903106 -0.06388878 -0.06474879 -0.099130526 0.17422213
0.11745944 0.11199987 0.058764428 0.041535985 -0.029228192 0.20745134 -0.048451617 -0.051225424
-0.08999902 0.12792927 -0.11797214 0.11846078 0.15226407 -0.16239142 0.102672406 -0.13229275
0.033417 -0.058706526 0.12665237 -0.03620273 0.01135015 -0.1198515 -0.011412473 -0.1481855
-0.08703 -0.12765835 0.05968325 0.09008639 -0.14183319 -0.03090848 -0.0940337 0.024063615
0.17935747 0.0911552 -0.0151783 0.08495629 -0.14686233 -0.104114115 -0.053507112 0.056112543
0.014785307 -0.0893148 -0.037717104 -0.110708795 0.051470067 -0.06413328 -0.18378511 0.09921703
-0.011072963 0.06345577 0.046250105 0.14857174 -0.07819019 -0.060362123 -0.10750452 0.057286195
-0.069342054 0.09633356 -0.12830682 -0.037431654 0.017271508 0.03840152 -0.15867954 0.17762616
-0.031643353 0.03521848 0.1429192 -0.16222747 -0.07800816 0.08526396 -0.09161803 -0.059588246
0.0601773 -0.071884766 0.11483025 -0.16106707 0.08738916 -0.07327349 0.018010655 -0.17007937
-0.16338031 -0.06259365 -0.02149942 0.05023467 -0.17993312 -0.076226704 0.051146965 -0.10829198
-0.07338363 0.045886066 0.15692961 0.0634964 0.02741792 0.13788322 -0.11332773 -0.074502006
0.11858335 0.08212609 0.09536287 -0.15104403 0.07902374 0.1416527 0.026955852 -0.19560361
-0.13979466 0.033262093 0.18892753 -0.1565112 0.010488077 0.055407934 -0.058207627 0.03083004
-0.09271866 -0.08511141 -0.09860621 -0.013563794 -0.091211446 0.115962066 -0.0795691 -0.048633922
0.030425575 0.0861489 0.017079666 -0.12430553 0.062623866 0.039090127 0.089029156 0.102682054
0.07867839 -0.16524558 -0.027340092 0.10729923 -0.054502133 -0.18029921 0.13582943 0.021288298
0.21522516 0.15033889 -0.042196374 -0.20774838 -0.0867387 0.16124295 -0.037526947 -0.12250903
00000000: 54e8 15be 4024 2fbe d86d 02bd 0ff1 67ba
00000010: 25fc 2abd 6109 fe3d f162 17be f87a 3d3b
00000020: 339d 873c b7e2 18be 12f9 2abe 17a7 48be
00000030: 7ba9 a2bd 82ec 3dbe 41f6 883d 9ac5 0fbe
00000040: afa2 f63b cd12 26be 47d7 1ebe 3f86 63bd
00000050: 142e 8e3c 4e2c 09be eacd 863d 0f74 f7bb
00000060: d823 abbd 22dd a53c 3376 ccbd be43 163d
00000070: af49 b23c 0c5d d7bd 1569 f13d 1152 b73d
00000080: 81c8 e1ba 3619 92bd f2e5 b7bd ff69 8abd
00000090: e2ec 90bd a43f 4dbd dcbe 373c 2595 013e
000000a0: e1c8 b3bd c515 013e 79ef f63d 8d58 08be
000000b0: b9a8 97bc 6cd0 18be d716 1cbd b481 f43d
000000c0: edf1 afbd a6c9 07be caf0 223e d706 16be
000000d0: 405d 76bc c505 a53d e0e8 d2bd 48cb e03c
000000e0: c23f 573d 6cb4 e33d 3cfd ff3d 4117 fdbd
000000f0: 82ab c2bc d629 59bd d54f 9f3d 2504 34bd
00000100: 02f6 e6bd e1e0 0bbb 8c1a ca3b eabd 12be
00000110: ddec 2d3e 792d edbd 5efd b8bd 5bf4 ca3b
00000120: b78b ffbd aca9 323d 3f1d cb3d 31a5 7dbd
00000130: 8fd9 c0bd 84be 963d cafb 303e 2c63 023d
00000140: 2d67 6cbd 9d53 133d 1575 443c e6c3 c1bd
00000150: 2fdb 65bd 2775 813d 43f2 27be 02bf 433e
00000160: cab3 01be 2efc fa3d f130 21be b4a6 2cbe
00000170: eef5 bf3d 414a 983d 966d f9bd 934c e63d
00000180: 0eed ce3c 78c3 1b3e 34fe bc3d d0fc 13be
00000190: cb40 a23d 69b4 a93d 4862 b43d d188 bb3d
000001a0: 04bd e6bc ece9 143d 817e 303c ad4b dfbd
000001b0: 1fd8 82bd 039b 84bd f204 cbbd 4967 323e
000001c0: 938e f03d 3060 e53d f8b2 703d a321 2a3d
000001d0: f66f efbc 206e 543e 3475 46bd c0d1 51bd
000001e0: 6851 b8bd e4ff 023e 619b f1bd 919b f23d
000001f0: 1deb 1b3e f049 26be e945 d23d c077 07be
00000200: 44e0 083d 4176 70bd 29b1 013e 5049 14bd
00000210: fbf5 393c b474 f5bd 62fb 3abc f1bd 17be
00000220: c93c b2bd dfb8 02be 6c76 743d 377f b83d
00000230: b83c 11be c833 fdbc be94 c0bd 0f21 c53c
00000240: 7ca9 373e 94af ba3d 68ae 78bc 90fd ad3d
00000250: 1463 16be c839 d5bd 462a 5bbd 44d6 653d
00000260: 133e 723c aeea b6bd 407d 1abd 4bbb e2bd
00000270: 47d2 523d 4f58 83bd 2a32 3cbe 4c32 cb3d
00000280: 5f6b 35bc 19f5 813d c070 3d3d 3123 183e
00000290: 2e22 a0bd 463e 77bd 542b dcbd eea4 6a3d
000002a0: 3503 8ebd 884a c53d dd62 03be ef51 19bd
000002b0: fa7c 8d3c ea4a 1d3d e47c 22be a2e3 353e
000002c0: 769c 01bd 4141 103d 6959 123e f51e 26be
000002d0: bec2 9fbd df9e ae3d 3ca2 bbbd ce12 74bd
000002e0: 797c 763d 5238 93bd 1f2c eb3d c4ee 24be
000002f0: 17f9 b23d 6910 96bd 158b 933c 4929 2ebe
00000300: 2b4d 27be 1931 80bd 8d1f b0bc dfc2 4d3d
00000310: 6340 38be bf1c 9cbd 7b7f 513d 30c8 ddbd
00000320: 284a 96bd 07f3 3b3d 28b2 203e 670a 823d
00000330: 8c9b e03c 4231 0d3e 5e18 e8bd 8294 98bd
00000340: d4db f23d b931 a83d 9c4d c33d 49ab 1abe
00000350: 33d7 a13d 680d 113e 85d2 dc3c 504c 48be
00000360: 5526 0fbe d53d 083d 3876 413e 7944 20be
00000370: 2fd6 2b3c 6ef3 623d 1f6b 6ebd 488f fc3c
00000380: 48e3 bdbd e44e aebd 0df2 c9bd ad3a 5ebc
00000390: 11cd babd 857d ed3d 20f5 a2bd 5d34 47bd
000003a0: 0e3f f93c d66e b03d a8ea 8b3c e693 febd
000003b0: f140 803d f81c 203d eb54 b63d f84a d23d
000003c0: 2322 a13d 2336 29be 54f8 dfbc b3bf db3d
000003d0: a13d 5fbd 5ba0 38be df16 0b3e cc64 ae3c
000003e0: fc63 5c3e 70f2 193e 1bd6 2cbd febb 54be
000003f0: 0fa4 b1bd df1c 253e dbb5 19bd 04e6 fabd

lstm.weight_hh_l0_reverse f4 [128, 32]
0.05022397 -0.1661611 -0.14598726 -0.051894784 -0.011479246 -0.009893534 -0.14311312 -0.12958537
0.0706187 0.095718265 0.09742268 0.06401887 0.12165967 -0.0020643428 0.073134415 -0.09146876
0.14757326 -0.010494436 0.12843469 -0.021262957 0.15180196 0.07792169 0.13891095 0.006625543
-0.047238007 0.022294972 0.0010026989 0.16639093 0.08352776 0.057933457 -0.081271686 0.10444484
-0.006059251 0.12484218 -0.056294292 0.12485928 -0.12376017 0.024848927 -0.17797378 -0.0634794
0.11809133 -0.090803236 0.10552038 0.06884254 -0.07798032 -0.039254118 -0.09752248 0.07528726
-0.037416108 -0.083810486 -0.15147279 0.01751722 0.0855208 -0.010307426 -0.120225094 0.15210155
-0.1258096 -0.16238408 -0.08219424 -0.12416835 0.026091702 0.19144914 -0.063050866 -0.11932928
-0.10754683 0.07522298 0.15776177 -0.065798715 0.16007172 -0.1439817 0.031152291 -0.009099785
-0.03537091 -0.13378538 0.09231613 0.03532847 -0.18645231 0.03313231 0.11439845 0.0069604926
0.09395523 0.008468658 0.064742535 0.070187226 -0.14367433 0.11334404 -0.03996957 -0.038450085
0.029715208 0.10977983 0.051272046 0.08511085 -0.06724743 0.095659584 0.16243613 -0.101803795
-0.06146389 0.15218993 0.14895868 0.14737199 -0.14973503 0.18091182 0.16646743 -0.17522262
-0.0836922 -0.00015395015 0.20395578 -0.0067372746 0.18348466 0.1786692 -0.039967492 -0.13354415
0.048412163 -0.093236454 -0.1919497 0.107386485 -0.15647838 0.1415244 0.0035120486 0.19925095
-0.060245372 0.19121787 -0.055196553 0.004306507 0.014186672 0.08126499 0.08686124 -0.095544375
-0.12420682 -0.052208405 0.116876535 0.044720143 -0.024718741 -0.07160053 -0.11544165 0.055817578
-0.16593674 -0.11081107 -0.11050316 -0.016504833 -0.16096337 -0.06239566 0.10151255 -0.09534446
-0.16265808 -0.11409387 -0.048110925 -0.0035722083 -0.15032993 -0.15402603 0.12754719 -0.00044894958
0.06210593 -0.09037175 -0.04178798 -0.13010131 0.06653907 0.09320393 0.08303181 -0.09248566
-0.05751544 -0.11329846 0.139267 -0.063467935 0.034833625 -0.019891469 -0.017214183 -0.10198356
-0.08497984 0.16140348 -0.12196216 0.031619348 0.06425565 -0.06898901 0.15084016 -0.1437663
0.02041747 0.112801574 -0.1348742 0.017720189 0.06758034 0.15260334 0.005678941 -0.15037836
0.028485222 -0.13186455 0.10104859 -0.0068915356 -0.16986458 -0.036632996 -0.16475855 -0.14159541
0.050507262 -0.08030144 -0.03129044 0.13402648 -0.1173702 0.11502117 -0.104473464 0.17211872
-0.1922988 0.0052477545 -0.034144994 0.07086593 -0.0648889 -0.033557624 -0.15883537 -0.17391488
0.08293914 0.07864367 -0.12919381 -0.18436927 0.11135913 0.13625863 0.019068552 0.058539145
0.044605665 0.16745426 0.11345589 -0.04579201 0.12768286 0.03669195 0.02048366 -0.1049655
-0.14270246 0.08336793 -0.0816251 0.043878514 0.005721846 -0.09726669 -0.18198782 -0.12852958
-0.07757929 -0.0831248 0.094475724 0.043257568 0.16561909 -0.106438406 -0.09429923 0.11861319
0.054414354 -0.06654154 -0.06822431 -0.15845567 0.060724396 -0.16808322 0.010647569 -0.16991454
-0.08025445 -0.15409373 -0.13556099 0.09552302 0.01677058 -0.029952567 -0.028466037 -0.019976415
00000000: a6b7 4d3d 2326 2abe af7d 15be a08f 54bd
00000010: 7313 3cbc 7d18 22bc 3f8c 12be 07b2 04be
00000020: 89a0 903d f007 c43d 8b85 c73d 531c 833d
00000030: b428 f93d ed49 07bb 7fc7 953d f953 bbbd
00000040: 721d 173e dbf0 2bbc 6284 033e a72f aebc
00000050: f971 1b3e 6895 9f3d ac3e 0e3e 151b d93b
00000060: a47c 41bd f2a3 b63c fe6c 833a 6262 2a3e
00000070: 9a10 ab3d a24b 6d3d c571 a6bd 2de7 d53d
00000080: ae8c c6bb 42ad ff3d d894 66bd 39b6 ff3d
00000090: f975 fdbd fa8f cb3c c23e 36be 7d01 82bd
000000a0: ded9 f13d 0cf7 b9bd 121b d83d 51fd 8c3d
000000b0: 25b4 9fbd edc8 20bd deb9 c7bd 3530 9a3d
000000c0: a241 19bd d5a4 abbd af1b 1bbe 4680 8f3c
000000d0: 8725 af3d 7ae0 28bc 9338 f6bd 82c0 1b3e
000000e0: 3bd4 00be 0348 26be 7455 a8bd fa4b febd
000000f0: 44be d53c 3e0b 443e d020 81bd e962 f4bd
00000100: 8341 dcbd 810e 9a3d 4d8c 213e 7ac1 86bd
00000110: d7e9 233e f06f 13be 1733 ff3c 4417 15bc
00000120: 16e1 10bd 09ff 08be 3d10 bd3d 96b4 103d
00000130: 5bed 3ebe bfb5 073d bc49 ea3d d814 e43b
00000140: 9a6b c03d 20c0 0a3c bc97 843d 52be 8f3d
00000150: 5d1f 13be ec20 e83d 22b7 23bd d67d 1dbd
00000160: 4f6d f33c 3fd4 e03d a302 523d 994e ae3d
00000170: 05b9 89bd 2ce9 c33d a855 263e 827e d0bd
00000180: 8fc1 7bbd add7 1b3e a088 183e afe8 163e
00000190: 2454 19be f340 393e 7076 2a3e 8f6d 33be
000001a0: d166 abbd ae6d 21b9 c9d9 503e 5bc4 dcbb
000001b0: 67e3 3b3e 0ff5 363e f4b4 23bd ccbf 08be
000001c0: d54b 463d c1f2 bebd 768e 44be 72ed db3d
000001d0: de3b 20be c6eb 103e 662a 663b 7108 4c3e
000001e0: dac3 76bd 9ece 433e c815 62bd 991d 8d3b
000001f0: 376f 683c 426e a63d 4ee4 b13d c5ac c3bd
00000200: 2560 febd 7bd8 55bd f75c ef3d 782c 373d
00000210: f57e cabc 4ca3 92bd ac6c ecbd f9a0 643d
00000220: 52eb 29be eaf0 e2bd 7b4f e2bd 2535 87bc
00000230: 95d3 24be 9792 7fbd d0e5 cf3d f543 c3bd
00000240: d78f 26be 0caa e9bd f60f 45bd b61b 6abb
00000250: 17f0 19be 00b9 1dbe bb9b 023e fe60 ebb9
00000260: ca62 7e3d d314 b9bd df29 2bbd 4739 05be
00000270: a345 883d b4e1 be3d 950c aa3d 1f69 bdbd
00000280: 4f95 6bbd 0609 e8bd 029c 0e3e 7afb 81bd
00000290: b4ad 0e3d 6ff3 a2bc c204 8dbc c2dc d0bd
000002a0: e909 aebd f446 253e 4cc7 f9bd 4a83 013d
000002b0: 7798 833d 1c4a 8dbd d875 1a3e 7937 13be
000002c0: 8a42 a73c 8304 e73d 761c 0abe ee29 913c
000002d0: 9067 8a3d 0d44 1c3e 6916 ba3b c9fc 19be
000002e0: d759 e93c 8007 07be 90f2 ce3d 64d2 e1bb
000002f0: fbf0 2dbe 7b0c 16bd 77b6 28be 63fe 10be
00000300: b4e0 4e3d 1575 a4bd 682a 00bd 3d3e 093e
00000310: ca5f f0bd 3890 eb3d 2ff6 d5bd e43f 303e
00000320: fae9 44be 5bf5 ab3b 9fdb 0bbd 2822 913d
00000330: 79e4 84bd b873 09bd bda5 22be be16 32be
00000340: ffdb a93d ef0f a13d 624b 04be 4ccb 3cbe
00000350: 4110 e43d 6287 0b3e a735 9c3c bec6 6f3d
00000360: 6eb4 363d 2179 2b3e 905b e83d 6790 3bbd
00000370: 4cbf 023e 4c4a 163d 59cd a73c 27f8 d6bd
00000380: 9820 12be cebc aa3d 0f2b a7bd f5b9 333d
00000390: 537e bb3b c233 c7bd 045b 3abe 429d 03be
000003a0: e4e1 9ebd 563d aabd 7d7c c13d d92e 313d
000003b0: 0d98 293e 61fc d9bd f41f c1bd 79eb f23d
000003c0: 96e1 5e3d ee46 88bd 30b9 8bbd 3442 22be
000003d0: 25ba 783d 021e 2cbe 2473 2e3c 14fe 2dbe
000003e0: 725c a4bd bfca 1dbe 80d0 0abe 93a1 c33d
000003f0: 7562 893c 165f f5bc 9b31 e9bc 94a5 a3bc

lstm.bias_ih_l0_reverse f4 [128]
0.04912948 -0.1288069 0.11042532 -0.031646874 -0.003374859 -0.11308508 -0.017674645 0.03250554
-0.11339956 0.17629525 -0.08998089 0.03666758 0.15613864 0.12689874 0.053546716 -0.074373595
-0.10602641 -0.12415834 -0.15277503 0.10604641 -0.010344497 -0.07929155 0.06287679 -0.0049739396
0.11592881 -0.10229372 0.08897565 -0.15816213 0.10506319 -0.035397884 -0.059653573 0.08816601
-0.04741499 0.007130788 0.06424946 0.17772073 -0.123339765 -0.13583678 0.022810139 0.024292776
0.1329143 0.11765746 -0.085805364 0.15675834 0.07253537 -0.040595718 -0.103673786 -0.1516196
-0.021464579 0.1700666 0.09419455 0.07094548 0.05346264 0.1556907 0.090442166 0.119783565
-0.13696599 -0.122214794 -0.0924973 0.024930727 0.038270045 0.17812723 -0.0728897 0.04159912
0.03923888 -0.027141329 0.037231915 0.04227685 -0.1733337 -0.06931999 0.05844426 0.17767262
0.17561677 -0.068255484 -0.031057091 -0.11439047 0.057502057 0.093193494 0.03441722 -0.15415752
0.10496455 -0.0887713 -0.089061506 0.028353486 0.009054468 0.09759878 0.04811967 0.12550774
0.11419421 0.12605722 -0.15446414 -0.10382955 -0.15205733 0.07840568 0.0805193 -0.030336373
0.09108979 0.16250396 -0.059906196 -0.057985738 -0.09534598 0.103715725 -0.047087193 -0.045037318
0.14099652 0.030602122 0.13692206 0.16990034 -0.066761196 0.08800334 0.08942639 0.112349264
-0.13309865 0.11970562 0.039680332 -0.08235093 0.018931612 -0.027263833 -0.16305502 -0.12627928
-0.1544988 -0.13897938 0.0067285243 0.10762726 0.010949167 -0.01509135 -0.11182928 -0.12138798
00000000: fe3b 493d f5e5 03be ac26 e23d 27a0 01bd
00000010: bd2c 5dbb 2799 e7bd 6bca 90bc 8724 053d
00000020: 073e e8bd be86 343e e747 b8bd bf30 163d
00000030: cfe2 1f3e bef1 013e cd53 5b3d 2f51 98bd
00000040: 6024 d9bd ba46 febd 0f71 1cbe dc2e d93d
00000050: f77b 29bc 9c63 a2bd 8cc5 803d 6efc a2bb
00000060: 156c ed3d 5f7f d1bd de38 b63d 41f5 21be
00000070: 5f2b d73d 5ffd 10bd 4e57 74bd 6290 b43d
00000080: 3836 42bd 63a9 e93b 3995 833d 6cfc 353e
00000090: 8f99 fcbd cc18 0bbe 54dc ba3c a501 c73c
000000a0: b01a 083e 65f6 f03d b9ba afbd 4285 203e
000000b0: 6d8d 943d b247 26bd ec52 d4bd 2b42 1bbe
000000c0: 7cd6 afbc f025 2e3e 12e9 c03d dd4b 913d
000000d0: a4fb 5a3d 626d 1f3e be39 b93d 1651 f53d
000000e0: d040 0cbe c04b fabd 396f bdbd 863b cc3c
000000f0: 0dc1 1c3d fc66 363e 3247 95bd d763 2a3d
00000100: f3b8 203d 7e57 debc 7e80 183d 7e2a 2d3d
00000110: 647e 31be a4f7 8dbd 4063 6f3d d0ef 353e
00000120: e2d4 333e 88c9 8bbd 716b febc 8d45 eabd
00000130: 4787 6b3d 3bdc be3d 12f9 0c3d 78db 1dbe
00000140: a7f7 d63d bacd b5bd e165 b6bd 9245 e83c
00000150: 3159 143c dfe1 c73d 2219 453d 1a85 003e
00000160: a7de e93d 2515 013e d92b 1ebe 96a4 d4bd
00000170: ebb4 1bbe 2893 a03d 4ee7 a43d fc83 f8bc
00000180: 498d ba3d 7067 263e 3360 75bd 7482 6dbd
00000190: c144 c3bd e968 d43d 80de 40bd 0d79 38bd
000001a0: 6461 103e 4db1 fa3c 4c35 0c3e 5bfa 2d3e
000001b0: 18ba 88bd 183b b43d 2f25 b73d 5f17 e63d
000001c0: 034b 08be 3828 f53d d887 223d 9ba7 a8bd
000001d0: 7816 9b3c 6758 dfbc e5f7 26be 5b4f 01be
000001e0: ef34 1ebe 9c50 0ebe f47a dc3b ae6b dc3d
000001f0: 2364 333c b641 77bc c006 e5bd 439a f8bd

lstm.bias_hh_l0_reverse f4 [128]
-0.06675296 -0.06492166 0.14169993 -0.11687398 -0.1769269 0.045064036 -0.047985695 -0.13443637
0.035226993 -0.03130503 -0.105110236 0.12403181 -0.07049861 0.06245061 0.15885459 0.042400673
-0.027734064 -0.11982787 0.13385665 -0.114165455 0.022632426 0.07003618 -0.031169234 0.090525836
-0.16090506 0.13765918 0.056092773 -0.0016815484 -0.10406108 -0.11374854 0.018269043 0.08027804
0.069033265 0.09140607 -0.008298283 -0.044391636 0.11509003 -0.033408426 -0.037070006 -0.17300068
0.13645284 0.113074936 -0.024986714 0.123466045 0.106561325 -0.13840799 0.13822211 0.046408083
0.009396949 0.021663183 0.09247074 0.119710445 -0.1520754 -0.073212005 -0.06869244 0.03297412
-0.003118314 0.0786902 -0.043428723 0.032910347 0.009415466 0.07493502 -0.104482785 0.14125168
0.0038318795 0.08934054 -0.15372732 0.18435825 -0.014848119 -0.018872952 0.036510255 0.0017211364
-0.16472653 0.072194204 0.12929921 0.049177796 0.15082087 0.117867365 0.025081174 -0.16669963
-0.007861487 -0.09169646 0.10289005 -0.07319048 -0.111825846 0.100155115 -0.12678532 0.16813587
0.099140495 0.13324396 -0.030291656 0.1676833 0.06556601 -0.03630626 -0.17558113 0.13335016
-0.08809517 0.066616654 -0.0059033846 0.050299294 -0.06107302 0.018642794 -0.0918286 -0.17071067
0.10272324 0.008055873 -0.10737451 -0.06326526 0.18084268 0.071385734 0.0066645974 0.041691594
-0.13965051 0.14508773 -0.08650901 -0.16423874 -0.06857175 -0.12547305 0.15344007 0.030986069
-0.11931428 -0.02472224 -0.19450584 0.04522414 0.15284677 -0.065353505 0.17965765 0.15132986
00000000: c7b5 88bd a6f5 84bd c919 113e a05b efbd
00000010: 532c 35be 1195 383d a68c 44bd b0a9 09be
00000020: 2e4a 103d b439 00bd 0944 d7bd 6404 fe3d
00000030: 9361 90bd 36cc 7f3d c7aa 223e 54ac 2d3d
00000040: 8c32 e3bc 5068 f5bd b811 093e 94cf e9bd
00000050: a367 b93c 216f 8f3d 9f56 ffbc 9c65 b93d
00000060: 4cc4 24be 87f6 0c3e 89c1 653d 6767 dcba
00000070: fa1d d5bd fff4 e8bd f6a8 953c d068 a43d
00000080: 5061 8d3d 1b33 bb3d 86f5 07bc 01d4 35bd
00000090: 52b4 eb3d 46d7 08bd b8d6 17bd 1727 31be
000000a0: 4bba 0b3e d593 e73d f0b0 ccbc c4db fc3d
000000b0: d33c da3d d3ba 0dbe 198a 0d3e 6716 3e3d
000000c0: a9f5 193c fd76 b13c 4d61 bd3d c02a f53d
000000d0: a7b9 1bbe 2df0 95bd 9fae 8cbd df0f 073d
000000e0: a15c 4cbb 5428 a13d 51e2 31bd 00cd 063d
000000f0: 5443 1a3c 8877 993d 12fb d5bd 48a4 103e
00000100: 4520 7b3b 2cf8 b63d b26a 1dbe 69c8 3c3e
00000110: 8645 73bc 739b 9abc c78b 153d c197 e13a
00000120: 12ae 28be 8eda 933d 0367 043e a86e 493d
00000130: c970 1a3e 7264 f13d 0977 cd3c 4fb3 2abe
00000140: 77cd 00bc 5bcb bbbd 05b8 d23d e4e4 95bd
00000150: f304 e5bd 201e cd3d 03d4 01be cf2b 2c3e
00000160: 2c0a cb3d 1b71 083e 3526 f8bc 2cb5 2b3e
00000170: 7947 863d dfb5 14bd 8acb 33be f28c 083e
00000180: 3e6b b4bd 506e 883d 2e71 c1bb a206 4e3d
00000190: b427 7abd c6b8 983c a210 bcbd c7ce 2ebe
000001a0: 9060 d23d c8fc 033c 2be7 dbbd 3791 81bd
000001b0: d32e 393e af32 923d b262 da3b cec4 2a3d
000001c0: 8b00 0fbe e191 143e a32b b1bd 332e 28be
000001d0: 586f 8cbd 027c 00be 651f 1d3e 7fd6 fd3c
000001e0: 0c5b f4bd 4c86 cabc 8a2c 47be f33c 393d
000001f0: dd83 1c3e 0fd8 85bd 2df8 373e 37f6 1a3e

lstm.weight_ih_l1 f4 [128, 64]
0.09996785 -0.15462105 0.020413661 0.056129053 0.116765775 -0.11337134 0.14024816 0.12750626
0.17975432 0.09619405 -0.05281518 -0.099451765 0.10044415 0.0077588456 0.027202435 -0.09087829
-0.017089775 -0.08940512 0.19727105 0.018473327 -0.05537156 -0.05920658 -0.092268236 -0.09698833
-0.104116514 -0.0785996 -0.119126536 0.07102494 0.16975398 -0.054212414 0.072634324 0.14302975
-0.1865206 -0.12871261 0.13256088 0.013573988 0.012263098 0.18685196 0.13436404 0.11291545
0.1193198 0.03178411 -0.06590425 0.00666774 -0.08668381 0.035967853 -0.14003055 0.14943823
-0.10212302 -0.07944995 -0.109841384 0.12113117 -0.012162313 0.10830851 0.09976289 -0.054723714
0.07096474 -0.06959346 -0.081922114 -0.099797025 -0.056119476 -0.053798158 -0.14953731 -0.034208674
0.015600951 -0.041342992 0.034907874 0.06627554 -0.012743439 -0.007935515 -0.037770253 0.11538392
0.02257168 0.10065371 -0.071693294 0.06351678 0.08472774 0.09264771 0.077348165 -0.14943697
-0.0223343 -0.06773114 0.06239014 -0.01919971 -0.08073256 -0.052423827 -0.07510121 0.07473768
0.1140947 0.012895143 0.11890521 0.18326111 0.037430856 0.102347076 0.1186378 0.12109827
-0.160001 -0.006779096 -0.13784656 0.0110658 -0.10162614 -0.06874276 -0.07800085 -0.069943145
-0.002891997 -0.038551614 -0.07692533 -0.021922795 -0.12506089 -0.032008905 -0.05465433 -0.031755514
0.11488778 0.00499438 -0.12015927 0.14729248 -0.129287 -0.14279084 -0.02036594 0.09757281
-0.10932321 0.11300937 -0.12711647 0.046309315 -0.030138401 0.19364491 0.081651345 0.07177833
-0.013153102 -0.052160855 -0.13011368 0.15935852 0.03963451 -0.11999303 -0.16678952 0.030859023
-0.035988018 0.048001323 0.06111102 -0.108903125 0.06174173 0.13988471 -0.15743624 -0.09883509
-0.12712824 0.013582311 0.15935151 -0.13255666 0.10056402 -0.07723961 0.060664263 0.06704033
0.12999095 0.07271594 -0.05038049 -0.009248048 -0.15580872 0.059079055 -0.10800898 -0.025617408
0.12120357 0.0637298 -0.12684314 0.15406702 0.15734258 -0.14361791 0.018385436 -0.022001104
-0.12460666 0.10492811 -0.034195527 0.059218254 -0.16103159 -0.12770948 0.027007768 -0.028147155
-0.15356316 0.038740057 0.09575823 0.10869542 0.05124542 -0.039904483 0.15856305 -0.14744857
-0.06669515 0.19259575 0.15310732 0.1366345 0.106241845 -0.04659699 0.11181048 0.10782715
-0.0021510222 -0.0017624515 -0.045198128 0.17815705 0.0014946416 -0.092372574 0.062320944 0.12385053
-0.13789043 0.033022158 -0.044977035 -0.087033555 0.0027212284 -0.103749275 0.11639985 -0.17588277
0.17848231 -0.023354309 0.07725292 0.08343454 -0.090429895 -0.108388424 -0.02999498 -0.044864547
0.1300941 0.08592199 -0.0043887524 0.16841823 0.109448574 -0.016516529 0.03833991 -0.11648391
0.05593603 0.13233091 -0.06867041 0.004376624 0.102274716 0.13191 -0.19260903 -0.13614883
-0.014428242 0.14569838 -0.14205498 0.027895013 -0.13418745 -0.0073352247 -0.053973164 -0.10969445
-0.10273187 -0.13289002 0.09725296 -0.018846082 -0.13585252 -0.035904817 -0.115919776 -0.13780312
0.09391534 -0.06244459 -0.15136965 -0.12456795 -0.028880851 -0.03852839 -0.130553 0.06297902
00000000: f2bb cc3d fb54 1ebe 8d3a a73c 94e7 653d
00000010: e522 ef3d 3c2f e8bd 379d 0f3e 0091 023e
00000020: 8411 383e 6301 c53d bb54 58bd 5ead cbbd
00000030: aab5 cd3d ea3d fe3b a4d7 de3c 661e babd
00000040: dbff 8bbc 081a b7bd 6c01 4a3e 6055 973c
00000050: 4acd 62bd 9982 72bd 21f7 bcbd d1a1 c6bd
00000060: 0a3b d5bd d4f8 a0bd 9df8 f3bd 8675 913d
00000070: fdd3 2d3e d60d 5ebd 4ec1 943d 6476 123e
00000080: 42ff 3ebe 3dcd 03be 0abe 073e 6f65 5e3c
00000090: 29eb 483c 1f56 3f3e ba96 093e 3740 e73d
000000a0: f05d f43d 0e30 023d cff8 86bd 0f7d da3b
000000b0: 4887 b1bd 0753 133d 2b64 0fbe 5606 193e
000000c0: e025 d1bd a8b6 a2bd 85f4 e0bd 9e13 f83d
000000d0: 7044 47bc dad0 dd3d 7c50 cc3d f925 60bd
000000e0: f655 913d 0487 8ebd c8c6 a7bd 6262 ccbd
000000f0: 89dd 65bd 755b 5cbd 4f20 19be 651e 0cbd
00000100: 229b 7f3c 4557 29bd 8ffb 0e3d 78bb 873d
00000110: dbc9 50bc f603 02bc fbb4 1abd 684e ec3d
00000120: 3ee8 b83c 8823 ce3d efd3 92bd 1615 823d
00000130: bd85 ad3d 15be bd3d b768 9e3d 0106 19be
00000140: 6cf6 b6bc a0b6 8abd ce8c 7f3d b648 9dbc
00000150: 1d57 a5bd 5eba 56bd aace 99bd 1210 993d
00000160: 7baa e93d 2646 533c 9384 f33d cda8 3b3e
00000170: 1951 193d 589b d13d 60f8 f23d 5f02 f83d
00000180: 4dd7 23be 2e23 debb a627 0dbe 544d 353c
00000190: 5e21 d0bd 01c9 8cbd e9be 9fbd 5a3e 8fbd
000001a0: a987 3dbb 4ce8 1dbd 078b 9dbd 6f97 b3bc
000001b0: f60f 00be c51b 03bd 38dd 5fbd 1212 02bd
000001c0: 494a eb3d e5a7 a33b 1016 f6bd d7d3 163e
000001d0: d063 04be c337 12be 79d6 a6bc 41d4 c73d
000001e0: d9e4 dfbd 7571 e73d d22a 02be d6ae 3d3d
000001f0: cfe4 f6bc da4a 463e d238 a73d 8400 933d
00000200: 1c80 57bc 9fa6 55bd 853c 05be e12e 233e
00000210: cc57 223d e8be f5bd dfca 2abe 10cc fc3c
00000220: 2c68 13bd 099d 443d 8d4f 7a3d 9a08 dfbd
00000230: e5e4 7c3d f03d 0f3e f736 21be 0d6a cabd
00000240: e82d 02be 5788 5e3c 0b2d 233e efbc 07be
00000250: 82f4 cd3d cd2f 9ebd 177b 783d 714c 893d
00000260: 591c 053e 18ec 943d c65b 4ebd 2085 17bc
00000270: 528c 1fbe e1fc 713d d033 ddbd 99db d1bc
00000280: 9439 f83d c584 823d 2be3 01be bfc3 1d3e
00000290: 6a1e 213e 9310 13be 0e9d 963c a93b b4bc
000002a0: c731 ffbd 8de4 d63d 9c10 0cbd d78e 723d
000002b0: 77e5 24be 46c6 02be 653f dd3c dd94 e6bc
000002c0: a93f 1dbe e5ad 1e3d e41c c43d b49b de3d
000002d0: b8e6 513d e272 23bd 5a5e 223e c2fc 16be
000002e0: 7897 88bd d237 453e 2ac8 1c3e eae9 0b3e
000002f0: 5395 d93d 7cdc 3ebd e5fc e43d 7bd4 dc3d
00000300: 2af8 0cbb 0f02 e7ba ac21 39bd cd6e 363e
00000310: dae7 c33a d52d bdbd 3f44 7f3d 59a5 fd3d
00000320: 2633 0dbe 3e42 073d d739 38bd a63e b2bd
00000330: a356 323b 807a d4bd 0b63 ee3d 9d1a 34be
00000340: 11c4 363e 8951 bfbc c736 9e3d badf aa3d
00000350: 4f33 b9bd c0fa ddbd 08b8 f5bc e3c3 37bd
00000360: 6337 053e def7 af3d 86cf 8fbb d475 2c3e
00000370: 9326 e03d ac4d 87bc 4f0a 1d3d 1e8f eebd
00000380: 2e1d 653d c181 073e 12a3 8cbd c869 8f3b
00000390: 6875 d13d 6a13 073e 4d3b 45be 996a 0bbe
000003a0: 6f64 6cbc f531 153e dc76 11be 1584 e43c
000003b0: 6f68 09be 535c f0bb f712 5dbd 7ca7 e0bd
000003c0: 1665 d2bd 5214 08be 8f2c c73d 1963 9abc
000003d0: ec1c 0bbe ee10 13bd 5967 edbd 431c 0dbe
000003e0: b056 c03d e6c5 7fbd a500 1bbe 7b1d ffbd
000003f0: 8997 ecbc f2cf 1dbd b0af 05be 25fb 803d

lstm.weight_hh_l1 f4 [128, 32]
0.14558956 0.1492312 -0.036846407 0.10450899 0.030854996 -0.079546876 0.117715105 -0.08755706
0.14317347 -0.108705245 -0.049993988 -0.12021216 0.15177645 0.1784223 -0.08270528 0.024153927
0.15313928 0.04304958 -0.07231764 0.10226495 0.03585036 0.0053797313 0.0708528 0.1297758
0.1772287 -0.1476779 0.028417127 0.1702234 -0.17327236 0.023888944 0.049809847 -0.035232514
-0.1568318 0.07587601 0.09907466 0.17938049 0.13921556 -0.10007533 0.094064325 -0.069590636
0.028636854 -0.09273628 0.024664445 0.081986465 0.11988666 0.07589599 -0.10324892 0.12974727
0.10839835 0.06954119 0.018283255 0.1075157 -0.005905806 0.09389858 -0.08137195 0.00030112697
0.08671995 0.093741775 0.08050744 0.08550276 -0.07716228 0.013222447 -0.071989246 -0.16712946
0.048450295 0.07961171 0.18604876 -0.07065903 0.023244036 0.10060302 -0.015285118 -0.10834673
0.10037721 -0.046508085 -0.031781964 0.04188382 0.033907063 0.060080223 0.050867833 0.10083082
0.07273257 0.05056232 -0.14523575 0.11783099 0.018865429 0.14399706 0.10952354 0.14242816
0.1467342 0.022530083 -0.04011458 0.107329 -0.13068566 0.11441308 -0.084790625 -0.03649519
0.16667798 0.019197216 0.034023754 0.021057457 0.07322533 -0.03403911 -0.06843556 -0.0688085
-0.12090162 -0.0036691444 -0.14529501 -0.0077786283 -0.08938554 -0.16221614 -0.10736785 -0.0073554423
-0.0865701 -0.029514616 0.14010933 -0.018154375 0.11627754 -0.15795475 0.12844497 -0.08029823
0.067313045 -0.05787614 0.10745308 -0.13568489 0.02966223 0.051091757 0.09676466 0.06383297
-0.12182383 0.049952798 -0.14138867 0.039552525 -0.011937586 -0.091347456 -0.057692718 0.10137824
-0.0860332 0.014078134 0.097536944 -0.0063836537 0.14045082 0.031547513 0.11149374 -0.007862402
0.06466537 -0.024536895 0.0790619 0.014788689 0.041758113 -0.14446397 0.1729128 0.038085222
0.03467089 0.021319238 0.026702764 0.12516005 -0.10276863 0.11301508 0.033576813 -0.050004076
-0.1472354 0.053087328 0.08854779 -0.013399374 -0.1064413 -0.13770115 -0.18100053 0.12702678
-0.16821107 -0.03083565 -0.1318087 -0.07853677 -0.087164484 0.11934158 -0.08540496 0.12819791
-0.034442034 -0.18090647 -0.09390481 -0.08019567 0.17948523 0.004132482 0.028948413 0.10131276
-0.122713424 0.18965098 0.155683 0.09612381 -0.04333276 0.040200353 0.15970096 -0.029899256
0.021430368 0.12728247 -0.112056814 0.16041833 0.07359333 0.06692336 -0.15326914 0.11775995
-0.07240437 -0.12292465 0.046391286 -0.114947736 -0.17290148 -0.15980951 0.08566059 -0.14144254
-0.03675763 0.18348642 -0.111337 -0.09835793 0.017272834 0.12996475 0.03620488 -0.0042739934
-0.16621278 -0.12195757 -0.053033926 0.008382352 -0.12122093 0.072311796 0.08859884 0.08374292
-0.15290196 0.12092522 -0.0024303647 0.13037108 -0.012014481 -0.00557447 0.1808342 -0.075582094
0.069350675 0.026264425 -0.049580846 -0.034792315 0.02119692 -0.09941096 -0.074605316 -0.07870043
-0.18824361 0.022151317 -0.09877185 -0.13516827 -0.11426084 0.09074166 -0.12769999 0.14258745
-0.091517344 -0.00042905865 -0.08157877 0.06713453 0.10414051 0.07783622 -0.09286282 -0.07287986
00000000: 6e15 153e 10d0 183e 42ec 16bd cf08 d63d
00000010: 9ec3 fc3c 79e9 a2bd 9e14 f13d 1e51 b3bd
00000020: 119c 123e dba0 debd 7fc6 4cbd cb31 f6bd
00000030: 496b 1b3e 56b4 363e 6361 a9bd 75de c53c
00000040: 8bd0 1c3e c254 303d 451b 94bd 4970 d13d
00000050: d4d7 123d 7548 b03b 461b 913d f3e3 043e
00000060: 717b 353e e038 17be 09cb e83c 0b4f 2e3e
00000070: 4f6e 31be bfb2 c33c 6905 4c3d f84f 10bd
00000080: 8498 20be e264 9b3d a8e7 ca3d 85af 373e
00000090: 868e 0e3e 4bf4 ccbd cca4 c03d 8985 8ebd
000000a0: d697 ea3c 85ec bdbd 170d ca3c 85e8 a73d
000000b0: 2387 f53d 5b6f 9b3d 2b74 d3bd 78dc 043e
000000c0: f4ff dd3d 9d6b 8e3d c4c6 953c 3131 dc3d
000000d0: 7e85 c1bb e64d c03d 56a6 a6bd 94e0 9d39
000000e0: 3b9a b13d b0fb bf3d 16e1 a43d 121c af3d
000000f0: 4207 9ebd f6a2 583c 196f 93bd fc23 2bbe
00000100: d173 463d 770b a33d 9183 3e3e aeb5 90bd
00000110: 476a be3c f508 ce3d 6e6e 7abc e4e4 ddbd
00000120: 9192 cd3d 437f 3ebd ce2d 02bd 5e8e 2b3d
00000130: 22e2 0a3d ae16 763d ca5a 503d 6480 ce3d
00000140: d0f4 943d 6f1a 4f3d aeb8 14be 6051 f13d
00000150: ac8b 9a3c f773 133e e14d e03d b0d8 113e
00000160: 7d41 163e 0291 b83c 304f 24bd 4fcf db3d
00000170: 76d2 05be 6851 ea3d b5a6 adbd fb7b 15bd
00000180: a2ad 2a3e 7b43 9d3c 7e5c 0b3d b080 ac3c
00000190: 29f7 953d 986c 0bbd f127 8cbd 79eb 8cbd
000001a0: 459b f7bd 0776 70bb 37c8 14be dde3 febb
000001b0: c40f b7bd fd1b 26be ade3 dbbd ec05 f1bb
000001c0: aa4b b1bd a3c8 f1bc d278 0f3e 7cb8 94bc
000001d0: eb22 ee3d e4be 21be 1487 033e 6673 a4bd
000001e0: 6cdb 893d 880f 6dbd 5c10 dc3d fbf0 0abe
000001f0: 34fe f23c 9745 513d 8d2c c63d dcba 823d
00000200: c67e f9bd 4e9b 4c3d 31c8 10be d401 223d
00000210: dd95 43bc 6014 bbbd 334f 6cbd 659f cf3d
00000220: 2d32 b0bd f9a7 663c 73c1 c73d f82d d1bb
00000230: 57d2 0f3e f737 013d d456 e43d 4ed1 00bc
00000240: 476f 843d 9901 c9bc 35eb a13d 424c 723c
00000250: 8e0a 2b3d 5dee 13be 0e10 313e 40ff 1b3d
00000260: 1003 0e3d afa5 ae3c c1bf da3c f529 003e
00000270: 5c78 d2bd 7374 e73d d787 093d 13d1 4cbd
00000280: e0c4 16be 1972 593d 8b58 b53d 0c89 5bbc
00000290: e5fd d9bd 8801 0dbe 3458 39be 4f13 023e
000002a0: 863f 2cbe 0c9b fcbc dcf8 06be e3d7 a0bd
000002b0: 4b83 b2bd 5c69 f43d cce8 aebd 5046 033e
000002c0: 1713 0dbd 8c3f 39be 2a51 c0bd a13d a4bd
000002d0: faca 373e c669 873b 3925 ed3c 107d cf3d
000002e0: 2d51 fbbd de33 423e 5d6b 1f3e 8fdc c43d
000002f0: b17d 31bd 20a9 243d a688 233e 49ef f4bc
00000300: bd8e af3c 5656 023e 0b7e e5bd b444 243e
00000310: 1ab8 963d 1d0f 893d 96f2 1cbe 212c f13d
00000320: be48 94bd ebbf fbbd ca04 3e3d b869 ebbd
00000330: 160d 31be 1ba5 23be d26e af3d 50d6 10be
00000340: 2b8f 16bd dde3 3b3e a704 e4bd e26f c9bd
00000350: c27f 8d3c 7b15 053e 914b 143d db0c 8cbb
00000360: af33 2abe e4c4 f9bd 1a3a 59bd 2256 093c
00000370: ae42 f8bd 3518 943d 4f73 b53d 6881 ab3d
00000380: 5592 1cbe a4a7 f73d c146 1fbb ff7f 053e
00000390: 63d8 44bc 0baa b6bb 9a2c 393e c9ca 9abd
000003a0: ba07 8e3d 7e28 d73c 4915 4bbd 6382 0ebd
000003b0: 2aa5 ad3c f997 cbbd acca 98bd b12d a1bd
000003c0: efc2 40be ae76 b53c e548 cabd 8d69 0abe
000003d0: 9601 eabd c3d6 b93d c9c3 02be 7202 123e
000003e0: 726d bbbd 47f3 e0b9 c512 a7bd d47d 893d
000003f0: 9f47 d53d 9968 9f3d dd2e bebd 0942 95bd
